qolo_package/src/trainedModels_Fx.npz (npz, 667690 bytes, 6 tensors)

kernel_scale f8 []
00000000: ec51 b81e 85eb e13f
0.56

sv (column-major) f8 [13886, 5]
00000000: b75b c8e8 5a61 e33f 2a0f 7612 c4bb e03f
00000010: f377 3d61 7395 de3f d1a6 7799 490e de3f
00000020: f8d6 4165 7a4a dd3f a699 4733 17d9 db3f
00000030: 0699 d707 a860 db3f b8dc 67f8 0b5c d83f
00000040: 226e 88fc 8aa9 d53f 7dee ff31 9e80 d73f
00000050: cb74 7424 cbd1 d73f 8c8a 2078 79f0 d73f
00000060: af6d 46f9 08a7 d63f 6865 4f42 ff53 d53f
00000070: 41fe 9bd1 f4df d43f ae24 c7cb b5c2 d43f
00000080: 2c69 23f4 8894 d33f 0bb5 ff07 7dca d33f
00000090: df6c c41c 349e d43f 0ba4 89e4 102e cd3f
000000a0: 1861 2d7a 50ac cb3f c48b cf26 f341 ca3f
000000b0: 3677 e958 869f ca3f 95a8 a5f5 fcf9 c93f
000000c0: 9d9f 772f d0dd ca3f 50a9 1bee 7070 ca3f
000000d0: 797e 554c 2942 ca3f e147 5173 e1c6 c93f
000000e0: ae06 4cd7 713d c93f 8da1 5151 44b5 c93f
000000f0: 1e45 19c0 b9aa e13f d626 c0d5 c3bc e03f
00000100: 65fd 49ca 25bb d33f 68cb 00cc c976 c53f
00000110: 38ac cfcd ebe7 c33f 9b9d 4d47 22b3 c13f
00000120: 97ef e5d2 1b74 d03f 8db3 ffd6 a5dc d13f
00000130: 9213 63e1 7768 d43f 9bad 55fd e617 d63f
00000140: 866f dcd3 9a88 d63f ba79 1dd7 0698 d63f
00000150: bc23 82e4 5119 d73f 8f94 e755 3b29 db3f
00000160: 4a4a 4f2f 632a dd3f ff6b be61 c583 dd3f
00000170: 6a4c 4c93 c9d2 dd3f 50e5 1be0 2794 e03f
00000180: 7e14 f149 f19e e13f 4fc5 d915 5c08 e23f
00000190: 7fda edcd 0dfe e13f 20d7 bf83 54c1 e23f
000001a0: f18f 25a0 b2e5 e23f a37e f384 bfe1 e23f
000001b0: 40dc 6bbc 72ed e23f 49e1 5a52 8e7f e23f
000001c0: b34c 79c2 3a7d e23f d4a4 f700 4c4a e23f
000001d0: 763d f9a0 5843 e23f c602 6f62 f43d e23f
000001e0: dee3 ce4f eb12 e23f acbd 05f2 eaf4 e13f
000001f0: ded9 c508 a3e0 e13f 0b81 62c9 9c9d e13f
00000200: bb5e 2d4d 6963 e13f b5e1 4e41 824b e13f
00000210: cd1f 7edc 3c12 e13f 6e22 d918 9400 e13f
00000220: 46a9 52e0 e200 e13f 5e74 cca4 d128 e13f
00000230: f4c8 f888 8f4d e13f 76ad c930 8c51 e13f
00000240: faf8 27dc 8e3a e13f 4a54 7100 c838 e13f
00000250: 0856 a0ce 082d e13f f5fc 5cdd 6c29 e13f
00000260: cfe2 919f e4f9 e03f 1b2a ea07 17d8 e03f
00000270: 343d 68ed 91ad e03f 6bcd 39bb 9c93 e03f
00000280: 15e6 2012 4206 d83f 157c 12fc 2d0d d63f
00000290: f137 293a 2024 c53f 26f4 34e1 85a3 c53f
000002a0: 466b f8e3 a650 c53f 6056 41d7 f599 c93f
000002b0: 61c8 d21b 8b90 cd3f 9ff2 7a1a 29ec c93f
000002c0: d8bb f94b 46cb cc3f 1916 6d00 85da d03f
000002d0: 2311 d37a 0030 d13f 5448 d7f2 7469 d93f
000002e0: 570f e7a4 e12e db3f e660 f728 a7be db3f
000002f0: 862e 955b 0800 e03f 3e55 deb5 e58e e03f
00000300: 0d55 c7b8 6e36 e13f 781f 1805 159f e13f
00000310: c3fa 4c8f 5d94 e13f 8c1a ef82 29a3 e43f
00000320: abfc 48a3 2499 e43f 5a3a e14b 85b4 e43f
00000330: 1f2d 531a e0fe e13f 73b9 f5ef 18b0 e03f
00000340: b91f ad10 f0b2 df3f 7a4e 16c6 0338 de3f
00000350: 244e bd2d 46c5 dd3f 260d b89a 4d45 dd3f
00000360: 8185 09c0 4c2b dc3f f4fb 0ac2 3fe7 da3f
00000370: 4e3e 40e6 bb82 d93f d53d c90f c337 d83f
00000380: e7d6 bd0a 7759 d73f 9439 ee55 0277 d73f
00000390: 7fd1 724c cd14 d73f 02dc 34c6 6614 d63f
000003a0: 7fe7 f26c b6ae d43f 7412 c946 569d d33f
000003b0: b636 308a ca5e d23f f79e 06e8 4d10 d13f
000003c0: 5ea4 fb7b 6e17 d03f f177 1ec7 9d19 cf3f
000003d0: 3379 915e df2e cc3f 98d4 5391 945a c83f
000003e0: 2d3c e0db 7763 c63f f83b dc03 e992 c33f
000003f0: 79e9 492d 1b5b c03f 63a1 18dd 8b58 be3f
00000400: 9605 8ef8 d514 bd3f ce76 c72e 13e8 b83f
00000410: c449 b242 42c6 a73f 6a3c c925 7516 a23f
00000420: dbc6 0fef 70f4 9d3f 6fdd 4611 5efe 9c3f
00000430: 097d 95aa 614e 9e3f 1ee2 ab5a 1d52 a03f
00000440: 4ad4 d0f4 b62a a13f 2954 d18f 2c9b a73f
00000450: 190b 8e5f 695c ac3f a3a5 37c2 842a a93f
00000460: f46f 8495 2cf1 a53f 1e31 c68a 8e69 aa3f
00000470: 1394 827c ef73 ad3f df10 e86d 173b a93f
00000480: cfdb 1c6d d6b6 ac3f 2ce5 62cb a432 b03f
00000490: 5bd0 4975 b2e3 ad3f 5567 a806 0f82 b03f
000004a0: b4e6 1dc6 baf5 b23f f9b0 e763 4fa6 b13f
000004b0: 9f47 050c e5d0 b23f f6d2 399b a1bb b33f
000004c0: b205 3e19 fec1 b23f 7121 1a9c 90cb b13f
000004d0: 4ad5 bd81 3633 b33f 0834 f13a 3bac b33f
000004e0: ced7 d66c 053c b33f f25b 0a85 b704 b23f
000004f0: d2de f0cd e92a b33f b0b6 21f0 8886 b53f
00000500: a36d dde3 cd77 b33f dc0b ba8d 1e8f b13f
00000510: 6777 025a 76dd b13f 94c4 0e9d 0639 b33f
00000520: 16ee eafd 3008 b13f 0906 07e3 d7dd ad3f
00000530: 8a66 1679 da52 ac3f 9cce d0f0 5724 b03f
00000540: e1b1 7c48 6c80 b03f 2ca0 f7e1 2336 af3f
00000550: 3ddf 2555 65d5 b13f 0687 3b22 bd1f b33f
00000560: 355f bb1c 8faa b03f 19f5 94cb a1af b13f
00000570: fe56 b08f d58b b53f b2e6 3abd 1b72 b93f
00000580: f66d 3c2e 38ab b93f c915 c90a eab6 ba3f
00000590: 0dd9 c916 dae0 be3f 6c20 b8cc 2716 c13f
000005a0: b2ce 4935 d810 c23f b056 e704 c543 c33f
000005b0: 7401 115b bb97 c53f 6d6a 8e84 36d1 c73f
000005c0: 156c 5386 1fab c83f c128 49fd b56b ca3f
000005d0: 0755 4dfc 1df9 cc3f c43c f695 c2c3 ce3f
000005e0: aa81 0985 9755 cf3f 2bfb e1a0 f52a d03f
000005f0: 3a59 9829 af38 d13f d287 50e1 1e55 d23f
00000600: a600 da0b 75ff d23f ecaf 462e b2df d23f
00000610: 4cb5 bd5b 4dd4 d23f 099b 8c25 29ac d23f
00000620: 60b5 69eb 7773 d33f 4fea 1367 d443 d43f
00000630: cd65 a01c 82f0 d43f 3704 e97b e48b d53f
00000640: 6563 3e20 43f0 d53f 3cb7 7cd9 57e3 d53f
00000650: 4292 5044 2cc1 d53f 7375 9830 d0c8 d53f
00000660: 7d29 b8b4 6a9f d63f 57e9 3da3 6af7 d73f
00000670: 110c 667d 59c1 d83f ae2e bdc8 e6b5 d73f
00000680: 3d79 2c8a efe6 d63f abaf 9751 ba23 d63f
00000690: c9bb 93b8 d633 d53f c8fb dcae db76 cd3f
000006a0: 8062 5c1a c18e c73f a6a9 2a60 ccf7 c63f
000006b0: e371 7787 ee96 c53f a150 c0f6 c1ac c53f
000006c0: d058 6deb a382 c53f c303 1d7f 567a c33f
000006d0: cda9 33bd 3ca9 c23f 4992 c21a cefb c13f
000006e0: fdd4 c8ae d53a c03f fa9f a4ff 151e bd3f
000006f0: 59b5 9941 9285 bf3f 84c9 a130 b27c be3f
00000700: e439 5c59 10f8 ba3f cfdf bac0 3b64 ba3f
00000710: a683 2a8f be8a b83f 54b3 7e4b 0c09 ac3f
00000720: 41ab bc47 a2b6 aa3f dfb9 d770 c05d a63f
00000730: cc52 3c48 816b a73f 482c 471a fa31 a33f
00000740: 653f 8efd addf a53f 2345 5b31 6e18 a93f
00000750: 5f23 14a9 a53d ac3f 287c 5d7e 4a63 aa3f
00000760: 6dac 78ee c9b7 a93f b06e ec5a 454e a73f
00000770: 9829 8717 1d7a a63f 4308 c229 0a1d ad3f
00000780: 64cb d4fd 33b3 b03f 1365 394f 8c82 ad3f
00000790: eb1d 939c 74d3 a93f 9e1f d694 3005 a73f
000007a0: fc95 9b06 7cc3 a03f 983e 9434 5d2b a03f
000007b0: 9b11 773f 9887 a73f b4c7 56c9 183f aa3f
000007c0: c61d 3406 f280 a83f 56c9 32fb 523d a43f
000007d0: bb28 327f 1a87 a43f ea45 5cbf ef0a a63f
000007e0: 1bf0 4f3e 332c a23f 8e28 87ec cc2c 9e3f
000007f0: 1688 5cae da83 a53f 9944 d201 90ef ab3f
0.6056341692482111 0.5229206429071145 0.4778717469797577 0.4696220396714184 0.45767078293225394 0.4351251602915006 0.4277744366248871 0.38061808832521704
0.338473078359785 0.3672252167013779 0.3721797805790856 0.37405239802516443 0.3539450105979211 0.3332517764625522 0.32616920919096876 0.32438416385827906
0.30594085542328986 0.3092339113344031 0.32215597924523637 0.22796832236352346 0.21619611707388553 0.20513762850813866 0.20799331036953966 0.2029415320824383
0.20989420240152593 0.20655643106813182 0.20514408328289216 0.20138185625779584 0.19718764317081167 0.20084432573936475 0.5520905258109996 0.523042600137354
0.30829758410251024 0.1676876302822976 0.15551517056823783 0.13827923280335316 0.25708671184087833 0.2790922736738189 0.3188762379689304 0.34520888080325
0.35208769502218507 0.3530289746030594 0.3609204036261493 0.4243915881073201 0.4557121240624481 0.46116766495987344 0.4659904421288902 0.5180854203346517
0.550652164857311 0.5635204722185935 0.5622624418309242 0.5860998700361257 0.5905392768731855 0.5900571438505334 0.5914853744606106 0.5780707939621063
0.5777868078534055 0.5715694445508697 0.570720972444106 0.5700628206760363 0.5648094710114682 0.5611471869469162 0.5586714907975041 0.5504898007675662
0.5433851725928983 0.5404673839139408 0.5334762865540995 0.531320618182759 0.5313581830317069 0.5362327784274716 0.5407178569060123 0.5412045433890131
0.5383981990742364 0.5381813057562195 0.5367473636312647 0.5363067935467415 0.5305045239066092 0.5263781694969255 0.5211877476557789 0.5180190712693905
0.37538196344721203 0.3445544206278453 0.16516497459309634 0.16905282493999713 0.16652380114904924 0.20001099596508976 0.23097361429751387 0.20251954834920569
0.22495344838850317 0.2633373741303742 0.26855480188921116 0.3970615741246821 0.4247364149452912 0.4335115337430707 0.5000039852834142 0.5174435188406858
0.5378945931394427 0.5506692027565654 0.5493610190240691 0.6449172551445641 0.6436942280924048 0.6470362169291761 0.5623627199323983 0.5214962660518679
0.4952964938024667 0.47216886848875783 0.4651656576799914 0.45735492810509226 0.44014281037933506 0.42036432218077313 0.3986043690247002 0.37840343991862585
0.3648355107210208 0.36663874045998424 0.3606446501319382 0.34499520641423953 0.32316361083541517 0.30647808945312893 0.2870355939383943 0.26662013682151503
0.25143015010559633 0.24296924803360256 0.22018043630209547 0.19026429267947687 0.17491052852753466 0.15292084396830297 0.12778033934939595 0.11853860996109726
0.11359917944175488 0.09729118244237187 0.04643446983495239 0.0353275879502853 0.029252781478084394 0.028314084820264037 0.02959587672864664 0.03187648517445417
0.033529012093290136 0.046105759197111525 0.05539254466477512 0.049152516086745444 0.04285563779032478 0.05158658451100194 0.057525142621024504 0.0492789575255601
0.05608244020407193 0.06327276196943349 0.058377816026138084 0.06448453819794271 0.07406203591190313 0.06894394101226799 0.07349998038742321 0.07708177604383679
0.07327259174601045 0.06951240359388124 0.07500019710081066 0.07684679211634216 0.07513460070808195 0.0703844737821411 0.07487355497220996 0.08408408987608129
0.0760468179045604 0.06859007797360966 0.06978549668789712 0.07508889517227352 0.06653124045526967 0.05833315512019161 0.055319621354283546 0.06305455807960886
0.06445957917885138 0.0609599316920256 0.06966241196448393 0.07470304570918182 0.06510252429449966 0.06908618183384298 0.08416495092418683 0.09939740533709587
0.10026885155496487 0.10435354960744471 0.12061846786841475 0.1334886312108695 0.14113905527084608 0.15050566424786416 0.16869298884013129 0.18607217285610336
0.19272226389770766 0.20641207568616518 0.22635245150983271 0.24034912416798282 0.2447995566935906 0.25262203894810636 0.2690847307398091 0.28644535067917076
0.2968418708551418 0.294903321448827 0.2942078967960995 0.29175785700719864 0.3039226340250334 0.31663999620619604 0.3271794585758386 0.3366633615551708
0.34278944157408936 0.3420009254358438 0.3399153391967823 0.34038166757257854 0.3534800305211759 0.3744761079939471 0.3868011211963572 0.37047738650719964
0.35784519666221454 0.3459306523134226 0.33128898644548294 0.2301897624801923 0.18404401576187368 0.17943720527302992 0.16866857161120583 0.16933464573287885
0.1680493258997502 0.15217095572191228 0.14578971136445631 0.1404969816841393 0.12679549250029956 0.1137403248909549 0.12313188649723851 0.11909021079353549
0.10534765416762287 0.10309194045373647 0.09586707110658085 0.054756530967415756 0.052174636132198866 0.043684018873921586 0.04574207312376685 0.03749066897179226
0.04272216530000498 0.049014514470068236 0.05515783013294739 0.05153878014129304 0.05023032222774124 0.04551903471857821 0.04390040313917892 0.056862180325893984
0.06523442217875935 0.057636627837107345 0.05044140254318193 0.044961469810970586 0.03274142819081402 0.03158084170183634 0.04595638060303316 0.05126264055014876
0.047858775384209504 0.03953036610018283 0.04009325792965642 0.04305218897765058 0.03549347053191828 0.029467775284310486 0.04202159288821876 0.0545620920394267

mu f8 [5]
00000000: 0885 10a2 42b5 44c0 5aa4 ee9f 32c5 5240
00000010: 815a 12e0 928c c8bf b07f 138e fc8e d93f
00000020: 9e5b a1bc 70ec c2bf
-41.41609597975372 75.08121488861926 -0.19178996983528765 0.39935220598817533 -0.14784058771575997

bias f8 []
00000000: 1a40 342d 9fbd 0fc0
-3.9675887614794307

alpha f8 [13886]
00000000: 0c05 96ed d649 16c0 0c05 96ed d649 1640
00000010: 0c05 96ed d649 1640 0c05 96ed d649 1640
00000020: d499 29e7 b6eb e53f 0c05 96ed d649 1640
00000030: 0c05 96ed d649 1640 0c05 96ed d649 1640
00000040: 0c05 96ed d649 1640 0c05 96ed d649 1640
00000050: 0c05 96ed d649 1640 0c05 96ed d649 1640
00000060: 0c05 96ed d649 1640 cf0e 253e 3129 1540
00000070: 0c05 96ed d649 1640 0c05 96ed d649 1640
00000080: 6889 9792 621b 0140 6f25 2023 2b38 0340
00000090: 0c05 96ed d649 1640 0c05 96ed d649 1640
000000a0: 250d f6d8 8883 f93f 8c3d 71fe 1b96 e2bf
000000b0: 0c05 96ed d649 16c0 0c05 96ed d649 16c0
000000c0: 0c05 96ed d649 16c0 0c05 96ed d649 16c0
000000d0: 0c05 96ed d649 16c0 0c05 96ed d649 16c0
000000e0: 0c05 96ed d649 16c0 0c05 96ed d649 16c0
000000f0: 0c05 96ed d649 16c0 0c05 96ed d649 16c0
00000100: 80b7 0846 9565 f1bf c4ef b954 a74d 0bc0
00000110: 0c05 96ed d649 16c0 0c05 96ed d649 16c0
00000120: 0c05 96ed d649 16c0 2ed9 465d 8f84 06c0
00000130: 0c05 96ed d649 16c0 0c05 96ed d649 16c0
00000140: 0c05 96ed d649 16c0 0c05 96ed d649 16c0
00000150: 0c05 96ed d649 16c0 69ee 13ed b41c f3bf
00000160: 0c05 96ed d649 16c0 0c05 96ed d649 16c0
00000170: 0c05 96ed d649 16c0 0c05 96ed d649 16c0
00000180: 0c05 96ed d649 16c0 0c05 96ed d649 16c0
00000190: 0c05 96ed d649 16c0 0c05 96ed d649 16c0
000001a0: 30e5 498e 984d 14c0 0c05 96ed d649 16c0
000001b0: 0c05 96ed d649 16c0 0c05 96ed d649 16c0
000001c0: 0c05 96ed d649 16c0 0c05 96ed d649 16c0
000001d0: 0c05 96ed d649 16c0 0c05 96ed d649 16c0
000001e0: 0c05 96ed d649 16c0 0c05 96ed d649 16c0
000001f0: 0c05 96ed d649 16c0 0c05 96ed d649 16c0
00000200: 0c05 96ed d649 16c0 0c05 96ed d649 16c0
00000210: 0c05 96ed d649 16c0 0c05 96ed d649 16c0
00000220: 0c05 96ed d649 16c0 0c05 96ed d649 16c0
00000230: 0c05 96ed d649 16c0 0c05 96ed d649 16c0
00000240: 0c05 96ed d649 16c0 0c05 96ed d649 16c0
00000250: 0c05 96ed d649 16c0 30cf 8257 7573 07c0
00000260: c369 09a5 5482 febf 0c05 96ed d649 16c0
00000270: 0c05 96ed d649 16c0 0c05 96ed d649 16c0
00000280: 99bd bcc5 31e3 02c0 0c05 96ed d649 16c0
00000290: dbab be9a 7f77 15c0 0c05 96ed d649 1640
000002a0: 0c05 96ed d649 1640 0c05 96ed d649 1640
000002b0: e07a 43d1 ec7d ca3f 0c05 96ed d649 1640
000002c0: 0c05 96ed d649 1640 0c05 96ed d649 1640
000002d0: 0c05 96ed d649 1640 0c05 96ed d649 16c0
000002e0: 0c05 96ed d649 16c0 0c05 96ed d649 16c0
000002f0: 0c05 96ed d649 16c0 0c05 96ed d649 16c0
00000300: 28f9 a28c 9a4b f3bf 0c05 96ed d649 16c0
00000310: 0c05 96ed d649 16c0 0c05 96ed d649 16c0
00000320: 0c05 96ed d649 16c0 0c05 96ed d649 1640
00000330: ba14 8811 9c85 d13f 0c05 96ed d649 1640
00000340: 0c05 96ed d649 1640 0c05 96ed d649 1640
00000350: 0c05 96ed d649 1640 0c05 96ed d649 1640
00000360: 0c05 96ed d649 1640 0c05 96ed d649 1640
00000370: 0c05 96ed d649 1640 0c05 96ed d649 1640
00000380: 0c05 96ed d649 1640 0c05 96ed d649 1640
00000390: 0c05 96ed d649 1640 0c05 96ed d649 1640
000003a0: 0c05 96ed d649 1640 0c05 96ed d649 1640
000003b0: 0c05 96ed d649 1640 0c05 96ed d649 1640
000003c0: 0c05 96ed d649 1640 0c05 96ed d649 1640
000003d0: 0c05 96ed d649 1640 0c05 96ed d649 1640
000003e0: 0c05 96ed d649 1640 0c05 96ed d649 1640
000003f0: 0c05 96ed d649 1640 0c05 96ed d649 1640
00000400: 0c05 96ed d649 1640 0c05 96ed d649 1640
00000410: 0c05 96ed d649 16c0 0c05 96ed d649 16c0
00000420: 0c05 96ed d649 16c0 0c05 96ed d649 16c0
00000430: 0c05 96ed d649 16c0 0c05 96ed d649 16c0
00000440: 0c05 96ed d649 16c0 0c05 96ed d649 16c0
00000450: 0c05 96ed d649 16c0 0c05 96ed d649 16c0
00000460: 0c05 96ed d649 16c0 0c05 96ed d649 16c0
00000470: 0c05 96ed d649 16c0 0c05 96ed d649 16c0
00000480: 0c05 96ed d649 16c0 0c05 96ed d649 16c0
00000490: 0c05 96ed d649 16c0 0c05 96ed d649 16c0
000004a0: 0c05 96ed d649 16c0 0c05 96ed d649 16c0
000004b0: 0c05 96ed d649 16c0 0c05 96ed d649 16c0
000004c0: 0c05 96ed d649 16c0 0c05 96ed d649 16c0
000004d0: 0c05 96ed d649 16c0 0c05 96ed d649 16c0
000004e0: 0c05 96ed d649 16c0 0c05 96ed d649 16c0
000004f0: 0c05 96ed d649 16c0 0c05 96ed d649 16c0
00000500: 0c05 96ed d649 16c0 0c05 96ed d649 16c0
00000510: 0c05 96ed d649 16c0 0c05 96ed d649 16c0
00000520: 0c05 96ed d649 16c0 0c05 96ed d649 16c0
00000530: 0c05 96ed d649 16c0 0c05 96ed d649 16c0
00000540: 0c05 96ed d649 16c0 0c05 96ed d649 16c0
00000550: 0c05 96ed d649 16c0 0c05 96ed d649 16c0
00000560: 0c05 96ed d649 16c0 0c05 96ed d649 16c0
00000570: 0c05 96ed d649 16c0 0c05 96ed d649 16c0
00000580: 0c05 96ed d649 16c0 0c05 96ed d649 16c0
00000590: 0c05 96ed d649 16c0 0c05 96ed d649 16c0
000005a0: 0c05 96ed d649 16c0 0c05 96ed d649 16c0
000005b0: 0c05 96ed d649 16c0 0c05 96ed d649 16c0
000005c0: 0c05 96ed d649 16c0 0c05 96ed d649 16c0
000005d0: 0c05 96ed d649 16c0 0c05 96ed d649 16c0
000005e0: 0c05 96ed d649 16c0 0c05 96ed d649 16c0
000005f0: 0c05 96ed d649 16c0 0c05 96ed d649 16c0
00000600: 0c05 96ed d649 16c0 0c05 96ed d649 16c0
00000610: 0c05 96ed d649 16c0 0c05 96ed d649 16c0
00000620: 0c05 96ed d649 16c0 0c05 96ed d649 16c0
00000630: 0c05 96ed d649 16c0 0c05 96ed d649 16c0
00000640: 0c05 96ed d649 16c0 0c05 96ed d649 16c0
00000650: 0c05 96ed d649 16c0 0c05 96ed d649 16c0
00000660: 0c05 96ed d649 16c0 0c05 96ed d649 16c0
00000670: 0c05 96ed d649 16c0 0c05 96ed d649 1640
00000680: 0c05 96ed d649 1640 0c05 96ed d649 1640
00000690: 0c05 96ed d649 1640 0c05 96ed d649 1640
000006a0: 0c05 96ed d649 1640 0c05 96ed d649 1640
000006b0: 0c05 96ed d649 1640 0c05 96ed d649 1640
000006c0: 0c05 96ed d649 1640 0c05 96ed d649 1640
000006d0: 0c05 96ed d649 1640 0ded 9a11 42b4 1540
000006e0: 0c05 96ed d649 1640 0c05 96ed d649 1640
000006f0: 0c05 96ed d649 1640 0c05 96ed d649 1640
00000700: 0c05 96ed d649 1640 0c05 96ed d649 1640
00000710: 0c05 96ed d649 1640 0c05 96ed d649 1640
00000720: 0c05 96ed d649 1640 0c05 96ed d649 1640
00000730: 0c05 96ed d649 1640 0c05 96ed d649 1640
00000740: 0c05 96ed d649 1640 20c3 e356 f41f ca3f
00000750: 0c05 96ed d649 1640 0c05 96ed d649 1640
00000760: 0c05 96ed d649 1640 0c05 96ed d649 1640
00000770: 0c05 96ed d649 1640 0c05 96ed d649 1640
00000780: 0c05 96ed d649 1640 0c05 96ed d649 1640
00000790: 0c05 96ed d649 1640 0c05 96ed d649 1640
000007a0: 0c05 96ed d649 1640 0c05 96ed d649 1640
000007b0: 0c05 96ed d649 1640 0c05 96ed d649 1640
000007c0: 0c05 96ed d649 1640 0c05 96ed d649 1640
000007d0: 0c05 96ed d649 1640 0c05 96ed d649 1640
000007e0: 0c05 96ed d649 1640 0c05 96ed d649 1640
000007f0: 0c05 96ed d649 1640 0c05 96ed d649 1640
-5.572108948022343 5.572108948022343 5.572108948022343 5.572108948022343 0.6850237383740088 5.572108948022343 5.572108948022343 5.572108948022343
5.572108948022343 5.572108948022343 5.572108948022343 5.572108948022343 5.572108948022343 5.29022690869506 5.572108948022343 5.572108948022343
2.1383716061110825 2.40242602769711 5.572108948022343 5.572108948022343 1.594612929825254 -0.5808238954140719 -5.572108948022343 -5.572108948022343
-5.572108948022343 -5.572108948022343 -5.572108948022343 -5.572108948022343 -5.572108948022343 -5.572108948022343 -5.572108948022343 -5.572108948022343
-1.0873005614953115 -3.4129168147319167 -5.572108948022343 -5.572108948022343 -5.572108948022343 -2.8147265708204463 -5.572108948022343 -5.572108948022343
-5.572108948022343 -5.572108948022343 -5.572108948022343 -1.1945084820607923 -5.572108948022343 -5.572108948022343 -5.572108948022343 -5.572108948022343
-5.572108948022343 -5.572108948022343 -5.572108948022343 -5.572108948022343 -5.075777266750535 -5.572108948022343 -5.572108948022343 -5.572108948022343
-5.572108948022343 -5.572108948022343 -5.572108948022343 -5.572108948022343 -5.572108948022343 -5.572108948022343 -5.572108948022343 -5.572108948022343
-5.572108948022343 -5.572108948022343 -5.572108948022343 -5.572108948022343 -5.572108948022343 -5.572108948022343 -5.572108948022343 -5.572108948022343
-5.572108948022343 -5.572108948022343 -5.572108948022343 -2.9313761555476034 -1.9068190047024565 -5.572108948022343 -5.572108948022343 -5.572108948022343
-2.3609347770904603 -5.572108948022343 -5.366697709930089 5.572108948022343 5.572108948022343 5.572108948022343 0.2069679281039134 5.572108948022343
5.572108948022343 5.572108948022343 5.572108948022343 -5.572108948022343 -5.572108948022343 -5.572108948022343 -5.572108948022343 -5.572108948022343
-1.2059579366319415 -5.572108948022343 -5.572108948022343 -5.572108948022343 -5.572108948022343 5.572108948022343 0.27377988540713327 5.572108948022343
5.572108948022343 5.572108948022343 5.572108948022343 5.572108948022343 5.572108948022343 5.572108948022343 5.572108948022343 5.572108948022343
5.572108948022343 5.572108948022343 5.572108948022343 5.572108948022343 5.572108948022343 5.572108948022343 5.572108948022343 5.572108948022343
5.572108948022343 5.572108948022343 5.572108948022343 5.572108948022343 5.572108948022343 5.572108948022343 5.572108948022343 5.572108948022343
5.572108948022343 5.572108948022343 -5.572108948022343 -5.572108948022343 -5.572108948022343 -5.572108948022343 -5.572108948022343 -5.572108948022343
-5.572108948022343 -5.572108948022343 -5.572108948022343 -5.572108948022343 -5.572108948022343 -5.572108948022343 -5.572108948022343 -5.572108948022343
-5.572108948022343 -5.572108948022343 -5.572108948022343 -5.572108948022343 -5.572108948022343 -5.572108948022343 -5.572108948022343 -5.572108948022343
-5.572108948022343 -5.572108948022343 -5.572108948022343 -5.572108948022343 -5.572108948022343 -5.572108948022343 -5.572108948022343 -5.572108948022343
-5.572108948022343 -5.572108948022343 -5.572108948022343 -5.572108948022343 -5.572108948022343 -5.572108948022343 -5.572108948022343 -5.572108948022343
-5.572108948022343 -5.572108948022343 -5.572108948022343 -5.572108948022343 -5.572108948022343 -5.572108948022343 -5.572108948022343 -5.572108948022343
-5.572108948022343 -5.572108948022343 -5.572108948022343 -5.572108948022343 -5.572108948022343 -5.572108948022343 -5.572108948022343 -5.572108948022343
-5.572108948022343 -5.572108948022343 -5.572108948022343 -5.572108948022343 -5.572108948022343 -5.572108948022343 -5.572108948022343 -5.572108948022343
-5.572108948022343 -5.572108948022343 -5.572108948022343 -5.572108948022343 -5.572108948022343 -5.572108948022343 -5.572108948022343 -5.572108948022343
-5.572108948022343 -5.572108948022343 -5.572108948022343 -5.572108948022343 -5.572108948022343 -5.572108948022343 -5.572108948022343 5.572108948022343
5.572108948022343 5.572108948022343 5.572108948022343 5.572108948022343 5.572108948022343 5.572108948022343 5.572108948022343 5.572108948022343
5.572108948022343 5.572108948022343 5.572108948022343 5.42603328235715 5.572108948022343 5.572108948022343 5.572108948022343 5.572108948022343
5.572108948022343 5.572108948022343 5.572108948022343 5.572108948022343 5.572108948022343 5.572108948022343 5.572108948022343 5.572108948022343
5.572108948022343 0.20410017244969314 5.572108948022343 5.572108948022343 5.572108948022343 5.572108948022343 5.572108948022343 5.572108948022343
5.572108948022343 5.572108948022343 5.572108948022343 5.572108948022343 5.572108948022343 5.572108948022343 5.572108948022343 5.572108948022343
5.572108948022343 5.572108948022343 5.572108948022343 5.572108948022343 5.572108948022343 5.572108948022343 5.572108948022343 5.572108948022343

sigma f8 [5]
00000000: 4859 7b52 91d7 4d40 4a0d d62d 8621 5740
00000010: bb44 128c 7ee1 db3f b74b 8498 99ef f53f
00000020: 5ad6 38ac 35ed ec3f
59.68412238142861 92.52381463912494 0.4356380813488376 1.3709960897146922 0.9039562572203963
