qolo_package/src/trainedModels_Fy.npz (npz, 326794 bytes, 6 tensors)

alpha f8 [6778]
-38.989672734846806 -2.8689533737492265 38.989672734846806 38.989672734846806 38.989672734846806 38.989672734846806 38.989672734846806 38.989672734846806
38.989672734846806 38.989672734846806 38.989672734846806 38.989672734846806 38.989672734846806 38.989672734846806 38.989672734846806 26.974755001049566
38.989672734846806 38.989672734846806 38.989672734846806 -38.989672734846806 -38.989672734846806 -38.989672734846806 -38.989672734846806 -38.989672734846806
-38.989672734846806 -38.989672734846806 -38.989672734846806 -38.989672734846806 -38.989672734846806 -38.989672734846806 -38.989672734846806 -38.989672734846806
-38.989672734846806 -38.989672734846806 -38.989672734846806 -38.989672734846806 -38.989672734846806 -38.989672734846806 -38.989672734846806 -38.989672734846806
-38.989672734846806 -38.989672734846806 -38.989672734846806 -38.989672734846806 -38.989672734846806 -38.989672734846806 -38.989672734846806 -38.989672734846806
-38.989672734846806 -38.989672734846806 -38.989672734846806 -38.989672734846806 -38.989672734846806 -38.989672734846806 -38.989672734846806 -38.989672734846806
-38.989672734846806 -38.989672734846806 -38.989672734846806 -38.989672734846806 -38.989672734846806 -38.989672734846806 -38.989672734846806 -38.989672734846806
-38.989672734846806 -38.989672734846806 -38.989672734846806 -38.989672734846806 -38.989672734846806 -38.989672734846806 -38.989672734846806 -38.989672734846806
-38.989672734846806 -38.989672734846806 -38.989672734846806 -38.989672734846806 -38.989672734846806 -38.989672734846806 -38.989672734846806 -38.989672734846806
-38.989672734846806 -38.989672734846806 -38.989672734846806 -38.989672734846806 -38.989672734846806 -38.989672734846806 -38.989672734846806 -38.989672734846806
-38.989672734846806 -38.989672734846806 38.989672734846806 38.989672734846806 38.989672734846806 38.989672734846806 38.989672734846806 38.989672734846806
11.278891475600949 38.989672734846806 38.989672734846806 38.989672734846806 38.989672734846806 38.989672734846806 38.989672734846806 38.989672734846806
38.989672734846806 38.989672734846806 38.989672734846806 38.989672734846806 38.989672734846806 38.989672734846806 38.989672734846806 38.989672734846806
38.989672734846806 38.989672734846806 38.989672734846806 38.989672734846806 38.989672734846806 38.989672734846806 38.989672734846806 38.989672734846806
38.989672734846806 38.989672734846806 38.989672734846806 38.989672734846806 38.989672734846806 38.989672734846806 38.989672734846806 38.989672734846806
38.989672734846806 38.989672734846806 38.989672734846806 38.989672734846806 38.989672734846806 38.989672734846806 38.989672734846806 38.989672734846806
38.989672734846806 38.989672734846806 38.989672734846806 38.989672734846806 38.989672734846806 38.989672734846806 38.989672734846806 38.989672734846806
38.989672734846806 38.989672734846806 38.989672734846806 38.989672734846806 38.989672734846806 38.989672734846806 38.989672734846806 38.989672734846806
38.989672734846806 38.989672734846806 38.989672734846806 38.989672734846806 38.989672734846806 38.989672734846806 27.77072734866246 -38.989672734846806
-38.989672734846806 38.989672734846806 -38.989672734846806 38.989672734846806 38.989672734846806 38.989672734846806 38.989672734846806 38.989672734846806
38.989672734846806 38.989672734846806 38.989672734846806 38.989672734846806 38.989672734846806 38.989672734846806 38.989672734846806 38.989672734846806
38.989672734846806 38.989672734846806 38.989672734846806 38.989672734846806 38.989672734846806 38.989672734846806 38.989672734846806 38.989672734846806
38.989672734846806 38.989672734846806 38.989672734846806 38.989672734846806 38.989672734846806 19.920016500848888 38.989672734846806 38.989672734846806
38.989672734846806 38.989672734846806 38.989672734846806 38.989672734846806 38.989672734846806 38.989672734846806 38.989672734846806 38.989672734846806
38.989672734846806 38.989672734846806 38.989672734846806 38.989672734846806 -38.989672734846806 -38.989672734846806 -38.989672734846806 -38.989672734846806
-38.989672734846806 -38.989672734846806 -38.989672734846806 -38.989672734846806 -12.671706487873328 38.989672734846806 38.989672734846806 38.989672734846806
38.989672734846806 38.989672734846806 38.989672734846806 38.989672734846806 38.989672734846806 38.989672734846806 38.989672734846806 38.989672734846806
38.989672734846806 38.989672734846806 38.989672734846806 38.989672734846806 38.989672734846806 38.989672734846806 38.989672734846806 38.989672734846806
38.989672734846806 38.989672734846806 38.989672734846806 38.989672734846806 38.989672734846806 38.989672734846806 38.989672734846806 38.989672734846806
38.989672734846806 3.6760476719434236 38.989672734846806 -38.989672734846806 -38.989672734846806 -38.989672734846806 -4.213237774273471 -38.989672734846806
-38.989672734846806 -38.989672734846806 -38.989672734846806 -38.989672734846806 -38.989672734846806 -38.989672734846806 -13.38296766451509 38.989672734846806
00000000: 78f4 9e98 ad7e 43c0 ac03 90d3 9df3 06c0
00000010: 78f4 9e98 ad7e 4340 78f4 9e98 ad7e 4340
00000020: 78f4 9e98 ad7e 4340 78f4 9e98 ad7e 4340
00000030: 78f4 9e98 ad7e 4340 78f4 9e98 ad7e 4340
00000040: 78f4 9e98 ad7e 4340 78f4 9e98 ad7e 4340
00000050: 78f4 9e98 ad7e 4340 78f4 9e98 ad7e 4340
00000060: 78f4 9e98 ad7e 4340 78f4 9e98 ad7e 4340
00000070: 78f4 9e98 ad7e 4340 ce1e 338b 89f9 3a40
00000080: 78f4 9e98 ad7e 4340 78f4 9e98 ad7e 4340
00000090: 78f4 9e98 ad7e 4340 78f4 9e98 ad7e 43c0
000000a0: 78f4 9e98 ad7e 43c0 78f4 9e98 ad7e 43c0
000000b0: 78f4 9e98 ad7e 43c0 78f4 9e98 ad7e 43c0
000000c0: 78f4 9e98 ad7e 43c0 78f4 9e98 ad7e 43c0
000000d0: 78f4 9e98 ad7e 43c0 78f4 9e98 ad7e 43c0
000000e0: 78f4 9e98 ad7e 43c0 78f4 9e98 ad7e 43c0
000000f0: 78f4 9e98 ad7e 43c0 78f4 9e98 ad7e 43c0
00000100: 78f4 9e98 ad7e 43c0 78f4 9e98 ad7e 43c0
00000110: 78f4 9e98 ad7e 43c0 78f4 9e98 ad7e 43c0
00000120: 78f4 9e98 ad7e 43c0 78f4 9e98 ad7e 43c0
00000130: 78f4 9e98 ad7e 43c0 78f4 9e98 ad7e 43c0
00000140: 78f4 9e98 ad7e 43c0 78f4 9e98 ad7e 43c0
00000150: 78f4 9e98 ad7e 43c0 78f4 9e98 ad7e 43c0
00000160: 78f4 9e98 ad7e 43c0 78f4 9e98 ad7e 43c0
00000170: 78f4 9e98 ad7e 43c0 78f4 9e98 ad7e 43c0
00000180: 78f4 9e98 ad7e 43c0 78f4 9e98 ad7e 43c0
00000190: 78f4 9e98 ad7e 43c0 78f4 9e98 ad7e 43c0
000001a0: 78f4 9e98 ad7e 43c0 78f4 9e98 ad7e 43c0
000001b0: 78f4 9e98 ad7e 43c0 78f4 9e98 ad7e 43c0
000001c0: 78f4 9e98 ad7e 43c0 78f4 9e98 ad7e 43c0
000001d0: 78f4 9e98 ad7e 43c0 78f4 9e98 ad7e 43c0
000001e0: 78f4 9e98 ad7e 43c0 78f4 9e98 ad7e 43c0
000001f0: 78f4 9e98 ad7e 43c0 78f4 9e98 ad7e 43c0
00000200: 78f4 9e98 ad7e 43c0 78f4 9e98 ad7e 43c0
00000210: 78f4 9e98 ad7e 43c0 78f4 9e98 ad7e 43c0
00000220: 78f4 9e98 ad7e 43c0 78f4 9e98 ad7e 43c0
00000230: 78f4 9e98 ad7e 43c0 78f4 9e98 ad7e 43c0
00000240: 78f4 9e98 ad7e 43c0 78f4 9e98 ad7e 43c0
00000250: 78f4 9e98 ad7e 43c0 78f4 9e98 ad7e 43c0
00000260: 78f4 9e98 ad7e 43c0 78f4 9e98 ad7e 43c0
00000270: 78f4 9e98 ad7e 43c0 78f4 9e98 ad7e 43c0
00000280: 78f4 9e98 ad7e 43c0 78f4 9e98 ad7e 43c0
00000290: 78f4 9e98 ad7e 43c0 78f4 9e98 ad7e 43c0
000002a0: 78f4 9e98 ad7e 43c0 78f4 9e98 ad7e 43c0
000002b0: 78f4 9e98 ad7e 43c0 78f4 9e98 ad7e 43c0
000002c0: 78f4 9e98 ad7e 43c0 78f4 9e98 ad7e 43c0
000002d0: 78f4 9e98 ad7e 4340 78f4 9e98 ad7e 4340
000002e0: 78f4 9e98 ad7e 4340 78f4 9e98 ad7e 4340
000002f0: 78f4 9e98 ad7e 4340 78f4 9e98 ad7e 4340
00000300: b3ad 0ddd ca8e 2640 78f4 9e98 ad7e 4340
00000310: 78f4 9e98 ad7e 4340 78f4 9e98 ad7e 4340
00000320: 78f4 9e98 ad7e 4340 78f4 9e98 ad7e 4340
00000330: 78f4 9e98 ad7e 4340 78f4 9e98 ad7e 4340
00000340: 78f4 9e98 ad7e 4340 78f4 9e98 ad7e 4340
00000350: 78f4 9e98 ad7e 4340 78f4 9e98 ad7e 4340
00000360: 78f4 9e98 ad7e 4340 78f4 9e98 ad7e 4340
00000370: 78f4 9e98 ad7e 4340 78f4 9e98 ad7e 4340
00000380: 78f4 9e98 ad7e 4340 78f4 9e98 ad7e 4340
00000390: 78f4 9e98 ad7e 4340 78f4 9e98 ad7e 4340
000003a0: 78f4 9e98 ad7e 4340 78f4 9e98 ad7e 4340
000003b0: 78f4 9e98 ad7e 4340 78f4 9e98 ad7e 4340
000003c0: 78f4 9e98 ad7e 4340 78f4 9e98 ad7e 4340
000003d0: 78f4 9e98 ad7e 4340 78f4 9e98 ad7e 4340
000003e0: 78f4 9e98 ad7e 4340 78f4 9e98 ad7e 4340
000003f0: 78f4 9e98 ad7e 4340 78f4 9e98 ad7e 4340
00000400: 78f4 9e98 ad7e 4340 78f4 9e98 ad7e 4340
00000410: 78f4 9e98 ad7e 4340 78f4 9e98 ad7e 4340
00000420: 78f4 9e98 ad7e 4340 78f4 9e98 ad7e 4340
00000430: 78f4 9e98 ad7e 4340 78f4 9e98 ad7e 4340
00000440: 78f4 9e98 ad7e 4340 78f4 9e98 ad7e 4340
00000450: 78f4 9e98 ad7e 4340 78f4 9e98 ad7e 4340
00000460: 78f4 9e98 ad7e 4340 78f4 9e98 ad7e 4340
00000470: 78f4 9e98 ad7e 4340 78f4 9e98 ad7e 4340
00000480: 78f4 9e98 ad7e 4340 78f4 9e98 ad7e 4340
00000490: 78f4 9e98 ad7e 4340 78f4 9e98 ad7e 4340
000004a0: 78f4 9e98 ad7e 4340 78f4 9e98 ad7e 4340
000004b0: 78f4 9e98 ad7e 4340 78f4 9e98 ad7e 4340
000004c0: 78f4 9e98 ad7e 4340 78f4 9e98 ad7e 4340
000004d0: 78f4 9e98 ad7e 4340 78f4 9e98 ad7e 4340
000004e0: 78f4 9e98 ad7e 4340 78f4 9e98 ad7e 4340
000004f0: 58a3 3463 4ec5 3b40 78f4 9e98 ad7e 43c0
00000500: 78f4 9e98 ad7e 43c0 78f4 9e98 ad7e 4340
00000510: 78f4 9e98 ad7e 43c0 78f4 9e98 ad7e 4340
00000520: 78f4 9e98 ad7e 4340 78f4 9e98 ad7e 4340
00000530: 78f4 9e98 ad7e 4340 78f4 9e98 ad7e 4340
00000540: 78f4 9e98 ad7e 4340 78f4 9e98 ad7e 4340
00000550: 78f4 9e98 ad7e 4340 78f4 9e98 ad7e 4340
00000560: 78f4 9e98 ad7e 4340 78f4 9e98 ad7e 4340
00000570: 78f4 9e98 ad7e 4340 78f4 9e98 ad7e 4340
00000580: 78f4 9e98 ad7e 4340 78f4 9e98 ad7e 4340
00000590: 78f4 9e98 ad7e 4340 78f4 9e98 ad7e 4340
000005a0: 78f4 9e98 ad7e 4340 78f4 9e98 ad7e 4340
000005b0: 78f4 9e98 ad7e 4340 78f4 9e98 ad7e 4340
000005c0: 78f4 9e98 ad7e 4340 78f4 9e98 ad7e 4340
000005d0: 78f4 9e98 ad7e 4340 78f4 9e98 ad7e 4340
000005e0: 78f4 9e98 ad7e 4340 24ed 8e33 86eb 3340
000005f0: 78f4 9e98 ad7e 4340 78f4 9e98 ad7e 4340
00000600: 78f4 9e98 ad7e 4340 78f4 9e98 ad7e 4340
00000610: 78f4 9e98 ad7e 4340 78f4 9e98 ad7e 4340
00000620: 78f4 9e98 ad7e 4340 78f4 9e98 ad7e 4340
00000630: 78f4 9e98 ad7e 4340 78f4 9e98 ad7e 4340
00000640: 78f4 9e98 ad7e 4340 78f4 9e98 ad7e 4340
00000650: 78f4 9e98 ad7e 4340 78f4 9e98 ad7e 4340
00000660: 78f4 9e98 ad7e 43c0 78f4 9e98 ad7e 43c0
00000670: 78f4 9e98 ad7e 43c0 78f4 9e98 ad7e 43c0
00000680: 78f4 9e98 ad7e 43c0 78f4 9e98 ad7e 43c0
00000690: 78f4 9e98 ad7e 43c0 78f4 9e98 ad7e 43c0
000006a0: 9bda abe9 e957 29c0 78f4 9e98 ad7e 4340
000006b0: 78f4 9e98 ad7e 4340 78f4 9e98 ad7e 4340
000006c0: 78f4 9e98 ad7e 4340 78f4 9e98 ad7e 4340
000006d0: 78f4 9e98 ad7e 4340 78f4 9e98 ad7e 4340
000006e0: 78f4 9e98 ad7e 4340 78f4 9e98 ad7e 4340
000006f0: 78f4 9e98 ad7e 4340 78f4 9e98 ad7e 4340
00000700: 78f4 9e98 ad7e 4340 78f4 9e98 ad7e 4340
00000710: 78f4 9e98 ad7e 4340 78f4 9e98 ad7e 4340
00000720: 78f4 9e98 ad7e 4340 78f4 9e98 ad7e 4340
00000730: 78f4 9e98 ad7e 4340 78f4 9e98 ad7e 4340
00000740: 78f4 9e98 ad7e 4340 78f4 9e98 ad7e 4340
00000750: 78f4 9e98 ad7e 4340 78f4 9e98 ad7e 4340
00000760: 78f4 9e98 ad7e 4340 78f4 9e98 ad7e 4340
00000770: 78f4 9e98 ad7e 4340 78f4 9e98 ad7e 4340
00000780: 78f4 9e98 ad7e 4340 8345 8cae 8b68 0d40
00000790: 78f4 9e98 ad7e 4340 78f4 9e98 ad7e 43c0
000007a0: 78f4 9e98 ad7e 43c0 78f4 9e98 ad7e 43c0
000007b0: 051b cb00 5bda 10c0 78f4 9e98 ad7e 43c0
000007c0: 78f4 9e98 ad7e 43c0 78f4 9e98 ad7e 43c0
000007d0: 78f4 9e98 ad7e 43c0 78f4 9e98 ad7e 43c0
000007e0: 78f4 9e98 ad7e 43c0 78f4 9e98 ad7e 43c0
000007f0: 1f09 7556 14c4 2ac0 78f4 9e98 ad7e 4340

kernel_scale f8 []
0.56
00000000: ec51 b81e 85eb e13f

sigma f8 [5]
18.662656791970644 55.225779150960676 0.2519513507919999 0.7066026257445688 0.6474689261720157
00000000: 77fc 21e0 a3a9 3240 54bf ca54 e69c 4b40
00000010: 1f6b f58e f81f d03f 9ce6 1a1c 7d9c e63f
00000020: b2b8 e2c0 10b8 e43f

mu f8 [5]
-11.226032309012737 45.61727144985803 0.051669767966682795 0.07130884695494255 0.09394730940900935
00000000: 2019 be81 ba73 26c0 87f2 38c0 02cf 4640
00000010: 14b6 37b7 7574 aa3f 3042 96ed 4b41 b23f
00000020: b379 754d ee0c b83f

sv (column-major) f8 [6778, 5]
0.560060480797169 0.48450917762278445 0.38636693983057596 0.3743726096390361 0.3836311496995295 0.3835351901118969 0.38550033415107376 0.3891904168519934
0.3802406787939199 0.36189167207257017 0.3691244531009279 0.3689033605700755 0.385510587162591 0.4052554635654044 0.4144452014658208 0.40872369064577174
0.3968877242977984 0.40880902491007093 0.4539833743512627 0.4483722008783038 0.4836967945828613 0.49498708670009367 0.4656396420463099 0.45348786667150176
0.46157000156966743 0.46714377573672167 0.45945475045894946 0.48047903083144206 0.4748684637864238 0.482497491779043 0.46983249923600895 0.45402207677485806
0.45516732531952414 0.45634877068052654 0.4618824279724026 0.49214365662475223 0.4861832209131616 0.4577090267044714 0.4518290931624459 0.4598360830285072
0.45980875168676305 0.4638871544128882 0.44290269770356716 0.4429953628810238 0.4541874228201865 0.45673810093508294 0.44504590477443534 0.4433810590957002
0.45575381842572366 0.47967325956554263 0.4779549689073957 0.46844466139920166 0.46960503986321434 0.4898595193266092 0.5157555218595093 0.5226470559484522
0.5301156001904636 0.5216912122392078 0.5261148219478013 0.5241704901397178 0.5138149064835089 0.5257300142778968 0.5559344563703957 0.5568367152569371
0.539678408141043 0.5240944158198212 0.548870511977134 0.5639559395234386 0.5386387370413491 0.5170932015938025 0.5390704519227661 0.5644056093006805
0.5618163059621027 0.5699195155076383 0.5716062217278707 0.5577703667451687 0.5676681009740643 0.5694465178880338 0.5581616166669888 0.5450731104343988
0.5499333673759985 0.556213290532176 0.5388113883202855 0.5366192228845597 0.5370751164194079 0.5378235308757479 0.5577955099100679 0.5552406464959285
0.5710130453894461 0.602764624422838 0.6630197765490566 0.6467032996344796 0.6419151114152754 0.649549203859711 0.6629304533568618 0.6367683857651854
0.6093989503028785 0.618649761171554 0.6287790608645782 0.6291306602270157 0.6053438179425771 0.6068517874788961 0.6061646843123473 0.6077509223433752
0.5874978705964163 0.5730000061713987 0.5786302198929476 0.5823954731191605 0.5834136728894314 0.578530765800384 0.5722559004179012 0.5636888570990509
0.5692487339563096 0.5860277694176196 0.5978580724430254 0.5841153518056861 0.5590485041650904 0.555535577543717 0.5473462268508603 0.5215137615103513
0.5007068362466258 0.49836146666097675 0.5033563799573723 0.49140695269646634 0.5016382229580781 0.5315990371409385 0.539795710989245 0.5143039030074978
0.5035412974792022 0.5243876538632604 0.5430383927445211 0.5335282842471618 0.5373574640476614 0.5520423862110565 0.5557847460023279 0.535381913035648
0.5244356118498146 0.5342866324651208 0.5419115192375966 0.5555982551919243 0.567132952065463 0.5338629351980999 0.5131998205706003 0.5190288859210213
0.5548985456078894 0.5606600334300079 0.5396969975028616 0.528077751291935 0.5565088153586528 0.5623797735837227 0.5420242629078421 0.5253469693058563
0.5309371624615797 0.5206616401126808 0.5105152111053785 0.48936360368231063 0.49956995294116036 0.4937235275523985 0.42387650465162496 0.446384358466504
0.4288171930411463 0.3374918719157572 0.4076197587470996 0.4235490227761656 0.42233453211589944 0.45890159595779767 0.4747008769375106 0.44747462591747506
0.4091821694328198 0.41163217246528977 0.42189486383656993 0.39396206020332003 0.40539523447378 0.4174368867811472 0.4151117064239293 0.3904301343599289
0.4255555297936322 0.43769129958040837 0.4295574971394872 0.428895149018244 0.4319756212427335 0.43235260847570195 0.4480245620608473 0.45191997159218217
0.39182658241233226 0.40558620466198625 0.4297810640795844 0.4136463199267702 0.42209870792647536 0.4280088770775269 0.3906591407807484 0.35576645055440476
0.331287598990191 0.30185056570208735 0.3136136176125974 0.32973522622243123 0.3325088217115864 0.32931974795705193 0.3372337422085356 0.35856675997965165
0.34262332421881087 0.33165796298838035 0.32930068224728326 0.3321158005377941 0.3514641428602725 0.35707931944186827 0.36944305228803737 0.37221214757339566
0.38781387778128407 0.4188018017681258 0.39654526079299723 0.37161186391469225 0.4131199690730407 0.2954041942528212 0.19955422425311736 0.2067523142590134
0.18219758684237145 0.1347719935324725 0.16114001527979543 0.24313502016921515 0.1634504122637952 0.10142182399799504 0.14917629857638956 0.2333718453489433
0.20888359191987937 0.16303114470982746 0.2149057230195246 0.32139390277192775 0.24633114846081333 0.26626393693039785 0.34587742744091304 0.33664012850782055
0.26995708102384647 0.30893838025973813 0.4440722978511548 0.48434127155497025 0.36383819425231495 0.2401773145757312 0.2875494621344044 0.30822378225065933
0.29637202251499023 0.2972572614373037 0.30979983528797944 0.3895749168682294 0.3537696153036277 0.3477848889548909 0.3667155594565834 0.35469612076081014
0.36333144548797935 0.36213396645035084 0.3446588371625923 0.3541604324535842 0.37198427230509834 0.3585415776191536 0.3673566854993359 0.5771923209864055
00000000: bec9 19f5 03ec e13f 161c 20c8 3202 df3f
00000010: b3fc b466 3cba d83f cdbd ba88 b8f5 d73f
00000020: 50ed 6baa 698d d83f cd53 992e d78b d83f
00000030: e6a8 f197 09ac d83f 56f0 12ec 7ee8 d83f
00000040: a8d6 0100 dd55 d83f c3c5 0fb0 3b29 d73f
00000050: 543b 8e2b bc9f d73f 2f1c 42d7 1c9c d73f
00000060: 6801 0899 34ac d83f 937a a29c b4ef d93f
00000070: c3e8 912a 4586 da3f fe22 1b69 8728 da3f
00000080: 04bf 02c5 9b66 d93f 0d19 1354 ed29 da3f
00000090: ac0c 7148 100e dd3f 894d cd50 21b2 dc3f
000000a0: 7675 7a66 e3f4 de3f 156e 5451 dead df3f
000000b0: d2d7 9336 0acd dd3f 8229 1ff9 f105 dd3f
000000c0: e69b 63e7 5c8a dd3f 696d d401 afe5 dd3f
000000d0: 44a2 cde5 b467 dd3f ae6d f51e 2bc0 de3f
000000e0: 2853 77b2 3e64 de3f 04f4 e528 3de1 de3f
000000f0: 3b43 b454 bc11 de3f b63d da9c b20e dd3f
00000100: 2921 1d22 7621 dd3f 6d21 6979 d134 dd3f
00000110: 5144 af50 7b8f dd3f 4ec7 881b 487f df3f
00000120: f8e6 6b3a a01d df3f 87e6 31cd 1a4b dd3f
00000130: 12e6 a092 c4ea dc3f 1634 8852 f46d dd3f
00000140: dc30 baaf 816d dd3f 0c39 4fbf 53b0 dd3f
00000150: 929b 7c8e 8458 dc3f 32a2 f638 095a dc3f
00000160: 371a d11f 6811 dd3f ee9c 9671 323b dd3f
00000170: 4165 8ed1 a17b dc3f 0dd7 1ef3 5a60 dc3f
00000180: 4799 4a10 122b dd3f e461 a678 f7b2 de3f
00000190: e1bf 1a70 d096 de3f db80 2c51 fffa dd3f
000001a0: 3cf4 0f4c 020e de3f 9e17 c9bd db59 df3f
000001b0: b4c6 63b9 1181 e03f f0c6 9451 86b9 e03f
000001c0: c55b bdfd b4f6 e03f 1db2 e5c4 b1b1 e03f
000001d0: 0a9d 46c0 eed5 e03f 47b5 1531 01c6 e03f
000001e0: 3268 71f5 2b71 e03f 7b2c 3bc0 c7d2 e03f
000001f0: 8b92 9a0e 37ca e13f 12b3 273b 9bd1 e13f
00000200: ff56 2aa7 0b45 e13f a1cb fea6 61c5 e03f
00000210: 34c7 55e4 5890 e13f 806b 9453 ed0b e23f
00000220: 5d71 fe4d 873c e13f c389 ba0a 078c e03f
00000230: 6df1 27ad 1040 e13f 1503 345a 9c0f e23f
00000240: b5ef 8e30 66fa e13f 9ba3 0eda c73c e23f
00000250: cf5c 9021 994a e23f 4d26 7b3d 41d9 e13f
00000260: 2250 154b 562a e23f 4fce 64e7 e738 e23f
00000270: 59f3 2ec0 75dc e13f e7d4 e729 3d71 e13f
00000280: 7a7d 7bdc 0d99 e13f b3f5 8dd0 7fcc e13f
00000290: 1389 7161 f13d e13f 3836 9613 fc2b e13f
000002a0: 3689 9027 b82f e13f bd2d 84b1 d935 e13f
000002b0: 9b6b 1df8 75d9 e13f 6284 4308 88c4 e13f
000002c0: 632f 7126 bd45 e23f 349e a209 d949 e33f
000002d0: 4224 1c40 7537 e53f f1a6 441e cbb1 e43f
000002e0: 19c7 4a8f 918a e43f aa0c 7769 1bc9 e43f
000002f0: ea15 16ed b936 e53f 329f ff17 6860 e43f
00000300: 1e90 383a 3280 e33f 021f 7d95 facb e33f
00000310: aa55 da43 f51e e43f dcbf 529f d621 e43f
00000320: cfc5 9cff f95e e33f 48b6 9770 546b e33f
00000330: 0393 e37a b365 e33f 2884 f20f b272 e33f
00000340: c9cc 9555 c8cc e23f 86a5 e31b 0456 e23f
00000350: 265c dd85 2384 e23f e653 ccd4 fba2 e23f
00000360: df2d a326 53ab e23f a2f5 daf3 5283 e23f
00000370: 079d 279b eb4f e23f 7585 cb36 bd09 e23f
00000380: 5537 f41e 4937 e23f c549 064f bdc0 e23f
00000390: 485b 9940 a721 e33f 441a a3ad 12b1 e23f
000003a0: 7d89 48b0 b9e3 e13f 5212 2a8c f2c6 e13f
000003b0: eb3a fd3b dc83 e13f 983a c3a0 3db0 e03f
000003c0: 2803 d257 ca05 e03f b34f 397e 27e5 df3f
000003d0: afcb c4d6 7e1b e03f 13ef b625 3673 df3f
000003e0: 7de9 409a 6b0d e03f 9a5f e3fb db02 e13f
000003f0: 3709 a7a7 0146 e13f 5eea 7375 2d75 e03f
00000400: 7e79 9ba3 021d e03f 989a f89d c8c7 e03f
00000410: 85ec 290d 9260 e13f 44a4 8ae8 a912 e13f
00000420: 1514 cb47 0832 e13f 8308 59cb 54aa e13f
00000430: e342 7617 fdc8 e13f ef74 eb3f d921 e13f
00000440: 2616 3831 2dc8 e03f d615 a447 e018 e13f
00000450: d76f 8ed3 5657 e13f 8072 f8fd 75c7 e13f
00000460: f95c 3301 f425 e23f f41d e7b8 6715 e13f
00000470: d23d b507 226c e03f 26b9 5677 e29b e03f
00000480: b27b 3f98 bac1 e13f 6332 784f edf0 e13f
00000490: 1ec6 40a3 3245 e13f 2069 f14f 03e6 e03f
000004a0: f2d5 3c93 ebce e13f cb2a efdd 03ff e13f
000004b0: 6b7c 5a44 4358 e13f 7415 8772 a4cf e03f
000004c0: de1c a0ee 6ffd e03f 191a 9299 42a9 e03f
000004d0: 41dc f9fe 2356 e03f 45c4 6ab8 bb51 df3f
000004e0: 2894 7c40 f4f8 df3f 939c 0691 2a99 df3f
000004f0: 9a60 41eb ca20 db3f 15d0 43b3 8f91 dc3f
00000500: 62c0 04ab bd71 db3f ddd0 2282 7799 d53f
00000510: c56b 412f 7116 da3f 94e3 445c 6d1b db3f
00000520: 2631 da6a 8707 db3f fe23 aecc a45e dd3f
00000530: 7210 75c9 7f61 de3f b3be 069d 6ca3 dc3f
00000540: aa7f f468 0a30 da3f 0b12 ae77 2e58 da3f
00000550: fad1 a150 5300 db3f e408 1ca5 ac36 d93f
00000560: 8a39 81da fef1 d93f 0a9f 3734 49b7 da3f
00000570: 0bc3 d1b0 3091 da3f d2b8 9cac cefc d83f
00000580: 601e c642 4d3c db3f 0d43 5c5e 2203 dc3f
00000590: 36ce 7dba de7d db3f e491 9ca3 0473 db3f
000005a0: 6409 7a13 7da5 db3f 6594 6f46 aaab db3f
000005b0: b6c9 7636 6fac dc3f 7373 99be 41ec dc3f
000005c0: ca85 4acd af13 d93f fcd8 2ed7 1ff5 d93f
000005d0: 7e5c aa6f 8881 db3f 0d8f 0c6a 2e79 da3f
000005e0: a998 8e4c aa03 db3f ba85 5c58 7f64 db3f
000005f0: 835a 6232 8f00 d93f 754a 89a5 e0c4 d63f
00000600: 4aed cee6 d033 d53f 580d fe08 8551 d33f
00000610: 9b7c ced9 3e12 d43f 6eba 3dc7 611a d53f
00000620: 1d7f b814 d347 d53f 93c2 d922 9313 d53f
00000630: bb2c 79d5 3c95 d53f f5e5 e2fe c1f2 d63f
00000640: 5576 1761 8aed d53f 7e8e 1f52 e239 d53f
00000650: 4c5d 332b 4313 d53f 1edc 72a1 6241 d53f
00000660: 784c d375 637e d63f 312b c537 63da d63f
00000670: 3ff0 d378 f4a4 d73f 331b 40e6 52d2 d73f
00000680: 085b 804c f1d1 d83f ff65 8612 a6cd da3f
00000690: 7a57 9f5f ff60 d93f de6d 9420 7dc8 d73f
000006a0: 4491 1fbd 8e70 da3f bdb1 5afe e6e7 d23f
000006b0: 9e0f 7929 fe8a c93f 03b1 0e1e dc76 ca3f
000006c0: 1df5 7222 4052 c73f b0c0 516c 3540 c13f
000006d0: 9611 da6b 3ca0 c43f 5bcd 1160 0c1f cf3f
000006e0: 7069 986f f1eb c43f e80b 2cd9 c7f6 b93f
000006f0: 8fa9 dc7d 3518 c33f 515a caed 20df cd3f
00000700: 1cc3 fb91 b2bc ca3f 230b 615d 34de c43f
00000710: b0c9 0bde 0782 cb3f cd82 62bb b791 d43f
00000720: 4a0a 5071 c787 cf3f d418 4ee5 770a d13f
00000730: 2722 d213 db22 d63f c296 9d09 838b d53f
00000740: f78b 9410 fa46 d13f 6577 ec7b a5c5 d33f
00000750: 5323 1537 ae6b dc3f 31a0 5b88 72ff de3f
00000760: 5f5c 56fe 1f49 d73f eb03 ac57 21be ce3f
00000770: c960 f6db 3567 d23f a96c 273e f0b9 d33f
00000780: 39ae 095c c2f7 d23f 9cca 1752 4306 d33f
00000790: 458e 37b0 c2d3 d33f 289f d2a1 cbee d83f
000007a0: 960b 0350 29a4 d63f 00ac 068d 1b42 d63f
000007b0: 4039 b389 4478 d73f 44e3 ab5b 57b3 d63f
000007c0: 7eac fe88 d240 d73f 7f33 abf1 332d d73f
000007d0: 9d01 79f0 e30e d63f 1e39 bb84 90aa d63f
000007e0: f84f 0b1f 97ce d73f 485a 885f 58f2 d63f
000007f0: 57f1 8b9d c582 d73f 3f72 c407 5c78 e23f

bias f8 []
66.04035058653996
00000000: 1164 a01a 9582 5040
