qolo_package/src/trainedModels_Fx.npz (npz, 982154 bytes, 6 tensors)

alpha f8 [24518]
0	0x4029b1156640550c	12.845866389611295
1	0xc029b1156640550c	-12.845866389611295
2	0xc025bf33369b851e	-10.873437601551412
3	0xc029b1156640550c	-12.845866389611295
4	0xc029b1156640550c	-12.845866389611295
5	0xc029b1156640550c	-12.845866389611295
6	0xc029b1156640550c	-12.845866389611295
7	0xc029b1156640550c	-12.845866389611295
8	0xc029b1156640550c	-12.845866389611295
9	0xc029b1156640550c	-12.845866389611295
10	0xc029b1156640550c	-12.845866389611295
11	0xc029b1156640550c	-12.845866389611295
12	0xc029b1156640550c	-12.845866389611295
13	0xc029b1156640550c	-12.845866389611295
14	0xc029b1156640550c	-12.845866389611295
15	0xc029b1156640550c	-12.845866389611295
16	0xc029b1156640550c	-12.845866389611295
17	0x4029b1156640550c	12.845866389611295
18	0x4029b1156640550c	12.845866389611295
19	0x4029b1156640550c	12.845866389611295
20	0x4029b1156640550c	12.845866389611295
21	0x4026cbf5f4f74f09	11.398360877217344
22	0x4029b1156640550c	12.845866389611295
23	0x4029b1156640550c	12.845866389611295
24	0x4029b1156640550c	12.845866389611295
25	0x4029b1156640550c	12.845866389611295
26	0x4029b1156640550c	12.845866389611295
27	0x4029b1156640550c	12.845866389611295
28	0x4029b1156640550c	12.845866389611295
29	0x4029b1156640550c	12.845866389611295
30	0x4029b1156640550c	12.845866389611295
31	0x4029b1156640550c	12.845866389611295
32	0x4029b1156640550c	12.845866389611295
33	0xc029b1156640550c	-12.845866389611295
34	0xc029b1156640550c	-12.845866389611295
35	0xc029b1156640550c	-12.845866389611295
36	0xc029b1156640550c	-12.845866389611295
37	0xc029b1156640550c	-12.845866389611295
38	0xc029b1156640550c	-12.845866389611295
39	0xc029b1156640550c	-12.845866389611295
40	0xc029b1156640550c	-12.845866389611295
41	0xc029b1156640550c	-12.845866389611295
42	0xc029b1156640550c	-12.845866389611295
43	0xc029b1156640550c	-12.845866389611295
44	0xc029b1156640550c	-12.845866389611295
45	0xc029b1156640550c	-12.845866389611295
46	0xc029b1156640550c	-12.845866389611295
47	0xc029b1156640550c	-12.845866389611295
48	0xc029b1156640550c	-12.845866389611295
49	0xc029b1156640550c	-12.845866389611295
50	0xc029b1156640550c	-12.845866389611295
51	0xc029b1156640550c	-12.845866389611295
52	0xc029b1156640550c	-12.845866389611295
53	0xc029b1156640550c	-12.845866389611295
54	0xc029b1156640550c	-12.845866389611295
55	0xc029b1156640550c	-12.845866389611295
56	0xc029b1156640550c	-12.845866389611295
57	0xc029b1156640550c	-12.845866389611295
58	0xc029b1156640550c	-12.845866389611295
59	0xc029b1156640550c	-12.845866389611295
60	0xc029b1156640550c	-12.845866389611295
61	0xc029b1156640550c	-12.845866389611295
62	0xc029b1156640550c	-12.845866389611295
63	0xc029b1156640550c	-12.845866389611295
64	0xbffe0824f9bddee1	-1.8769883876356561
65	0xc029b1156640550c	-12.845866389611295
66	0xc029b1156640550c	-12.845866389611295
67	0xc029b1156640550c	-12.845866389611295
68	0xc029b1156640550c	-12.845866389611295
69	0xc029b1156640550c	-12.845866389611295
70	0xc029b1156640550c	-12.845866389611295
71	0xc029b1156640550c	-12.845866389611295
72	0xc029b1156640550c	-12.845866389611295
73	0xc029b1156640550c	-12.845866389611295
74	0xc029b1156640550c	-12.845866389611295
75	0xc029b1156640550c	-12.845866389611295
76	0xc029b1156640550c	-12.845866389611295
77	0xc029b1156640550c	-12.845866389611295
78	0xc029b1156640550c	-12.845866389611295
79	0xc029b1156640550c	-12.845866389611295
80	0xc029b1156640550c	-12.845866389611295
81	0xc029b1156640550c	-12.845866389611295
82	0xc029b1156640550c	-12.845866389611295
83	0xc029b1156640550c	-12.845866389611295
84	0xc029b1156640550c	-12.845866389611295
85	0xc029b1156640550c	-12.845866389611295
86	0xc029b1156640550c	-12.845866389611295
87	0xc029b1156640550c	-12.845866389611295
88	0xc029b1156640550c	-12.845866389611295
89	0xc029b1156640550c	-12.845866389611295
90	0xc029b1156640550c	-12.845866389611295
91	0xc029b1156640550c	-12.845866389611295
92	0xc029b1156640550c	-12.845866389611295
93	0xc029b1156640550c	-12.845866389611295
94	0xc029b1156640550c	-12.845866389611295
95	0xc029b1156640550c	-12.845866389611295
96	0xc029b1156640550c	-12.845866389611295
97	0xc029b1156640550c	-12.845866389611295
98	0xc029b1156640550c	-12.845866389611295
99	0xc029b1156640550c	-12.845866389611295
100	0xc029b1156640550c	-12.845866389611295
101	0xc029b1156640550c	-12.845866389611295
102	0xc029b1156640550c	-12.845866389611295
103	0xc029b1156640550c	-12.845866389611295
104	0xc029b1156640550c	-12.845866389611295
105	0xc029b1156640550c	-12.845866389611295
106	0xc029b1156640550c	-12.845866389611295
107	0xbfeeed03bc4b82c0	-0.9664324453006756
108	0xbfc7d14b7ee6307c	-0.18607467361687557
109	0xc029b1156640550c	-12.845866389611295
110	0xc0253b54f2bc3f24	-10.615882478217436
111	0xc029b1156640550c	-12.845866389611295
112	0xc029b1156640550c	-12.845866389611295
113	0xc029b1156640550c	-12.845866389611295
114	0xc029b1156640550c	-12.845866389611295
115	0xc0233c6a9f051918	-9.61800095498306
116	0x4029b1156640550c	12.845866389611295
117	0x4029b1156640550c	12.845866389611295
118	0x3fd1953c9386f834	0.2747336807914309
119	0x40263ce95f12b1bf	11.118967982322713
120	0xc021a702696bbd8f	-8.826190275575554
121	0xbffca89efe18987d	-1.791167252123642
122	0x3fc96906bc4735c0	0.19851764863271448
123	0x3fea17268a420870	0.8153259945249953
124	0x3ffbeac219880484	1.7448140141789574
125	0x3fa5ebdff5744e20	0.042815207207379524
126	0xc029b1156640550c	-12.845866389611295
127	0xc0028bbf6bde8d62	-2.318236201028115
128	0x401c2726a86f5d83	7.038233405873487
129	0xc01e0b93c175423b	-7.511305830747513
130	0xc029b1156640550c	-12.845866389611295
131	0xc029b1156640550c	-12.845866389611295
132	0xc029b1156640550c	-12.845866389611295
133	0x401814827f77a6b8	6.020029060056622
134	0x4005cd06bc039716	2.725110501155437
135	0x4029b1156640550c	12.845866389611295
136	0x4029b1156640550c	12.845866389611295
137	0x4029b1156640550c	12.845866389611295
138	0x4029b1156640550c	12.845866389611295
139	0x4029b1156640550c	12.845866389611295
140	0x4029b1156640550c	12.845866389611295
141	0x4029b1156640550c	12.845866389611295
142	0x4029b1156640550c	12.845866389611295
143	0x4029b1156640550c	12.845866389611295
144	0x4029b1156640550c	12.845866389611295
145	0xc029b1156640550c	-12.845866389611295
146	0xc0254825e6863b9d	-10.640914157758568
147	0xc029b1156640550c	-12.845866389611295
148	0xc029b1156640550c	-12.845866389611295
149	0xc029b1156640550c	-12.845866389611295
150	0xc029b1156640550c	-12.845866389611295
151	0xc029b1156640550c	-12.845866389611295
152	0xc029b1156640550c	-12.845866389611295
153	0x4029b1156640550c	12.845866389611295
154	0x4029b1156640550c	12.845866389611295
155	0x4029b1156640550c	12.845866389611295
156	0x4029b1156640550c	12.845866389611295
157	0x4029b1156640550c	12.845866389611295
158	0x4029b1156640550c	12.845866389611295
159	0x4029b1156640550c	12.845866389611295
160	0x4029b1156640550c	12.845866389611295
161	0x4029b1156640550c	12.845866389611295
162	0x4029b1156640550c	12.845866389611295
163	0x4029b1156640550c	12.845866389611295
164	0x4029b1156640550c	12.845866389611295
165	0x4029b1156640550c	12.845866389611295
166	0x4029b1156640550c	12.845866389611295
167	0x4029b1156640550c	12.845866389611295
168	0x4029b1156640550c	12.845866389611295
169	0x4029b1156640550c	12.845866389611295
170	0x4029b1156640550c	12.845866389611295
171	0x4029b1156640550c	12.845866389611295
172	0x4029b1156640550c	12.845866389611295
173	0x4029b1156640550c	12.845866389611295
174	0x4029b1156640550c	12.845866389611295
175	0x4029b1156640550c	12.845866389611295
176	0x4029b1156640550c	12.845866389611295
177	0x4029b1156640550c	12.845866389611295
178	0x4029b1156640550c	12.845866389611295
179	0x4029b1156640550c	12.845866389611295
180	0x4029b1156640550c	12.845866389611295
181	0x4029b1156640550c	12.845866389611295
182	0x4029b1156640550c	12.845866389611295
183	0x4029b1156640550c	12.845866389611295
184	0x4029b1156640550c	12.845866389611295
185	0x4029b1156640550c	12.845866389611295
186	0x4029b1156640550c	12.845866389611295
187	0x4029b1156640550c	12.845866389611295
188	0x4029b1156640550c	12.845866389611295
189	0x4029b1156640550c	12.845866389611295
190	0x4029b1156640550c	12.845866389611295
191	0x4029b1156640550c	12.845866389611295
192	0x4029b1156640550c	12.845866389611295
193	0x4029b1156640550c	12.845866389611295
194	0x4029b1156640550c	12.845866389611295
195	0x4029b1156640550c	12.845866389611295
196	0x4029b1156640550c	12.845866389611295
197	0x4029b1156640550c	12.845866389611295
198	0x4029b1156640550c	12.845866389611295
199	0x4029b1156640550c	12.845866389611295
200	0x4029b1156640550c	12.845866389611295
201	0x4029b1156640550c	12.845866389611295
202	0x4029b1156640550c	12.845866389611295
203	0x4029b1156640550c	12.845866389611295
204	0x4029b1156640550c	12.845866389611295
205	0x4029b1156640550c	12.845866389611295
206	0x4029b1156640550c	12.845866389611295
207	0x4029b1156640550c	12.845866389611295
208	0x4029b1156640550c	12.845866389611295
209	0x4029b1156640550c	12.845866389611295
210	0x4029b1156640550c	12.845866389611295
211	0x4029b1156640550c	12.845866389611295
212	0x4029b1156640550c	12.845866389611295
213	0x4029b1156640550c	12.845866389611295
214	0x4029b1156640550c	12.845866389611295
215	0x4029b1156640550c	12.845866389611295
216	0x4029b1156640550c	12.845866389611295
217	0x4029b1156640550c	12.845866389611295
218	0x4029b1156640550c	12.845866389611295
219	0x4029b1156640550c	12.845866389611295
220	0x4029b1156640550c	12.845866389611295
221	0x4029b1156640550c	12.845866389611295
222	0x4029b1156640550c	12.845866389611295
223	0x4029b1156640550c	12.845866389611295
224	0x4029b1156640550c	12.845866389611295
225	0x4029b1156640550c	12.845866389611295
226	0x4029b1156640550c	12.845866389611295
227	0x4029b1156640550c	12.845866389611295
228	0x4029b1156640550c	12.845866389611295
229	0x4029b1156640550c	12.845866389611295
230	0x4029b1156640550c	12.845866389611295
231	0x4029b1156640550c	12.845866389611295
232	0x4029b1156640550c	12.845866389611295
233	0x4029b1156640550c	12.845866389611295
234	0x4029b1156640550c	12.845866389611295
235	0x4029b1156640550c	12.845866389611295
236	0x4029b1156640550c	12.845866389611295
237	0x4029b1156640550c	12.845866389611295
238	0x4029b1156640550c	12.845866389611295
239	0x4029b1156640550c	12.845866389611295
240	0x4029b1156640550c	12.845866389611295
241	0x4029b1156640550c	12.845866389611295
242	0x4029b1156640550c	12.845866389611295
243	0x4029b1156640550c	12.845866389611295
244	0x4029b1156640550c	12.845866389611295
245	0x4029b1156640550c	12.845866389611295
246	0x4029b1156640550c	12.845866389611295
247	0x4029b1156640550c	12.845866389611295
248	0x4029b1156640550c	12.845866389611295
249	0x4029b1156640550c	12.845866389611295
250	0x4029b1156640550c	12.845866389611295
251	0x4029b1156640550c	12.845866389611295
252	0x4029b1156640550c	12.845866389611295
253	0x4029b1156640550c	12.845866389611295
254	0x4029b1156640550c	12.845866389611295
255	0x4029b1156640550c	12.845866389611295

bias f8 []
0	0xbff7cfc34d863a27	-1.4882233646673144

kernel_scale f8 []
0	0x3fe0000000000000	0.5

sv (column-major) f8 [24518, 4]
0	0x3fd12d31458b9faa	0.26838332931083164
1	0x3fce1ca7dfa52e32	0.23524950428178354
2	0x3fce9cf42aba1c8a	0.23916484915045927
3	0x3fd03d9628ee9206	0.2537589454389323
4	0x3fd0ed1f225df30d	0.2644727550139557
5	0x3fd1586780e31bdb	0.27102077089915405
6	0x3fd17e1fc3bdf222	0.2733230029623731
7	0x3fd17845c1e67ae6	0.2729658502156965
8	0x3fd190375c95958e	0.2744272617477116
9	0x3fd026592b4f772b	0.25234059552700455
10	0x3fd1b06767124421	0.27639184060632443
11	0x3fcf097e1de7bf46	0.24247719249933136
12	0x3fd13f3fadb6b307	0.2694853969976951
13	0x3fd14dcb99030ee8	0.2703732485062873
14	0x3fd0a6007f5d65a2	0.2601319545552433
15	0x3fd1e418c6bff768	0.279546922771138
16	0x3fd1a8e7c2ccd4de	0.27593416236352464
17	0x3fd5c0ea948be87e	0.3398996782922338
18	0x3fd5440a8ac65443	0.33227790405482355
19	0x3fd5859cd21f2578	0.3362800647706403
20	0x3fd57fe8972c4513	0.335931918744863
21	0x3fd567a9fb842653	0.3344521480763422
22	0x3fd4ffe276c0ed38	0.32811795804055377
23	0x3fd645a791f6d811	0.34800137762374656
24	0x3fd7bd32ee7df275	0.3709227875731707
25	0x3fd796d14c54d547	0.36858017400966897
26	0x3fd7ed8f1d272d33	0.3738744530389397
27	0x3fd69ea1de2ad70a	0.3534321469881979
28	0x3fd641d080490465	0.3477669956956276
29	0x3fd62151e33302b5	0.34578368365695705
30	0x3fd62813de0e80d3	0.3461961430093769
31	0x3fd6332be07dd52c	0.3468732540416848
32	0x3fd75b3793bbd397	0.36494244982832796
33	0x3fdd72f6444856b6	0.46014172237606077
34	0x3fdc811a1b2f55a0	0.44537975935721796
35	0x3fdc3a205c60679f	0.4410477544894266
36	0x3fdcab4976a28e15	0.4479545267624599
37	0x3fdd71a34fd6cbfc	0.4600609092405532
38	0x3fdbedd612acd556	0.4363913709997481
39	0x3fda58233bb7f833	0.4116294940175777
40	0x3fdae1434cbee520	0.4199989556760375
41	0x3fdb7768f81ec163	0.4291632102058626
42	0x3fdb7c9f2f12319b	0.4294813117674267
43	0x3fda1c0737558000	0.4079607048388425
44	0x3fda326182b0f8d7	0.40932500613042805
45	0x3fda283228b77202	0.40870336509922833
46	0x3fda3fb57580956c	0.4101384780390933
47	0x3fd9137f2bf8cc51	0.39181498808028886
48	0x3fd83c981a573d95	0.37869837353078967
49	0x3fd8900d156f870c	0.38379218190503717
50	0x3fd8c7dd18971cc1	0.38719870950121665
51	0x3fd8d6f4dc3dfe32	0.38811990268729624
52	0x3fd88e93af64cf73	0.3837022030668244
53	0x3fd831907191556c	0.3780251606998124
54	0x3fd7b2931226df78	0.37027432224885315
55	0x3fd804fd24f3302e	0.3753044949378389
56	0x3fd8fdb493969243	0.3904849473276821
57	0x3fd9ad110bc41838	0.40118814610503106
58	0x3fd8e15b85bc545e	0.3887547307979896
59	0x3fd76dca50fc46b8	0.3660760680078101
60	0x3fd739b7cee5869b	0.36289782719368596
61	0x3fd6c053aa90c9b6	0.35548869759363855
62	0x3fd541692b664bd0	0.33211735952607757
63	0x3fd40cfd18fc3b41	0.3132927650448672
64	0x3fd3ea391eb54950	0.311170845020702
65	0x3fd51e277421af11	0.32996546116804476
66	0x3fd4344353451d22	0.31568987972100804
67	0x3fd38322d09da471	0.3048789059890345
68	0x3fd41acb6ea58a3f	0.3141354160817719
69	0x3fd5d6e7c7e15a32	0.3412417842822918
70	0x3fd65067b63e694f	0.34865753934140725
71	0x3fd4d689e87d41b2	0.32559440330535516
72	0x3fd4370108369eef	0.31585717966161914
73	0x3fd56c02bbbcbac3	0.3347174485560737
74	0x3fd68078b8afc8a3	0.3515912822323434
75	0x3fd5f380b2a3284d	0.34298722691585654
76	0x3fd62c434ada802f	0.3464515906325713
77	0x3fd705f0308714bc	0.35973744143513975
78	0x3fd73d6954005ba0	0.363123256714454
79	0x3fd60efaaa76a583	0.34466425558874664
80	0x3fd56cb8b837663b	0.33476083745845003
81	0x3fd5febe67295014	0.3436733252940496
82	0x3fd66fc492a0ef82	0.35057176894383
83	0x3fd73aa5a6b26797	0.36295453337663147
84	0x3fd7e5a0622b801b	0.37339028918177214
85	0x3fd5f8769929904c	0.3432899947858956
86	0x3fd4c62c3eaba171	0.3245955097213687
87	0x3fd51c93cee866c8	0.32986922460405
88	0x3fd73046764c6f68	0.3623214869746705
89	0x3fd785ad96c74ae7	0.36753406261884297
90	0x3fd64ef11fa8b887	0.348568230549866
91	0x3fd5a2b58d45f1ac	0.3380559806462553
92	0x3fd74824f48b6da1	0.36377834206879284
93	0x3fd79f2b7d58d887	0.36908995858119237
94	0x3fd6717066bee7c5	0.3506737712265216
95	0x3fd57a3b0c95f3f8	0.33558536748006373
96	0x3fd5cd1829f54124	0.3406429681536045
97	0x3fd534c79f852707	0.33134642198693637
98	0x3fd49e60f3fba08d	0.3221666700978936
99	0x3fd364d8ea4a5500	0.30303023223798675
100	0x3fd3fc22f6f8f7f7	0.31226419561778535
101	0x3fd3a579866fdde0	0.30697477463351497
102	0x3fd5e1bd6b76d576	0.34190307135153064
103	0x3fd4f04d8919aae0	0.3271669234151613
104	0x3fd24d22ecaebba8	0.28595803369074213
105	0x3f80ba33baf774ae	0.008167652266758498
106	0xbfa88d12eab47a34	-0.047951308393966136
107	0x3f7fe6a7c3d87f21	0.007788329441183157
108	0x3fd0c57ded09826f	0.26205394886168326
109	0x3fd31a66a9e17261	0.2984863909712541
110	0x3fd010ae95591c7a	0.2510181864240121
111	0x3fd281b4bc87ae4e	0.28916662608273647
112	0x3fd1c70b1fded175	0.2777736483797278
113	0x3fd12c9a9f51ccad	0.2683474117140559
114	0x3fce439825d940da	0.23643781517103585
115	0x3fd1a43805cf2d4b	0.2756481224757478
116	0x3fc64ba2251d3b00	0.17418314754691977
117	0x3fca2d8545b0785c	0.20451417830276142
118	0x3fcd84409b756fe7	0.23059852209814766
119	0x3fd92c26444d9025	0.3933196703931137
120	0x3fcf198bba5c1550	0.24296709632487046
121	0x3fe324b9578e3d29	0.5982329092093198
122	0x3fda957065da30bb	0.4153710360194613
123	0x3fe2cf0f1fc1cc22	0.5877757663969343
124	0x3fe4d4a8d16869c6	0.6509594049451202
125	0xbfc12dd8b642d63e	-0.13421162509409784
126	0xbfba2c4e44580e44	-0.10223855179361246
127	0xbfb7c585b85c047d	-0.09285770178759552
128	0x3fca7bf5135407ff	0.20690787738573133
129	0x3fd92b73046a5d3f	0.39327693396758784
130	0x3fda6207140bda6e	0.41223313291212704
131	0x3fd960c73cbc5d99	0.3965318768618658
132	0x3fd92ca1d3ddb342	0.3933491295818393
133	0x3fe00858a3178f56	0.5010188279525021
134	0x3fe08f0beb2adee3	0.5174617379297753
135	0x3fe1a4e50c81c7ce	0.5513787502552476
136	0x3fe2b29f961df541	0.5843046123479
137	0x3fe2e1a28f333a7e	0.5900433346631215
138	0x3fe326e20aa3915d	0.598496456889318
139	0x3fe2c420f3900bed	0.5864414937099106
140	0x3fe33ecdd392ff23	0.6014165050800994
141	0x3fe3acd6f4c7dc63	0.6148485928414512
142	0x3fe353cd5023b455	0.6039797368263274
143	0x3fe3e74a3452c712	0.6219836255970412
144	0x3fe4c328bb50ede9	0.6488231333273095
145	0x3fe78dd5c98c3cdf	0.7360638557892364
146	0x3fe76c6b68c47fc4	0.7319848104707423
147	0x3fe7ac311a5d31bf	0.7397695078776038
148	0x3fe9450abcba6e77	0.7896779714678378
149	0x3fe82d737c16d5bb	0.7555482314698375
150	0x3fe89db3d0f56079	0.7692507821293609
151	0x3fe9a290b031e6d7	0.8010943833644103
152	0x3fea12e566a40a19	0.8148066525175778
153	0x3fe9d703146cf321	0.8074965857445912
154	0x3fe96d30e535bd85	0.7945789791828451
155	0x3fe947a6c445ac6e	0.7899965127411528
156	0x3fdd9e7b31d11e92	0.46279792656830765
157	0x3fddefa0723010e6	0.4677506556620429
158	0x3fdb88a9baa6acf8	0.43021624782222956
159	0x3fd86dc53424cb97	0.3816998490539673
160	0x3fd91a252352500e	0.3922207684456688
161	0x3fd8bac8d6dc6129	0.38640042288308735
162	0x3fd68addc8451fff	0.3522257285844716
163	0x3fd6dd8d17c16632	0.35727240867490473
164	0x3fd82bc9c682baeb	0.3776726187306127
165	0x3fd7df46abcdf49e	0.37300268914970924
166	0x3fd662624c05bd56	0.34975488113464814
167	0x3fd5aae317f633dd	0.3385551198960551
168	0x3fd6e6aff568e284	0.35783003774444233
169	0x3fd5dd24e64ff6b6	0.3416225670951961
170	0x3fd4e0c2b04cdcaf	0.3262182923967413
171	0x3fd46c26221ddbed	0.3191008885546001
172	0x3fd27dfb7cb5245b	0.28893935373759455
173	0x3fd15e92d209be53	0.271397309413236
174	0x3fd1276ad376c01b	0.2680308404042095
175	0x3fd0c2c8a7b198c2	0.26188866020528334
176	0x3fd0841a2e0045ec	0.2580628823498887
177	0x3fd025514d2fa407	0.25227768457131144
178	0x3fce7ead762edeb5	0.23824089308413013
179	0x3fca6192e57ae060	0.2061027164943452
180	0x3fc95762b30764fc	0.19797929517407187
181	0x3fc8830c8547c0a9	0.191499295309318
182	0x3fc8a572dcdc35d8	0.19254909309567725
183	0x3fc7236f93a6d76a	0.18076891622120722
184	0x3fc37aa429b7bcad	0.1521802142810648
185	0x3fc3685a13a701fa	0.1516220661124093
186	0x3fc5fe514a512e9a	0.17182365540280814
187	0x3fc4a628bcc5d8c8	0.16132077424453528
188	0x3fc2c7ad4aca6e43	0.14671865608112186
189	0x3fc1963ebb030896	0.13739761477888085
190	0x3fc1f3827129d836	0.1402438213878569
191	0x3fc4134178a0fcde	0.1568376387603853
192	0x3fc5a8b8834efaec	0.16921144877957006
193	0x3fc566c7a0c235d3	0.16719909047644296
194	0x3fc3b3dd11e58290	0.15392650007108388
195	0x3fc1d3248bfe0ae6	0.1392560657078185
196	0x3fbfa1af136b9eb2	0.12356085037356015
197	0x3fbc75d3681825b3	0.11117287913670885
198	0x3fb4660f670097b9	0.07968231453614195
199	0x3fb1bd6329e9a563	0.06929607175120149
200	0x3fb3d177fc66f229	0.07741498863374176
201	0x3fb3a0709245a096	0.07666686602681447
202	0x3fae4ee4c7ee1929	0.0591956609778655
203	0x3fa7b5dccd6dec2c	0.046309375836209504
204	0x3fabaa4a2ab5f988	0.05403358241436523
205	0x3fb118bf61538683	0.06678386808519048
206	0x3fac3dc4a3a88961	0.055158753373933285
207	0x3f9770f11b755a83	0.022891776371887673
208	0x3f939e1d3fc09665	0.019157845512515332
209	0x3f9706931f0ea9e2	0.02248601796206085
210	0x3f97494a2b716a7c	0.02274051561503619
211	0x3f8bafcfcc0edbad	0.013518927969796335
212	0xbf5af835a472e739	-0.0016460918284750394
213	0xbf8d5004d10f839c	-0.014312780027411702
214	0xbf9ea94674164511	-0.029942608676326424
215	0xbfafaca46a083e07	-0.06186403078401886
216	0xbfb2a91ebf5e845b	-0.07289306804752142
217	0xbfb7819f2cfde9be	-0.09182162140306269
218	0xbfb601a96d9c8328	-0.08596285749491683
219	0xbfb3c973bd027dc6	-0.07729266514296915
220	0xbfb1fa0057061e7c	-0.07022096752745627
221	0xbfb45a9e904cd36c	-0.07950774214698492
222	0xbfb7562350b0f552	-0.09115811080933625
223	0xbfb6d89c7ca386cc	-0.0892427257818113
224	0xbfb824233bb4b517	-0.09430141647017752
225	0xbfb912e21ea30e9c	-0.09794438598606309
226	0xbfb833bdde1bba80	-0.09453951523367188
227	0xbfb73593a684c6f4	-0.09066126647374145
228	0xbfb709d5e7d15f87	-0.08999382886520212
229	0xbfba285f12fb1dda	-0.10217851842309447
230	0xbfbd73f05134d8ac	-0.11505033476427923
231	0xbfbceb6dc3f290d6	-0.11296735795855581
232	0xbfba76b3aa1f879f	-0.10337374595067537
233	0xbfbb40ff29341e42	-0.10646052127787534
234	0xbfbc0596e829161b	-0.10946028869610595
235	0xbfbac7de662b3527	-0.1046122550426004
236	0xbfbd7eebdf506f39	-0.11521791650778547
237	0xbfbf45fb378956be	-0.12216158014174547
238	0xbfc0d8fcaaa2051b	-0.1316219170730982
239	0xbfc07077ffbce8b2	-0.12843227374270821
240	0xbfbf100def9654dc	-0.1213387212686316
241	0xbfbf01b836608389	-0.12111998870433473
242	0xbfbeedef7cfa0c0b	-0.12081810761633009
243	0xbfc055a979f92f9f	-0.12761419730884158
244	0xbfc0084354e12a01	-0.1252521671725191
245	0xbfc017e7043f89a0	-0.1257294436209806
246	0xbfbec2b8dc442efa	-0.12015872361751781
247	0xbfc09effb2424da8	-0.12985225872089967
248	0xbfc280b777413d04	-0.14455312083234884
249	0xbfc298470b5ddd80	-0.14527214102757213
250	0xbfc43919d34b8806	-0.1579925805772861
251	0xbfc57e067459b57a	-0.16790848427937616
252	0xbfc81e5614cc540d	-0.18842578902754817
253	0xbfc7afdc7780070d	-0.1850543578621501
254	0xbfc8238c5ba3ca07	-0.18858484720802002
255	0xbfcb457c69b10371	-0.21305804405895004

sigma f8 [4]
0	0x4034a0c0538b3a1e	20.627934667101833
1	0x4048fd116b7e37cb	49.977094112996916
2	0x3fcca9ce59513fdc	0.22393206940841892
3	0x3fe52576997174b7	0.6608231541573762

mu f8 [4]
0	0xc020b02d3da3d87e	-8.344095159769719
1	0x4042a36b39a57d1d	37.27670975285057
2	0x3fa7c27cb99ac11a	0.04640569463424722
3	0x3fbe372225db4df6	0.11802876877054999
