qolo_package/src/trainedModels_Fx.npz (npz, 685162 bytes, 6 tensors)

sigma f8 [5]
00000000: 77fc 21e0 a3a9 3240 54bf ca54 e69c 4b40
00000010: 1f6b f58e f81f d03f 9ce6 1a1c 7d9c e63f
00000020: b2b8 e2c0 10b8 e43f
18.662656791970644 55.225779150960676 0.2519513507919999 0.7066026257445688 0.6474689261720157

bias f8 []
00000000: 6033 ae16 184a e53f
0.665294689462467

mu f8 [5]
00000000: 2019 be81 ba73 26c0 87f2 38c0 02cf 4640
00000010: 14b6 37b7 7574 aa3f 3042 96ed 4b41 b23f
00000020: b379 754d ee0c b83f
-11.226032309012737 45.61727144985803 0.051669767966682795 0.07130884695494255 0.09394730940900935

sv (column-major) f8 [14244, 5]
00000000: 3a66 9d29 f453 d73f 4799 4a10 122b dd3f
00000010: e461 a678 f7b2 de3f b4c6 63b9 1181 e03f
00000020: f0c6 9451 86b9 e03f c55b bdfd b4f6 e03f
00000030: 1db2 e5c4 b1b1 e03f 0a9d 46c0 eed5 e03f
00000040: 47b5 1531 01c6 e03f 3268 71f5 2b71 e03f
00000050: 7b2c 3bc0 c7d2 e03f 8b92 9a0e 37ca e13f
00000060: 34c7 55e4 5890 e13f 806b 9453 ed0b e23f
00000070: c389 ba0a 078c e03f 6df1 27ad 1040 e13f
00000080: 1503 345a 9c0f e23f b5ef 8e30 66fa e13f
00000090: 9ba3 0eda c73c e23f cf5c 9021 994a e23f
000000a0: 4d26 7b3d 41d9 e13f 2250 154b 562a e23f
000000b0: 4fce 64e7 e738 e23f 59f3 2ec0 75dc e13f
000000c0: e7d4 e729 3d71 e13f 7a7d 7bdc 0d99 e13f
000000d0: b3f5 8dd0 7fcc e13f 1389 7161 f13d e13f
000000e0: 3836 9613 fc2b e13f 3689 9027 b82f e13f
000000f0: bd2d 84b1 d935 e13f 9b6b 1df8 75d9 e13f
00000100: 6284 4308 88c4 e13f f1a6 441e cbb1 e43f
00000110: 1e90 383a 3280 e33f 021f 7d95 facb e33f
00000120: aa55 da43 f51e e43f dcbf 529f d621 e43f
00000130: cfc5 9cff f95e e33f 48b6 9770 546b e33f
00000140: 0393 e37a b365 e33f 2884 f20f b272 e33f
00000150: c9cc 9555 c8cc e23f 86a5 e31b 0456 e23f
00000160: 265c dd85 2384 e23f e653 ccd4 fba2 e23f
00000170: df2d a326 53ab e23f a2f5 daf3 5283 e23f
00000180: 079d 279b eb4f e23f 7585 cb36 bd09 e23f
00000190: 5537 f41e 4937 e23f c549 064f bdc0 e23f
000001a0: 485b 9940 a721 e33f 441a a3ad 12b1 e23f
000001b0: 7d89 48b0 b9e3 e13f 5212 2a8c f2c6 e13f
000001c0: eb3a fd3b dc83 e13f 983a c3a0 3db0 e03f
000001d0: 2803 d257 ca05 e03f b34f 397e 27e5 df3f
000001e0: aa3d 3836 a8a3 df3f 5ed7 b88a c19c e03f
000001f0: afcb c4d6 7e1b e03f 13ef b625 3673 df3f
00000200: 7de9 409a 6b0d e03f 9a5f e3fb db02 e13f
00000210: 3709 a7a7 0146 e13f 5eea 7375 2d75 e03f
00000220: 7e79 9ba3 021d e03f 989a f89d c8c7 e03f
00000230: 85ec 290d 9260 e13f 44a4 8ae8 a912 e13f
00000240: 1514 cb47 0832 e13f 8308 59cb 54aa e13f
00000250: e342 7617 fdc8 e13f ef74 eb3f d921 e13f
00000260: 2616 3831 2dc8 e03f d615 a447 e018 e13f
00000270: d76f 8ed3 5657 e13f 8072 f8fd 75c7 e13f
00000280: f95c 3301 f425 e23f f41d e7b8 6715 e13f
00000290: d23d b507 226c e03f 26b9 5677 e29b e03f
000002a0: b27b 3f98 bac1 e13f 6332 784f edf0 e13f
000002b0: 1ec6 40a3 3245 e13f 2069 f14f 03e6 e03f
000002c0: f2d5 3c93 ebce e13f cb2a efdd 03ff e13f
000002d0: 6b7c 5a44 4358 e13f 7415 8772 a4cf e03f
000002e0: de1c a0ee 6ffd e03f 191a 9299 42a9 e03f
000002f0: 41dc f9fe 2356 e03f 45c4 6ab8 bb51 df3f
00000300: 2894 7c40 f4f8 df3f 939c 0691 2a99 df3f
00000310: 80e1 1b63 3d65 df3f 86db 21f9 b6c1 dd3f
00000320: ed95 1a3c 911c de3f dda5 0060 4833 dc3f
00000330: 8659 b7fd ef85 d53f 1fd3 9fcd ccff d73f
00000340: 1b9c ec33 1844 d73f 20e7 9a0e 1e6f d63f
00000350: 6277 0e99 17c3 d53f fb92 a9c1 ee82 d53f
00000360: 312b c537 63da d63f efdf 8cf4 3899 d53f
00000370: e80b 2cd9 c7f6 b93f a4b8 3536 9cb8 d43f
00000380: 6577 ec7b a5c5 d33f c960 f6db 3567 d23f
00000390: bed9 a896 9f2b e23f 3f72 c407 5c78 e23f
000003a0: 66e9 93e3 a50d e33f 47b6 b4b2 e724 e33f
000003b0: ec6e bb93 2298 e73f e37e af57 2656 e53f
000003c0: 410b 048c 0d4e e43f 34ae 0afa 6647 ef3f
000003d0: 023f 2417 4dba e13f cc52 fb1a 540d e13f
000003e0: 5a5c 327e 21c8 8b3f f90f f2df 5ce4 de3f
000003f0: 1b1a 4449 d6b4 e13f 5ade f71a 42e9 e13f
00000400: 4c3e acf7 00c4 e33f cdff fc47 0faf e93f
00000410: 5050 1042 a736 ea3f bc88 edcf dc4d ea3f
00000420: 9133 c62d 79f3 e93f 448d eeb4 e1f0 ea3f
00000430: c2e7 e181 e7e3 eb3f 1e51 232d 85ec eb3f
00000440: 4277 3e89 9c21 eb3f 9270 7d80 897b eb3f
00000450: ee55 6b68 3499 ec3f 4abe 8e0c 155a ed3f
00000460: 9668 fdff 87f2 ec3f 1dbf 5771 09ea ec3f
00000470: 725f 6ea8 59bd ec3f 3be2 c50d da22 ed3f
00000480: ec16 afd6 129b ed3f a11c 6b4c 271e ee3f
00000490: af95 4d5d 44d6 ee3f 0deb b974 5fe7 ee3f
000004a0: e000 50d5 d207 ef3f ab0d 20ec d6f9 ee3f
000004b0: e177 f781 32d3 ee3f 8868 f0b8 e7d4 ee3f
000004c0: 75a2 6a99 641b ef3f b999 8ae8 153d f03f
000004d0: ed1d 6393 43aa ef3f af7c a1ff 2a13 f03f
000004e0: b104 05c2 51c0 f03f b0e8 774b d685 f03f
000004f0: 8a17 3e3b 1771 f03f 0496 acaf d17d f03f
00000500: 3d54 1951 5180 f03f a21f f688 1b5d f03f
00000510: ba45 b6b5 b966 f03f 3bec 079e 1986 f03f
00000520: 9622 10a0 1976 f03f a864 dd53 f471 f03f
00000530: 1099 6f38 7e6c f03f b18e 5d7b b556 f03f
00000540: b1b2 1b8e 6775 f03f 7e31 f8a2 5e71 f03f
00000550: 3d6e 1b1f 476d f03f 3002 18e9 e114 dd3f
00000560: 2443 4301 ebd7 dc3f a93e 6cf0 af68 dc3f
00000570: 2e06 11af 6723 dc3f 2ada 7595 a3ba db3f
00000580: 6c85 7c34 71bc da3f 802a a10b 7176 d83f
00000590: 26f0 ddf8 54e3 d73f 3249 64c7 fb6d d73f
000005a0: 484b a1a0 fe80 d73f c7ba 4ee2 a9ab d63f
000005b0: ad78 ae0a f1a5 d43f 9542 6779 d59b d43f
000005c0: d02e 13c6 ab09 d63f 0b60 668e 784b d53f
000005d0: 3ec4 9a54 0943 d43f 370f 5c1b 3d9a d33f
000005e0: 7c4e 3815 c8cd d33f 3c72 bacc 48fa d43f
000005f0: bb7a 589e 5dda d53f b3d9 285a ecb5 d53f
00000600: 1132 a8cc 90c5 d43f 76c4 55dc e4bb d33f
00000610: 09df 0b0d aa9f d23f a2af b794 53bf d13f
00000620: 2037 db7b 1b0a cf3f bfbc 4984 ee91 cd3f
00000630: 2563 f7e5 fcb7 ce3f 94f4 4b53 e49c ce3f
00000640: c9cd c8c6 1b24 cc3f d9c6 af7b 6251 ca3f
00000650: e18f 0a1f 2569 cb3f 7d4e 5e6e f136 cd3f
00000660: 7b51 2ead e591 cb3f a13a 901f 3b01 c73f
00000670: 11d7 3137 fe79 c63f 32a2 2df1 88f2 c63f
00000680: 8340 38a3 c0fb c63f 489a 6f52 c2ad c53f
00000690: 3c7e 57a9 8088 c33f b68b 1477 bbbd c13f
000006a0: 113a f937 480f bf3f 70a6 5810 fb06 b63f
000006b0: 4a80 de2e 11e8 b23f 5d5f 0c31 de19 ab3f
000006c0: 6387 9267 a76a ae3f 57d0 d449 5fa9 b13f
000006d0: f491 1c79 a0a9 b33f 1a9e a704 eb08 b13f
000006e0: cdb5 e666 fe79 ab3f cf5d 8cff 7b8f ac3f
000006f0: 955e d6d0 9bb2 a93f b4e0 e8bf d5a2 a73f
00000700: a0c5 f03b 1d90 a93f 7de0 d54f f9c1 ab3f
00000710: aaca bb2a ab22 ac3f 01c7 29b2 6a3d a53f
00000720: 8380 9e47 3ce9 9b3f 6ede 73b9 c644 9e3f
00000730: d4ea 7639 4290 a43f f2a3 b23a 10d1 a23f
00000740: 9652 972c 791e a13f a151 eb87 d4dc a33f
00000750: e6ef a0c5 adb8 9b3f 0af1 fb0d c2dc 933f
00000760: 904a 4a3a 444f 823f 6382 b4d6 a887 893f
00000770: 92d5 6a42 2ecb 943f 4c91 6ceb 8e0a 953f
00000780: e4c8 e02f 0762 953f e126 14c4 bb61 8b3f
00000790: 5e6e 0154 435d 903f 239d 8df1 f1a5 8f3f
000007a0: 71a1 aa83 1521 963f 4bdc bed4 c750 863f
000007b0: be18 596d b0ec 75bf 8697 cffb 072e 79bf
000007c0: 0274 879d 3eb1 94bf cd26 7e94 5eea 9fbf
000007d0: aad4 47e8 9e91 abbf ad48 6fa0 2fa9 a9bf
000007e0: 1ac7 4c0a aaa8 abbf 6f15 81ae 1ac1 b4bf
000007f0: d398 4c32 e99a b7bf e091 61a2 0cbf b7bf
0.36449913085889174 0.45575381842572366 0.47967325956554263 0.5157555218595093 0.5226470559484522 0.5301156001904636 0.5216912122392078 0.5261148219478013
0.5241704901397178 0.5138149064835089 0.5257300142778968 0.5559344563703957 0.548870511977134 0.5639559395234386 0.5170932015938025 0.5390704519227661
0.5644056093006805 0.5618163059621027 0.5699195155076383 0.5716062217278707 0.5577703667451687 0.5676681009740643 0.5694465178880338 0.5581616166669888
0.5450731104343988 0.5499333673759985 0.556213290532176 0.5388113883202855 0.5366192228845597 0.5370751164194079 0.5378235308757479 0.5577955099100679
0.5552406464959285 0.6467032996344796 0.6093989503028785 0.618649761171554 0.6287790608645782 0.6291306602270157 0.6053438179425771 0.6068517874788961
0.6061646843123473 0.6077509223433752 0.5874978705964163 0.5730000061713987 0.5786302198929476 0.5823954731191605 0.5834136728894314 0.578530765800384
0.5722559004179012 0.5636888570990509 0.5692487339563096 0.5860277694176196 0.5978580724430254 0.5841153518056861 0.5590485041650904 0.555535577543717
0.5473462268508603 0.5215137615103513 0.5007068362466258 0.49836146666097675 0.4943638352860612 0.5191352567114611 0.5033563799573723 0.49140695269646634
0.5016382229580781 0.5315990371409385 0.539795710989245 0.5143039030074978 0.5035412974792022 0.5243876538632604 0.5430383927445211 0.5335282842471618
0.5373574640476614 0.5520423862110565 0.5557847460023279 0.535381913035648 0.5244356118498146 0.5342866324651208 0.5419115192375966 0.5555982551919243
0.567132952065463 0.5338629351980999 0.5131998205706003 0.5190288859210213 0.5548985456078894 0.5606600334300079 0.5396969975028616 0.528077751291935
0.5565088153586528 0.5623797735837227 0.5420242629078421 0.5253469693058563 0.5309371624615797 0.5206616401126808 0.5105152111053785 0.48936360368231063
0.49956995294116036 0.4937235275523985 0.49055418661694006 0.4649484093601405 0.4704936110450422 0.44063004851576953 0.336299894113289 0.37498779373645336
0.36353116102913113 0.3505320685031723 0.3400324816410515 0.3361164942964902 0.35707931944186827 0.3374769581018872 0.10142182399799504 0.32376771253519565
0.30893838025973813 0.2875494621344044 0.5678251211709762 0.5771923209864055 0.5954160160902517 0.5982550134992345 0.7373211751359725 0.6667663300140386
0.6345279440578012 0.9774660953166348 0.5539918376907453 0.5328770186411815 0.01356531301853019 0.48268815869982934 0.5533248358704584 0.5597239042971964
0.6176762425765872 0.8026195913334903 0.8191715517336977 0.8220047055331388 0.8109708684947795 0.8419045003724155 0.8715703522459466 0.8726220971680367
0.847852962546064 0.8588302144594471 0.8937017478407918 0.9172463650956584 0.9046058654596603 0.9035689557767658 0.8981140412970332 0.9105043667796687
0.9251798813863537 0.9411808483645424 0.9636556455922597 0.9657437591370993 0.9697050253162409 0.9679979907818298 0.9632809198772031 0.9634894001094532
0.972093867913897 1.0149134715698962 0.9895341757446069 1.004679678495261 1.046952970398973 1.032675070570388 1.0276100458299617 1.030717550494388
1.0313275497367294 1.0227313375525928 1.0250794504284912 1.0327392743190689 1.0288330318891545 1.0278208995789928 1.026487560704087 1.0211691683734154
1.0286632109738714 1.0276781431194588 1.0266791548846321 0.4543995643908003 0.45067858813586015 0.44388960341255285 0.4396609506257815 0.433266540486701
0.41775159955621777 0.38222910056780535 0.37325023940479907 0.3660878607926349 0.36724820791748813 0.35422751522393664 0.32262826960676244 0.32201134544178817
0.344340270454933 0.3327313795684865 0.3165915800300957 0.306288983076445 0.3094349105096865 0.32777614586828796 0.3414529844612095 0.33922871403356253
0.3245584486583378 0.30834313885777165 0.290995133152578 0.2773026420898025 0.24249595210715658 0.23101598224045536 0.23998986462427144 0.23916296069356646
0.21985194402951283 0.20560866393457536 0.2141462709015505 0.22823923005181604 0.2153899283990873 0.17972506562405946 0.17559793181470032 0.17927657867700614
0.17955787629808037 0.16936520600502747 0.15260322826996908 0.13860266985383668 0.1213269364027172 0.08604401730613076 0.07385356325403439 0.052931731688828455
0.059407454865563 0.0689906649830062 0.07680705029321883 0.0665423284877921 0.053665113507445385 0.05578219885336077 0.05019080089840348 0.046164207149958086
0.04992762905784365 0.05421427821687617 0.05495200058603207 0.041484197853504774 0.027256910201345363 0.02955923563874168 0.04016310645552826 0.03675127712751437
0.033435618108034124 0.03879417571230027 0.027071681201263596 0.019396812537693577 0.008940251377940883 0.012465781261711223 0.02030632286433371 0.020548089141031498
0.0208817599270298 0.01337000553259621 0.01598077011327203 0.015453233894460688 0.02161058059815119 0.010896264247874174 -0.005352677505987722 -0.006147414384917732
-0.02020738445741089 -0.031167486012725832 -0.053845373014988 -0.05011891206199102 -0.0540211808751236 -0.08107153663975962 -0.09220750310905439 -0.09275893177397831

kernel_scale f8 []
00000000: ec51 b81e 85eb e13f
0.56

alpha f8 [14244]
00000000: ccf8 f3c0 85d9 2740 ccf8 f3c0 85d9 2740
00000010: ccf8 f3c0 85d9 2740 ccf8 f3c0 85d9 2740
00000020: 92b1 27c4 3fa9 2040 ccf8 f3c0 85d9 2740
00000030: ccf8 f3c0 85d9 2740 ccf8 f3c0 85d9 2740
00000040: ccf8 f3c0 85d9 2740 ccf8 f3c0 85d9 2740
00000050: ccf8 f3c0 85d9 2740 ccf8 f3c0 85d9 2740
00000060: ccf8 f3c0 85d9 2740 ccf8 f3c0 85d9 2740
00000070: ccf8 f3c0 85d9 2740 ccf8 f3c0 85d9 2740
00000080: ccf8 f3c0 85d9 2740 ccf8 f3c0 85d9 2740
00000090: ccf8 f3c0 85d9 2740 ccf8 f3c0 85d9 2740
000000a0: ccf8 f3c0 85d9 2740 ccf8 f3c0 85d9 2740
000000b0: ccf8 f3c0 85d9 2740 ccf8 f3c0 85d9 2740
000000c0: ccf8 f3c0 85d9 2740 ccf8 f3c0 85d9 2740
000000d0: ccf8 f3c0 85d9 2740 ccf8 f3c0 85d9 2740
000000e0: ccf8 f3c0 85d9 2740 ccf8 f3c0 85d9 2740
000000f0: ccf8 f3c0 85d9 2740 ccf8 f3c0 85d9 2740
00000100: 72bb 5099 2d7a 1c40 ccf8 f3c0 85d9 27c0
00000110: ccf8 f3c0 85d9 27c0 ccf8 f3c0 85d9 27c0
00000120: ccf8 f3c0 85d9 27c0 ccf8 f3c0 85d9 27c0
00000130: ccf8 f3c0 85d9 27c0 ccf8 f3c0 85d9 27c0
00000140: ccf8 f3c0 85d9 27c0 ccf8 f3c0 85d9 27c0
00000150: ccf8 f3c0 85d9 27c0 ccf8 f3c0 85d9 27c0
00000160: ccf8 f3c0 85d9 27c0 ccf8 f3c0 85d9 27c0
00000170: ccf8 f3c0 85d9 27c0 ccf8 f3c0 85d9 27c0
00000180: ccf8 f3c0 85d9 27c0 ccf8 f3c0 85d9 27c0
00000190: ccf8 f3c0 85d9 27c0 ccf8 f3c0 85d9 27c0
000001a0: ccf8 f3c0 85d9 27c0 ccf8 f3c0 85d9 27c0
000001b0: ccf8 f3c0 85d9 27c0 ccf8 f3c0 85d9 27c0
000001c0: ccf8 f3c0 85d9 27c0 ccf8 f3c0 85d9 27c0
000001d0: ccf8 f3c0 85d9 27c0 ccf8 f3c0 85d9 27c0
000001e0: ccf8 f3c0 85d9 27c0 ccf8 f3c0 85d9 27c0
000001f0: ccf8 f3c0 85d9 27c0 ccf8 f3c0 85d9 27c0
00000200: ccf8 f3c0 85d9 27c0 ccf8 f3c0 85d9 27c0
00000210: ccf8 f3c0 85d9 27c0 ccf8 f3c0 85d9 27c0
00000220: ccf8 f3c0 85d9 27c0 ccf8 f3c0 85d9 27c0
00000230: ccf8 f3c0 85d9 27c0 ccf8 f3c0 85d9 27c0
00000240: ccf8 f3c0 85d9 27c0 ccf8 f3c0 85d9 27c0
00000250: ccf8 f3c0 85d9 27c0 ccf8 f3c0 85d9 27c0
00000260: ccf8 f3c0 85d9 27c0 ccf8 f3c0 85d9 27c0
00000270: ccf8 f3c0 85d9 27c0 ccf8 f3c0 85d9 27c0
00000280: ccf8 f3c0 85d9 27c0 ccf8 f3c0 85d9 27c0
00000290: ccf8 f3c0 85d9 27c0 ccf8 f3c0 85d9 27c0
000002a0: ccf8 f3c0 85d9 27c0 ccf8 f3c0 85d9 27c0
000002b0: ccf8 f3c0 85d9 27c0 ccf8 f3c0 85d9 27c0
000002c0: ccf8 f3c0 85d9 27c0 ccf8 f3c0 85d9 27c0
000002d0: ccf8 f3c0 85d9 27c0 ccf8 f3c0 85d9 27c0
000002e0: ccf8 f3c0 85d9 27c0 ccf8 f3c0 85d9 27c0
000002f0: ccf8 f3c0 85d9 27c0 ccf8 f3c0 85d9 27c0
00000300: ccf8 f3c0 85d9 27c0 ccf8 f3c0 85d9 27c0
00000310: ccf8 f3c0 85d9 27c0 ccf8 f3c0 85d9 27c0
00000320: ccf8 f3c0 85d9 27c0 ccf8 f3c0 85d9 27c0
00000330: ccf8 f3c0 85d9 2740 ccf8 f3c0 85d9 2740
00000340: be9c 0888 a3fb e43f ccf8 f3c0 85d9 2740
00000350: ccf8 f3c0 85d9 2740 ccf8 f3c0 85d9 2740
00000360: ccf8 f3c0 85d9 2740 a012 6304 445b dd3f
00000370: bed3 4d8c 5c62 cfbf 5568 1577 4f0d f73f
00000380: f561 f638 212d 2740 ccf8 f3c0 85d9 2740
00000390: ccf8 f3c0 85d9 27c0 ccf8 f3c0 85d9 27c0
000003a0: ccf8 f3c0 85d9 27c0 d05a 1e1f 3ddc 26c0
000003b0: ccf8 f3c0 85d9 27c0 0d2b 4f19 1d18 1540
000003c0: ccf8 f3c0 85d9 2740 1369 7a57 ca23 fa3f
000003d0: 925b d342 a298 12c0 a14c c9c0 971a e53f
000003e0: 8eeb b98f e0ff 12c0 5164 27d9 7d0b 1b40
000003f0: ef50 487e ae23 12c0 e8ea 8b6a 8e72 1cc0
00000400: fe31 e8ea bcac 1e40 ccf8 f3c0 85d9 2740
00000410: 8795 d38d e912 2640 ccf8 f3c0 85d9 2740
00000420: ccf8 f3c0 85d9 2740 ccf8 f3c0 85d9 2740
00000430: ccf8 f3c0 85d9 2740 ccf8 f3c0 85d9 2740
00000440: ccf8 f3c0 85d9 2740 ccf8 f3c0 85d9 2740
00000450: ccf8 f3c0 85d9 2740 ccf8 f3c0 85d9 2740
00000460: ccf8 f3c0 85d9 2740 ccf8 f3c0 85d9 2740
00000470: ccf8 f3c0 85d9 2740 ccf8 f3c0 85d9 2740
00000480: ccf8 f3c0 85d9 2740 ccf8 f3c0 85d9 2740
00000490: ccf8 f3c0 85d9 2740 ccf8 f3c0 85d9 2740
000004a0: ccf8 f3c0 85d9 2740 ccf8 f3c0 85d9 2740
000004b0: ccf8 f3c0 85d9 2740 ccf8 f3c0 85d9 2740
000004c0: ccf8 f3c0 85d9 2740 ccf8 f3c0 85d9 2740
000004d0: ccf8 f3c0 85d9 2740 ccf8 f3c0 85d9 2740
000004e0: c221 82e7 addb 2140 ccf8 f3c0 85d9 2740
000004f0: ccf8 f3c0 85d9 2740 ccf8 f3c0 85d9 2740
00000500: ccf8 f3c0 85d9 2740 ccf8 f3c0 85d9 2740
00000510: ccf8 f3c0 85d9 2740 9d2c 4415 bdb2 2340
00000520: ccf8 f3c0 85d9 2740 e0cc 5bf6 ee48 f43f
00000530: ccf8 f3c0 85d9 2740 ccf8 f3c0 85d9 2740
00000540: ccf8 f3c0 85d9 2740 ccf8 f3c0 85d9 2740
00000550: ccf8 f3c0 85d9 2740 ccf8 f3c0 85d9 2740
00000560: ccf8 f3c0 85d9 2740 ccf8 f3c0 85d9 2740
00000570: ccf8 f3c0 85d9 2740 ccf8 f3c0 85d9 2740
00000580: ccf8 f3c0 85d9 2740 ccf8 f3c0 85d9 2740
00000590: ccf8 f3c0 85d9 2740 ccf8 f3c0 85d9 2740
000005a0: ccf8 f3c0 85d9 2740 ccf8 f3c0 85d9 2740
000005b0: ccf8 f3c0 85d9 2740 ccf8 f3c0 85d9 2740
000005c0: ccf8 f3c0 85d9 2740 ccf8 f3c0 85d9 2740
000005d0: ccf8 f3c0 85d9 2740 ccf8 f3c0 85d9 2740
000005e0: ccf8 f3c0 85d9 2740 ccf8 f3c0 85d9 2740
000005f0: ccf8 f3c0 85d9 2740 ccf8 f3c0 85d9 2740
00000600: ccf8 f3c0 85d9 2740 ccf8 f3c0 85d9 2740
00000610: ccf8 f3c0 85d9 2740 ccf8 f3c0 85d9 2740
00000620: ccf8 f3c0 85d9 2740 ccf8 f3c0 85d9 2740
00000630: ccf8 f3c0 85d9 2740 ccf8 f3c0 85d9 2740
00000640: ccf8 f3c0 85d9 2740 ccf8 f3c0 85d9 2740
00000650: ccf8 f3c0 85d9 2740 ccf8 f3c0 85d9 2740
00000660: ccf8 f3c0 85d9 2740 ccf8 f3c0 85d9 2740
00000670: ccf8 f3c0 85d9 2740 ccf8 f3c0 85d9 2740
00000680: ccf8 f3c0 85d9 2740 ccf8 f3c0 85d9 2740
00000690: ccf8 f3c0 85d9 2740 ccf8 f3c0 85d9 2740
000006a0: ccf8 f3c0 85d9 2740 ccf8 f3c0 85d9 2740
000006b0: ccf8 f3c0 85d9 2740 ccf8 f3c0 85d9 2740
000006c0: ccf8 f3c0 85d9 2740 ccf8 f3c0 85d9 2740
000006d0: ccf8 f3c0 85d9 2740 ccf8 f3c0 85d9 2740
000006e0: ccf8 f3c0 85d9 2740 ccf8 f3c0 85d9 2740
000006f0: ccf8 f3c0 85d9 2740 ccf8 f3c0 85d9 2740
00000700: ccf8 f3c0 85d9 2740 ccf8 f3c0 85d9 2740
00000710: ccf8 f3c0 85d9 2740 ccf8 f3c0 85d9 2740
00000720: ccf8 f3c0 85d9 2740 ccf8 f3c0 85d9 2740
00000730: ccf8 f3c0 85d9 2740 ccf8 f3c0 85d9 2740
00000740: ccf8 f3c0 85d9 2740 ccf8 f3c0 85d9 2740
00000750: ccf8 f3c0 85d9 2740 ccf8 f3c0 85d9 2740
00000760: ccf8 f3c0 85d9 2740 ccf8 f3c0 85d9 2740
00000770: ccf8 f3c0 85d9 2740 ccf8 f3c0 85d9 2740
00000780: ccf8 f3c0 85d9 2740 ccf8 f3c0 85d9 2740
00000790: ccf8 f3c0 85d9 2740 ccf8 f3c0 85d9 2740
000007a0: ccf8 f3c0 85d9 2740 ccf8 f3c0 85d9 2740
000007b0: ccf8 f3c0 85d9 2740 ccf8 f3c0 85d9 2740
000007c0: ccf8 f3c0 85d9 2740 ccf8 f3c0 85d9 2740
000007d0: ccf8 f3c0 85d9 2740 ccf8 f3c0 85d9 2740
000007e0: ccf8 f3c0 85d9 2740 ccf8 f3c0 85d9 2740
000007f0: ccf8 f3c0 85d9 2740 ccf8 f3c0 85d9 2740
11.924848584920618 11.924848584920618 11.924848584920618 11.924848584920618 8.330564622731604 11.924848584920618 11.924848584920618 11.924848584920618
11.924848584920618 11.924848584920618 11.924848584920618 11.924848584920618 11.924848584920618 11.924848584920618 11.924848584920618 11.924848584920618
11.924848584920618 11.924848584920618 11.924848584920618 11.924848584920618 11.924848584920618 11.924848584920618 11.924848584920618 11.924848584920618
11.924848584920618 11.924848584920618 11.924848584920618 11.924848584920618 11.924848584920618 11.924848584920618 11.924848584920618 11.924848584920618
7.119314570953849 -11.924848584920618 -11.924848584920618 -11.924848584920618 -11.924848584920618 -11.924848584920618 -11.924848584920618 -11.924848584920618
-11.924848584920618 -11.924848584920618 -11.924848584920618 -11.924848584920618 -11.924848584920618 -11.924848584920618 -11.924848584920618 -11.924848584920618
-11.924848584920618 -11.924848584920618 -11.924848584920618 -11.924848584920618 -11.924848584920618 -11.924848584920618 -11.924848584920618 -11.924848584920618
-11.924848584920618 -11.924848584920618 -11.924848584920618 -11.924848584920618 -11.924848584920618 -11.924848584920618 -11.924848584920618 -11.924848584920618
-11.924848584920618 -11.924848584920618 -11.924848584920618 -11.924848584920618 -11.924848584920618 -11.924848584920618 -11.924848584920618 -11.924848584920618
-11.924848584920618 -11.924848584920618 -11.924848584920618 -11.924848584920618 -11.924848584920618 -11.924848584920618 -11.924848584920618 -11.924848584920618
-11.924848584920618 -11.924848584920618 -11.924848584920618 -11.924848584920618 -11.924848584920618 -11.924848584920618 -11.924848584920618 -11.924848584920618
-11.924848584920618 -11.924848584920618 -11.924848584920618 -11.924848584920618 -11.924848584920618 -11.924848584920618 -11.924848584920618 -11.924848584920618
-11.924848584920618 -11.924848584920618 -11.924848584920618 -11.924848584920618 -11.924848584920618 -11.924848584920618 11.924848584920618 11.924848584920618
0.65571762627669 11.924848584920618 11.924848584920618 11.924848584920618 11.924848584920618 0.4586954157678438 -0.2451892552450356 1.4407496120170624
11.5881440926323 11.924848584920618 -11.924848584920618 -11.924848584920618 -11.924848584920618 -11.430153820472157 -11.924848584920618 5.273548503357927
11.924848584920618 1.6337378899684765 -4.649056476736307 0.6594961896284027 -4.749880071375527 6.76122226050309 -4.534845326579883 -7.111871399679082
7.668689413473201 11.924848584920618 11.036938125684868 11.924848584920618 11.924848584920618 11.924848584920618 11.924848584920618 11.924848584920618
11.924848584920618 11.924848584920618 11.924848584920618 11.924848584920618 11.924848584920618 11.924848584920618 11.924848584920618 11.924848584920618
11.924848584920618 11.924848584920618 11.924848584920618 11.924848584920618 11.924848584920618 11.924848584920618 11.924848584920618 11.924848584920618
11.924848584920618 11.924848584920618 11.924848584920618 11.924848584920618 8.929061159739721 11.924848584920618 11.924848584920618 11.924848584920618
11.924848584920618 11.924848584920618 11.924848584920618 9.849098839351706 11.924848584920618 1.2678060172445882 11.924848584920618 11.924848584920618
11.924848584920618 11.924848584920618 11.924848584920618 11.924848584920618 11.924848584920618 11.924848584920618 11.924848584920618 11.924848584920618
11.924848584920618 11.924848584920618 11.924848584920618 11.924848584920618 11.924848584920618 11.924848584920618 11.924848584920618 11.924848584920618
11.924848584920618 11.924848584920618 11.924848584920618 11.924848584920618 11.924848584920618 11.924848584920618 11.924848584920618 11.924848584920618
11.924848584920618 11.924848584920618 11.924848584920618 11.924848584920618 11.924848584920618 11.924848584920618 11.924848584920618 11.924848584920618
11.924848584920618 11.924848584920618 11.924848584920618 11.924848584920618 11.924848584920618 11.924848584920618 11.924848584920618 11.924848584920618
11.924848584920618 11.924848584920618 11.924848584920618 11.924848584920618 11.924848584920618 11.924848584920618 11.924848584920618 11.924848584920618
11.924848584920618 11.924848584920618 11.924848584920618 11.924848584920618 11.924848584920618 11.924848584920618 11.924848584920618 11.924848584920618
11.924848584920618 11.924848584920618 11.924848584920618 11.924848584920618 11.924848584920618 11.924848584920618 11.924848584920618 11.924848584920618
11.924848584920618 11.924848584920618 11.924848584920618 11.924848584920618 11.924848584920618 11.924848584920618 11.924848584920618 11.924848584920618
11.924848584920618 11.924848584920618 11.924848584920618 11.924848584920618 11.924848584920618 11.924848584920618 11.924848584920618 11.924848584920618
11.924848584920618 11.924848584920618 11.924848584920618 11.924848584920618 11.924848584920618 11.924848584920618 11.924848584920618 11.924848584920618
