qolo_package/src/trainedModels_Fy.npz (npz, 70618 bytes, 6 tensors)

bias f8 []
0	0x404afd8daab16c88	53.980885826714314

sv (column-major) f8 [1441, 5]
0	0x3fde9573613d77f3	0.4778717469797577
1	0x3fde0e499977a6d1	0.4696220396714184
2	0x3fdd4a7a6541d6f8	0.45767078293225394
3	0x3fdbd917334799a6	0.4351251602915006
4	0x3fdb60a807d79906	0.4277744366248871
5	0x3fdc641869c5c314	0.4436093361792228
6	0x3fdbb776d5a48f07	0.43307276595645344
7	0x3fd85c0bf867dcb8	0.38061808832521704
8	0x3fd818f224177ef5	0.37652257465923294
9	0x3fd923423c25245d	0.39277702210944715
10	0x3fd7ce04c0ac64c8	0.3719493753029153
11	0x3fd71dfcc866d73d	0.3612052876518311
12	0x3fd7a87158cf3c2c	0.36965593025974175
13	0x3fd79ad6d77bcc79	0.3688256363231584
14	0x3fd87f5e89bef7c6	0.3827740044761153
15	0x3fd8b6bec5e1fa85	0.3861538822601818
16	0x3fd88197afc42be4	0.38290970005681246
17	0x3fd84b3c6507e6fe	0.3795920359258246
18	0x3fd84e2341a19217	0.37976914796152655
19	0x3fd80c96941d9b69	0.3757683226053162
20	0x3fd7d9a133f06ac2	0.3726580626695687
21	0x3fd757d88ff2ad08	0.3647366910688139
22	0x3fd6b5ee3f5c16cb	0.35485416591141633
23	0x3fcaddd02f779f9d	0.20989420240152593
24	0x3fcafb8561c98973	0.21080081248062363
25	0x3fc2f861309287cb	0.14820494529436554
26	0x3fc42ccd5bcfc2bd	0.15761725409494956
27	0x3fc42f2e1b8797e6	0.15768982261869197
28	0x3fc4caabc182adeb	0.16243502568009602
29	0x3fc2aada7ab5368e	0.14583903304667384
30	0x3fd1dca5d6ffb38d	0.2790922736738189
31	0x3fe12a0e7095757a	0.5363838385489281
32	0x3fe150bf4d4e1604	0.5411068448890437
33	0x3fe13a8edc27f8fa	0.5383981990742364
34	0x3fe138c80071544a	0.5381813057562195
35	0x3fe12d08cea05608	0.5367473636312647
36	0x3fe128060da0b3fb	0.5361356989066047
37	0x3fe1296cdd5cfcf5	0.5363067935467415
38	0x3fe142cc38454a38	0.5394040202175523
39	0x3fe126ef197e8eec	0.536002683442772
40	0x3fe10f436da3fbcc	0.5331132069985585
41	0x3fe0f9e49f91e2cf	0.5305045239066092
42	0x3fe0d81707ea2a1b	0.5263781694969255
43	0x3fe0b0a6975dd6b3	0.5215638119104454
44	0x3fe0ad91ed683d34	0.5211877476557789
45	0x3fe0b6d28ceeab71	0.5223171951850941
46	0x3fe0939cbb39cd6b	0.5180190712693905
47	0x3fe02307fbaeab34	0.5042762675924224
48	0x3fdf1a28656bf647	0.48597154526200764
49	0x3fde5a61c000a55d	0.47426646948095713
50	0x3fddcea00ec7c8aa	0.4657364029254817
51	0x3fdd7f090f86da59	0.4608786250713926
52	0x3fdda0988f1fa67c	0.46292699791829484
53	0x3fdd5c998c238420	0.45877684293196985
54	0x3fdc4e57108b8bb0	0.44228150001270716
55	0x3fdb3091fc97da43	0.424839493439695
56	0x3fdb00c5715995f1	0.42192207402544485
57	0x3fda67f47040c33a	0.4125948997707841
58	0x3fd97abd41912c2d	0.39811641123805225
59	0x3fc6f845864e5db3	0.17945164735713845
60	0x3fc784864e78ac72	0.18373183089838424
61	0x3fc2539479aced38	0.143175658618796
62	0x3fc550a6e3f86b46	0.16652380114904924
63	0x3fc9ec291a7af29f	0.20251954834920569
64	0x3fcccb464bf9bbd8	0.22495344838850317
65	0x3fa404caf5bc38de	0.03909906625459468
66	0x3f95e6ce7f3f4092	0.02138826991705451
67	0x3fa0521d5aabe21e	0.03187648517445417
68	0x3fa12ab6f4d0d44a	0.033529012093290136
69	0x3fb0806c487cb1e1	0.06445957917885138
70	0x3fb58bd58fb056fe	0.08416495092418683
71	0x3fc210d83549ceb2	0.14113905527084608
72	0x3fcec3c295f63cc4	0.24034912416798282
73	0x3fd02af5a0e1fb2b	0.25262203894810636
74	0x3fd138af2998593a	0.2690847307398091
75	0x3fd2551ee15087d2	0.28644535067917076
76	0x3fd2ff750bda00a6	0.2968418708551418
77	0x3fd2dfb22e46afec	0.294903321448827
78	0x3fd2d44d5bbdb54c	0.2942078967960995
79	0x3fd2ac29258c9b09	0.29175785700719864
80	0x3fd37377eb69b560	0.3039226340250334
81	0x3fd443d46713ea4f	0.31663999620619604
82	0x3fd4f0821ca065cd	0.3271794585758386
83	0x3fd58be47be90437	0.3366633615551708
84	0x3fd5f043203e6365	0.34278944157408936
85	0x3fd5e357d97cb73c	0.3420009254358438
86	0x3fd5c12c44509242	0.3399153391967823
87	0x3fd5c8d030987573	0.34038166757257854
88	0x3fd69f6ab4b8297d	0.3534800305211759
89	0x3fd7f76aa33de957	0.3744761079939471
90	0x3fd8c1597d660c11	0.3868011211963572
91	0x3fd947006e1d9a21	0.3949585986469249
92	0x3fd99eb3de56f3a0	0.40031143868309904
93	0x3fda4a9d3cd52ffe	0.4108040899343449
94	0x3fdb0d230d3ba91c	0.42267681400575596
95	0x3fdbef36ca849832	0.4364754655565576
96	0x3fdc8fcaf6aff212	0.4462764176421682
97	0x3faa3f18c956c7b4	0.05126264055014876
98	0x3fa22c333e4ff01b	0.03549347053191828
99	0x3fabef9001d24499	0.0545620920394267
100	0x3fa776d76cc6761c	0.04582856371710539
101	0x3fd40de607ed5947	0.31334830068717107
102	0x3fd26acf74f51ca5	0.28776918813350455
103	0x3fd0e5b6d716e42a	0.26402064328027797
104	0x3fcd7c55e2211a64	0.23035691777677691
105	0x3fca62a88ab46e90	0.20613581440635587
106	0x3fa1914577e7ae0c	0.034311457526055106
107	0x3f8f85a372826802	0.01539161389546351
108	0x3faa508a207090d8	0.0513957180594688
109	0x3fc95152c8f38d6c	0.1977942925651449
110	0x3fc8e3ddb42d55fd	0.19445391938886294
111	0x3fcb0b8d62baed6f	0.2112900478440269
112	0x3fdf673ab647112c	0.490675619130587
113	0x3fe00121671e39b0	0.5001379980110894
114	0x3fdf4772a9d25491	0.48873583397046
115	0x3fdef7f5a197eea5	0.48388424664129054
116	0x3fdf233c10aef636	0.48652555112116447
117	0x3fdf86f3bb40fdd7	0.49261182104598106
118	0x3fdf2341c85b938f	0.48652691427405953
119	0x3fdf2ac71eac39e1	0.4869859504259733
120	0x3fdf4a9b212f4925	0.48892858734793015
121	0x3fdf5ced5118f923	0.49004681510622755
122	0x3fdf1b75a0cbc65b	0.4860509939454453
123	0x3fde561399e3b461	0.4740036967112414
124	0x3fdea40ac4e40bc5	0.47876233317964206
125	0x3fdeef7efe36140c	0.4833676798373865
126	0x3fdebca0c58ad454	0.4802629403232619
127	0x3fddfcf4d6ceb43b	0.4685642335633166
128	0x3fdd7cb2563860ee	0.46073587818092576
129	0x3fdd87e798da189f	0.46141996313998307
130	0x3fdc43cb8b01df83	0.44163788390095976
131	0x3f62752c85b591ea	0.0022531385017592236
132	0x3fdf2303157f715a	0.4865119657458955
133	0x3fdbd5f518b55204	0.43493392384451135
134	0x3fdb8ac0be459855	0.430343805134162
135	0x3fdb24fcfed7fb48	0.4241325844486039
136	0x3fd9b5c7f429d3a4	0.40172003597336414
137	0x3fccaad473c3d7de	0.22396331455791957
138	0x3fc80fcdb0df4d46	0.18798228393880317
139	0xbfd415785f281ad0	-0.31381043713228696
140	0xbfd3ba4ee79e7151	-0.30824635142359563
141	0x3fdd7165d7246491	0.46004625329948917
142	0x3fdc700412468515	0.4443369081946725
143	0x3fdbb6bcb6210fa6	0.43302839075135535
144	0x3fdb38ab590306de	0.42533382122574703
145	0x3fdb01fd9ef4f358	0.42199650309685444
146	0x3fda19ffa8424e64	0.40783683234733403
147	0x3fd9053bf4d73416	0.3909444705030308
148	0x3fd82fcf4631a45a	0.3779180703628008
149	0x3fd685d77e99cd31	0.35191905368192794
150	0x3fd4301b8b29b823	0.3154362544072475
151	0x3fd255d7f8aedfec	0.2864894798799458
152	0x3fd164d35f334e0e	0.27177891060748116
153	0x3fcfd70f930172e0	0.24875063589106272
154	0x3fcd672e870b6592	0.2297113570591987
155	0x3fcb11d33f1f684c	0.21148148138201106
156	0xbfcbcca032f9ad16	-0.2171821831610507
157	0xbfd2745357f21d77	-0.288349948772939
158	0xbfc5265de8918511	-0.16523336273079584
159	0x3fc14089b2b6bdcf	0.13478203989278234
160	0x3fcd9674c89dc625	0.2311540584155846
161	0x3fcf2533823491e6	0.24332279069598356
162	0xbfdf4ba7193500c5	-0.48899247609734814
163	0xbfe1785eea9ef2cb	-0.5459436972083379
164	0xbfea1133b8aefde0	-0.814599858007508
165	0xbfe97c91edf88429	-0.7964563033930335
166	0xbfe5a7a3f4b23180	-0.6767139224262309
167	0xbfe075452253d67a	-0.5143151922663514
168	0xbfd633f3b2c0faa8	-0.34692089516094393
169	0xbfd366a342b06d05	-0.303139510275017
170	0x3fc5d6f456b623d6	0.1706223891635818
171	0x3fba721974297c18	0.1033035191153292
172	0xbfd2a771ada42040	-0.2914699741090807
173	0xbfe3c60803afd205	-0.6179237434394628
174	0x3fe187f5dbb9c6f5	0.5478467265622543
175	0x3fd6d9f071a57c2d	0.35705195520671645
176	0x3fcb84162181a72d	0.2149684585195301
177	0x3fcab42ec8bac55f	0.20862374116181123
178	0x3fce871730d46eda	0.23849763759868986
179	0x3fd0fc223bafd364	0.2653890211943717
180	0x3fd222281ed5b611	0.2833347607728181
181	0x3fd3b4ce2f642c99	0.3079104864888876
182	0x3fd4ce8efd9807dd	0.3251073338034283
183	0x3fe44d0f1ac90223	0.6344066165111751
184	0x3fe006a2decbca51	0.5008100844846216
185	0x3fdf3b3389d7a522	0.487988361941989
186	0x3fdfe4f5fbc3fa4a	0.4983496626518088
187	0x3fc3f59999279e4d	0.1559326169801686
188	0x3fd562a86d9bb533	0.3341466017144114
189	0x3fcdb32e8a66e2e2	0.232030694560101
190	0x3fa3cac405e60c2f	0.03865635463719063
191	0x3f9803a990492078	0.023451470786568923
192	0x3fd583e24feccbda	0.33617456250357025
193	0x3fe3ec7790f60d39	0.622615607382989
194	0x3fe3f0e7a29c2086	0.6231573272680329
195	0x3fe43207f4f06a23	0.6311073097197702
196	0x3fe4213d0e049206	0.6290574334894365
197	0x3fe419de1bde14e4	0.6281576675688965
198	0x3fe430fe9221f5ed	0.6309807638314716
199	0x3fe40a0f71ff2851	0.62622806801779
200	0x3fe4677b0e9ab366	0.6376319203605874
201	0x3fe3729225855c2a	0.60773570373829
202	0x3fe503312bf8de67	0.6566396578627519
203	0x3fe521efbb3d629c	0.6603926331545895
204	0x3fe52ac7794c24c8	0.6614720696535636
205	0x3fe4a6c78db790b9	0.645358826438062
206	0x3fe415e1edfdb781	0.6276712082160288
207	0x3fe41591c5107489	0.6276329850112613
208	0x3fe3ba6b9b69c32b	0.6165063891804484
209	0x3fe389a1ed77c8f0	0.610550845913421
210	0x3fe3a2dd576aa430	0.6136309344630089
211	0x3fe31807bbd005e0	0.5966833751883165
212	0x3fe37d83de6f998c	0.6090716690494431
213	0x3fe2fbf986da1bab	0.5932586320712877
214	0x3fe2d107b99e9b12	0.5880163789159687
215	0x3fe37ca49c9b813f	0.6089652117480354
216	0x3fe105c7c3d621af	0.5319556069307988
217	0x3fe18455e0fd17d3	0.5474042314824551
218	0x3fe0ec8cd8db0d43	0.5288757548773123
219	0x3fe0fda472a0e4a4	0.5309622038686439
220	0x3fe1a3d8c1b20a23	0.5512508185495942
221	0x3fe2fc9374a952be	0.5933320311110817
222	0x3fe30cfe27d21a45	0.5953360345600421
223	0x3fe1e03eb7fff752	0.5586236566302694
224	0x3fe368f76ac65fac	0.6065632901618208
225	0x3fe36804c3616d79	0.6064475837733162
226	0x3fe549fe0e12626a	0.66528227566148
227	0x3fe565ff348cff99	0.6687007929212881
228	0x3fe5881c14494ac5	0.6728649517266027
229	0x3fe5bed571690562	0.6795451369327277
230	0x3fe598ec5c9837d5	0.6749173935402221
231	0x3fe62d6519035f44	0.6930413712061427
232	0x3fe5a711fe4d5e41	0.676644322093985
233	0x3fe6565dd369e362	0.6980427865192775
234	0x3fe6c1db5ce6e6dc	0.7111641706935319
235	0x3fe7185a0c545187	0.7217226258094777
236	0x3fe79d416313498f	0.7379462180199868
237	0x3fe7a5959f9fabd3	0.7389629476214118
238	0x3fe7d03be1e0c619	0.7441691791229373
239	0x3fe712909adabdbd	0.7210162186146857
240	0x3fe6e39039c31b4d	0.7152787330786424
241	0x3fe7423671c82864	0.7268326017667843
242	0x3fe6673b0f227108	0.7001014037701063
243	0x3fe688c2cbcd3717	0.7041944485187938
244	0x3fe6eea475a3315b	0.7166311547858116
245	0x3fe6f15f1e9d3413	0.7169643018656892
246	0x3fe58eedc04d10fe	0.6736973529700945
247	0x3fe39802d43e28cd	0.612306036507357
248	0x3fdba3e63b60ce02	0.4318786220421488
249	0x3fd7f0fa1a818d4c	0.37408306683046955
250	0x3fe699de2ed7cf2b	0.7062827029135169
251	0x3febbb740f593eb6	0.8666324901368714
252	0x3fcf60f06efd8a91	0.24514584941342268
253	0x3fd8da956fa659db	0.3883412924127733
254	0x3fd9693e89651967	0.39704860131714387
255	0x3fd92304938a00d8	0.39276232154953794

sigma f8 [5]
0	0x404dd791527b5948	59.68412238142861
1	0x405721862dd60d4a	92.52381463912494
2	0x3fdbe17e8c1244bb	0.4356380813488376
3	0x3ff5ef9998844bb7	1.3709960897146922
4	0x3feced35ac38d65a	0.9039562572203963

alpha f8 [1441]
0	0xc040e8828d4c9fb8	-33.81648412934686
1	0xc040e8828d4c9fb8	-33.81648412934686
2	0xc040e8828d4c9fb8	-33.81648412934686
3	0xc040e8828d4c9fb8	-33.81648412934686
4	0xc040e8828d4c9fb8	-33.81648412934686
5	0xc040e8828d4c9fb8	-33.81648412934686
6	0xc040e8828d4c9fb8	-33.81648412934686
7	0xc040e8828d4c9fb8	-33.81648412934686
8	0xc040e8828d4c9fb8	-33.81648412934686
9	0xc040e8828d4c9fb8	-33.81648412934686
10	0xc040e8828d4c9fb8	-33.81648412934686
11	0x3fd1585853da4b38	0.27101715267888293
12	0x4040e8828d4c9fb8	33.81648412934686
13	0x402508997b282bb7	10.516795967725427
14	0x4040e8828d4c9fb8	33.81648412934686
15	0x4040e8828d4c9fb8	33.81648412934686
16	0x4040e8828d4c9fb8	33.81648412934686
17	0x4040e8828d4c9fb8	33.81648412934686
18	0x4040e8828d4c9fb8	33.81648412934686
19	0x4040e8828d4c9fb8	33.81648412934686
20	0x4040e8828d4c9fb8	33.81648412934686
21	0x4040e8828d4c9fb8	33.81648412934686
22	0x4040e8828d4c9fb8	33.81648412934686
23	0x4040e8828d4c9fb8	33.81648412934686
24	0x402d3320d30312fc	14.599859804272903
25	0x4040e8828d4c9fb8	33.81648412934686
26	0x4040e8828d4c9fb8	33.81648412934686
27	0x403775ff4d0c11f1	23.46092683357887
28	0x4040e8828d4c9fb8	33.81648412934686
29	0x4040e8828d4c9fb8	33.81648412934686
30	0xc02e7f20fe1bb8ee	-15.248298588642196
31	0x4033af6a43f9b91b	19.685215233295008
32	0x4040e8828d4c9fb8	33.81648412934686
33	0x4040e8828d4c9fb8	33.81648412934686
34	0x4040e8828d4c9fb8	33.81648412934686
35	0x4040e8828d4c9fb8	33.81648412934686
36	0x4040e8828d4c9fb8	33.81648412934686
37	0x4040e8828d4c9fb8	33.81648412934686
38	0x4040e8828d4c9fb8	33.81648412934686
39	0x4040e8828d4c9fb8	33.81648412934686
40	0x4040e8828d4c9fb8	33.81648412934686
41	0x4040e8828d4c9fb8	33.81648412934686
42	0x4040e8828d4c9fb8	33.81648412934686
43	0x4040e8828d4c9fb8	33.81648412934686
44	0x4040e8828d4c9fb8	33.81648412934686
45	0x4040e8828d4c9fb8	33.81648412934686
46	0x4040e8828d4c9fb8	33.81648412934686
47	0x4040e8828d4c9fb8	33.81648412934686
48	0x4040e8828d4c9fb8	33.81648412934686
49	0x4040e8828d4c9fb8	33.81648412934686
50	0x4040e8828d4c9fb8	33.81648412934686
51	0x4040e8828d4c9fb8	33.81648412934686
52	0x4040e8828d4c9fb8	33.81648412934686
53	0x4040e8828d4c9fb8	33.81648412934686
54	0x4040e8828d4c9fb8	33.81648412934686
55	0x4040e8828d4c9fb8	33.81648412934686
56	0x4040e8828d4c9fb8	33.81648412934686
57	0x4040e8828d4c9fb8	33.81648412934686
58	0x40326e83842175b5	18.431694276970763
59	0xc040e8828d4c9fb8	-33.81648412934686
60	0xc040e8828d4c9fb8	-33.81648412934686
61	0xc03dc3bb98d6e50b	-29.764581253494764
62	0xc040e8828d4c9fb8	-33.81648412934686
63	0xc040e8828d4c9fb8	-33.81648412934686
64	0xc040e8828d4c9fb8	-33.81648412934686
65	0xc040e8828d4c9fb8	-33.81648412934686
66	0xc040e8828d4c9fb8	-33.81648412934686
67	0xc040e8828d4c9fb8	-33.81648412934686
68	0xc01cde3f04d58f69	-7.217037272963219
69	0xc040e8828d4c9fb8	-33.81648412934686
70	0xc040e8828d4c9fb8	-33.81648412934686
71	0xc01a311a2fb6f828	-6.547951455633701
72	0xc010c509eaf459af	-4.192420645870171
73	0xc040e8828d4c9fb8	-33.81648412934686
74	0xc040e8828d4c9fb8	-33.81648412934686
75	0xc040e8828d4c9fb8	-33.81648412934686
76	0xc02448f0bfb0a206	-10.142461767493852
77	0xc040e8828d4c9fb8	-33.81648412934686
78	0xc040e8828d4c9fb8	-33.81648412934686
79	0xc040e8828d4c9fb8	-33.81648412934686
80	0xc040e8828d4c9fb8	-33.81648412934686
81	0xc040e8828d4c9fb8	-33.81648412934686
82	0xc040e8828d4c9fb8	-33.81648412934686
83	0xc040e8828d4c9fb8	-33.81648412934686
84	0xc040e8828d4c9fb8	-33.81648412934686
85	0xc040e8828d4c9fb8	-33.81648412934686
86	0xc040e8828d4c9fb8	-33.81648412934686
87	0xc040e8828d4c9fb8	-33.81648412934686
88	0xc040e8828d4c9fb8	-33.81648412934686
89	0xc040e8828d4c9fb8	-33.81648412934686
90	0xc040e8828d4c9fb8	-33.81648412934686
91	0xc040e8828d4c9fb8	-33.81648412934686
92	0xc040e8828d4c9fb8	-33.81648412934686
93	0xc040e8828d4c9fb8	-33.81648412934686
94	0xc040e8828d4c9fb8	-33.81648412934686
95	0xc040e8828d4c9fb8	-33.81648412934686
96	0xc040e8828d4c9fb8	-33.81648412934686
97	0x4040e8828d4c9fb8	33.81648412934686
98	0x4040e8828d4c9fb8	33.81648412934686
99	0x4040e8828d4c9fb8	33.81648412934686
100	0x4008edc7f61c2f42	3.1161040522910364
101	0x402adcaf16f427b9	13.431023328117464
102	0x4040e8828d4c9fb8	33.81648412934686
103	0x4040e8828d4c9fb8	33.81648412934686
104	0x4040e8828d4c9fb8	33.81648412934686
105	0x4040e8828d4c9fb8	33.81648412934686
106	0x4040e8828d4c9fb8	33.81648412934686
107	0x403b088c671a46c4	27.03339237586512
108	0x4040e8828d4c9fb8	33.81648412934686
109	0xc0204d23b6e3121c	-8.150663104265782
110	0xc040e8828d4c9fb8	-33.81648412934686
111	0xc040e8828d4c9fb8	-33.81648412934686
112	0xc040e8828d4c9fb8	-33.81648412934686
113	0xc040e8828d4c9fb8	-33.81648412934686
114	0xc040e8828d4c9fb8	-33.81648412934686
115	0xc040e8828d4c9fb8	-33.81648412934686
116	0xc040e8828d4c9fb8	-33.81648412934686
117	0xc040e8828d4c9fb8	-33.81648412934686
118	0xc040e8828d4c9fb8	-33.81648412934686
119	0xc040e8828d4c9fb8	-33.81648412934686
120	0xc03e848fdf060b8a	-30.5178203000792
121	0xc040e8828d4c9fb8	-33.81648412934686
122	0xc040e8828d4c9fb8	-33.81648412934686
123	0xc040e8828d4c9fb8	-33.81648412934686
124	0xc040e8828d4c9fb8	-33.81648412934686
125	0xc040e8828d4c9fb8	-33.81648412934686
126	0xc040e8828d4c9fb8	-33.81648412934686
127	0xc040e8828d4c9fb8	-33.81648412934686
128	0xc040e8828d4c9fb8	-33.81648412934686
129	0xc040e8828d4c9fb8	-33.81648412934686
130	0xc040e8828d4c9fb8	-33.81648412934686
131	0xc03a5bb5a989cded	-26.358240696090366
132	0x403da37cc57ddf30	29.63862261126559
133	0x4040e8828d4c9fb8	33.81648412934686
134	0x4040e8828d4c9fb8	33.81648412934686
135	0x401a666acd56c868	6.600016792699627
136	0x4040e8828d4c9fb8	33.81648412934686
137	0x4036b4bb9c5d0e8e	22.70598771354576
138	0x402e22977b1a70fc	15.06756195733805
139	0x401fba4915a751e5	7.931919420564076
140	0x3fea738e0f443bf0	0.8266058252501107
141	0x4040e8828d4c9fb8	33.81648412934686
142	0x4040e8828d4c9fb8	33.81648412934686
143	0x4040e8828d4c9fb8	33.81648412934686
144	0x4040e8828d4c9fb8	33.81648412934686
145	0x4040e8828d4c9fb8	33.81648412934686
146	0x4040e8828d4c9fb8	33.81648412934686
147	0x4040e8828d4c9fb8	33.81648412934686
148	0x4040e8828d4c9fb8	33.81648412934686
149	0x4040e8828d4c9fb8	33.81648412934686
150	0x4040e8828d4c9fb8	33.81648412934686
151	0x4040e8828d4c9fb8	33.81648412934686
152	0x4040e8828d4c9fb8	33.81648412934686
153	0x4040e8828d4c9fb8	33.81648412934686
154	0x4040e8828d4c9fb8	33.81648412934686
155	0x4040e8828d4c9fb8	33.81648412934686
156	0xc02750dd5cb988ef	-11.65793885960417
157	0xc021db1b89f61639	-8.927944480218786
158	0xc01f829c3120834c	-7.877548949822835
159	0xc040e8828d4c9fb8	-33.81648412934686
160	0xc040e8828d4c9fb8	-33.81648412934686
161	0xc040e8828d4c9fb8	-33.81648412934686
162	0xc013d12e678f7db3	-4.954278581746098
163	0xbffdef4d10da87d2	-1.870923105082046
164	0x4009e66f69a083b9	3.237517190180793
165	0x3ff86db107bdd88b	1.526780157318657
166	0xc00b3f832399002a	-3.406011846644124
167	0xc020c9c34c2de01c	-8.394068127250698
168	0xc02305d944e1cf98	-9.511423256459054
169	0xc02c52b878763981	-14.161563648635594
170	0x403c1cf86f0344a5	28.113165796563994
171	0x3fd623e2526a273a	0.34594018982226127
172	0x402d176e62af6284	14.545764049443513
173	0x402dd21663d584ee	14.910327071966517
174	0xc03183d06d946099	-17.51489910957807
175	0xc034db6fe6830d05	-20.85717621516689
176	0xc040e8828d4c9fb8	-33.81648412934686
177	0xc028c6745718fb51	-12.387606355475926
178	0xc018edfb9f9ebd05	-6.23240518003809
179	0xc040e8828d4c9fb8	-33.81648412934686
180	0xc01a6315be24e07a	-6.596762629509721
181	0xbff882f66761d0d1	-1.5319732702601423
182	0xc040e8828d4c9fb8	-33.81648412934686
183	0xc03f0787342453a2	-31.029406794422933
184	0xc02416f83b6fc4bb	-10.044862611192334
185	0xc019a27e31d20296	-6.408684519236564
186	0xc02c32c6dd0b1c50	-14.099173457723879
187	0x403e95cc490e3142	30.585148397412247
188	0xc002c5377ce4d1ca	-2.3462972409563223
189	0xc03201dffdf54193	-18.007324097039213
190	0xc040e8828d4c9fb8	-33.81648412934686
191	0xc01b9e8d9d2c852e	-6.904837089388179
192	0xc010f1b1ff194dbf	-4.236030565184989
193	0xc040e8828d4c9fb8	-33.81648412934686
194	0xc040e8828d4c9fb8	-33.81648412934686
195	0xc040e8828d4c9fb8	-33.81648412934686
196	0xc040e8828d4c9fb8	-33.81648412934686
197	0xc040e8828d4c9fb8	-33.81648412934686
198	0xc01df0b46f890908	-7.485063307513208
199	0xc040e8828d4c9fb8	-33.81648412934686
200	0xc03e4e1f25e3dd67	-30.305162780886715
201	0xc040e8828d4c9fb8	-33.81648412934686
202	0x4038674485c09a72	24.403389319917956
203	0x4040e8828d4c9fb8	33.81648412934686
204	0x4040e8828d4c9fb8	33.81648412934686
205	0x4040e8828d4c9fb8	33.81648412934686
206	0x4040e8828d4c9fb8	33.81648412934686
207	0x4040e8828d4c9fb8	33.81648412934686
208	0x4040e8828d4c9fb8	33.81648412934686
209	0x4040e8828d4c9fb8	33.81648412934686
210	0x4038523f3f0f5609	24.321277562374267
211	0x4040e8828d4c9fb8	33.81648412934686
212	0x4040e8828d4c9fb8	33.81648412934686
213	0x403ac3d45ec089d4	26.764959260946696
214	0x4040e8828d4c9fb8	33.81648412934686
215	0x4040e8828d4c9fb8	33.81648412934686
216	0x4021ae31f18ddc19	8.840224789206376
217	0x403d168ac811484f	29.088055137843465
218	0x4040e8828d4c9fb8	33.81648412934686
219	0xbfd894063ec4ea7b	-0.38403469209485025
220	0x403cff8a0964e6cb	28.998200022825397
221	0x4030ae8026e263c4	16.681642942686963
222	0x4040e8828d4c9fb8	33.81648412934686
223	0xc040e8828d4c9fb8	-33.81648412934686
224	0xc040e8828d4c9fb8	-33.81648412934686
225	0xc040e8828d4c9fb8	-33.81648412934686
226	0xc040e8828d4c9fb8	-33.81648412934686
227	0xc040e8828d4c9fb8	-33.81648412934686
228	0xc040e8828d4c9fb8	-33.81648412934686
229	0xc040e8828d4c9fb8	-33.81648412934686
230	0xc040e8828d4c9fb8	-33.81648412934686
231	0xc040e8828d4c9fb8	-33.81648412934686
232	0xc040e8828d4c9fb8	-33.81648412934686
233	0xc040e8828d4c9fb8	-33.81648412934686
234	0xc040e8828d4c9fb8	-33.81648412934686
235	0xc040e8828d4c9fb8	-33.81648412934686
236	0xc0409714ab0638b6	-33.18031823924814
237	0xc040e8828d4c9fb8	-33.81648412934686
238	0x4040e8828d4c9fb8	33.81648412934686
239	0x4040e8828d4c9fb8	33.81648412934686
240	0x4040e8828d4c9fb8	33.81648412934686
241	0x4040e8828d4c9fb8	33.81648412934686
242	0x4039abff53e5b6be	25.671864741880874
243	0x4040e8828d4c9fb8	33.81648412934686
244	0x4040e8828d4c9fb8	33.81648412934686
245	0x4040e8828d4c9fb8	33.81648412934686
246	0x4040e8828d4c9fb8	33.81648412934686
247	0x4040e8828d4c9fb8	33.81648412934686
248	0x403c9edf7c046b9d	28.620597601966086
249	0xc039e29847a62afa	-25.885136106556253
250	0xc040e8828d4c9fb8	-33.81648412934686
251	0xc004b094d1c88798	-2.5862213506051823
252	0xc02a2e6bd6d6b260	-13.09066649790583
253	0xc040e8828d4c9fb8	-33.81648412934686
254	0xc03542cb434a1bcf	-21.260914044945647
255	0xc040e8828d4c9fb8	-33.81648412934686

mu f8 [5]
0	0xc044b542a2108508	-41.41609597975372
1	0x4052c5329feea45a	75.08121488861926
2	0xbfc88c92e0125a81	-0.19178996983528765
3	0x3fd98efc8e137fb0	0.39935220598817533
4	0xbfc2ec70bca15b9e	-0.14784058771575997

kernel_scale f8 []
0	0x3fe1eb851eb851ec	0.56
