qolo_package/src/trainedModels_Fy.npz (npz, 483178 bytes, 6 tensors)

sv (column-major) f8 [8602, 6]
000000 4c a5 35 77 ca 7c d7 3f cd b7 d3 73 5e e7 d4 3f
       0.3669916309505268 0.3266216403125071
000010 eb e7 27 d1 e3 1c d3 3f e7 b1 0b 14 66 2d d3 3f
       0.2986383001840511 0.29964591939531576
000020 9b 7c e7 93 1b 98 d3 3f 1f 0f e1 63 c4 45 d4 3f
       0.30615891879819807 0.3167582488424489
000030 35 59 5a 13 1a c4 d3 3f db 48 17 bc a1 68 d4 3f
       0.30884410753187136 0.31888621681458823
000040 5a 04 fa 79 58 6e d5 3f 96 26 da 40 5d e4 d5 3f
       0.334859961622049 0.34206324895112894
000050 9a bd be 41 35 09 d6 3f a3 ad f3 4e ee e0 d6 3f
       0.3443120138208201 0.35747869215148337
000060 2f 37 a9 60 02 41 d6 3f 8f bf f8 20 87 be d7 3f
       0.347717852015978 0.37100389690294205
000070 8a e6 77 b1 2d 22 d7 3f 5d cd 98 6b 42 81 d6 3f
       0.3614610894288509 0.35163937098987735
000080 96 8b 62 15 b6 8f d4 3f 8c b6 9f 1b f6 fa d3 3f
       0.3212714394414261 0.3121924657597013
000090 60 7a d1 fc 46 0d d0 3f 8b ed 4e 67 af 81 cc 3f
       0.25081038178715254 0.222707677310478
0000a0 3c cd 39 70 8f 9e cb 3f 25 87 64 10 6a 27 cc 3f
       0.21577637653136061 0.21995282936500718
0000b0 26 cd 4a e1 70 92 ce 3f d9 c5 cb 9c 23 8b ca 3f
       0.23884402275653221 0.20737118869833074
0000c0 9d c4 f7 c0 06 63 c8 3f da e5 9d 71 12 dd c8 3f
       0.19052204534776687 0.1942465834397769
0000d0 bf c7 7a 3f 37 0c cd 3f 32 2e a5 df a7 1c ce 3f
       0.22693529700842238 0.23524950428178354
0000e0 db bb 7d 05 09 73 cd 3f e9 8a 06 58 a0 6b cc 3f
       0.23007309692499586 0.22203449533579736
0000f0 f7 5a 57 a8 90 75 cd 3f 2d af d5 13 f1 4a cd 3f
       0.230150301168315 0.22884953945628564
000100 2b 77 4f 2b 59 26 d0 3f f3 36 b5 97 34 9d d1 3f
       0.25234059552700455 0.2752200585863271
000110 a2 65 5d 7f 00 a6 d0 3f 46 8a 50 5a c3 db d2 3f
       0.2601319545552433 0.2946632749537098
000120 21 56 22 4b 47 3d d2 3f d4 74 a2 6b 1f 5f d1 3f
       0.28499014222447455 0.2714308310622304
000130 5f 8b d9 10 d9 10 d3 3f fe 44 1f 33 0f 51 d1 3f
       0.2979033150242482 0.2705724715461456
000140 eb fc 5a 7d dc c8 d1 3f 22 c7 32 be 81 a9 d1 3f
       0.27788460008373644 0.27597087453897207
000150 01 a3 d7 9c 26 e1 d2 3f 0c bb 62 2f fc 8d d2 3f
       0.29499211613305937 0.2899160826445246
000160 b3 93 d0 11 12 ff d2 3f b2 85 d8 33 56 43 d2 3f
       0.2968182729694561 0.2853599077517074
000170 67 e1 1b 5e fa 58 d1 3f e7 d0 7a 3e f4 69 d1 3f
       0.271055786040526 0.2720919237283525
000180 c6 26 04 7a 77 7b d1 3f 80 3c fc 0d 7e cd d1 3f
       0.2731608096661201 0.2781672607970407
000190 27 e1 ee 62 0e 8e d3 3f 1b 88 cc 4f b4 35 d3 3f
       0.3055454221862583 0.3001528529440535
0001a0 9c ee 06 3e a1 8f d1 3f 45 df 35 a6 78 38 d1 3f
       0.2743914705022037 0.2690717337750253
0001b0 a8 78 48 c9 28 af d1 3f 84 10 6d 12 c1 ae d1 3f
       0.27631587654640066 0.27629114913384734
0001c0 33 9e a8 64 35 eb d1 3f 1b 1c 75 a4 27 b4 d0 3f
       0.27998099164912843 0.2609957796125301
0001d0 ad 80 73 47 87 b5 d0 3f 0e 78 77 ce 6d 5b d1 3f
       0.26107961633352766 0.271205379130948
0001e0 c6 9f 66 de 3c 81 d1 3f f3 cd 40 79 ec d3 d0 3f
       0.273513047397952 0.26293479767920686
0001f0 76 30 92 e1 3e bb d0 3f d7 80 74 cf a5 72 d1 3f
       0.26142856625006716 0.27262254008566117
000200 0c 76 80 f3 34 d5 d2 3f 65 53 09 8d bc bb d2 3f
       0.29426311282608775 0.29270852826203103
000210 3c c8 a8 c5 c3 2e d2 3f 9d bb e4 0f f7 3f d2 3f
       0.28410429289499795 0.285154119034752
000220 8b b1 5e c4 32 6c d3 3f 11 bb 55 5e 0e ec d4 3f
       0.30347890068767275 0.326907722591316
000230 c1 b4 07 af 35 52 d5 3f 7e e8 8b 94 ea c0 d5 3f
       0.33314268200667746 0.3398996782922338
000240 43 54 c6 8a 0a 44 d5 3f 78 25 1f d2 9c 85 d5 3f
       0.33227790405482355 0.3362800647706403
000250 69 71 6d a9 ca 68 d5 3f ee e4 f1 4f 4a cf d4 3f
       0.33452097459464497 0.3251519947730931
000260 13 45 2c 97 e8 7f d5 3f 96 37 2e 6f a1 3f d7 3f
       0.335931918744863 0.3632587037799281
000270 ce 81 cd 3c 01 4d d7 3f fa 78 24 95 aa 4e d6 3f
       0.36407500207681387 0.3485514122456973
000280 53 26 84 fb a9 67 d5 3f e6 2d 99 df eb d6 d6 3f
       0.3344521480763422 0.356867760045786
000290 e8 01 aa 91 88 b6 d7 3f 22 15 4e 57 41 3f d6 3f
       0.3705159590245146 0.34761079336051826
0002a0 38 ed c0 76 e2 ff d4 3f 11 d8 f6 91 a7 45 d6 3f
       0.32811795804055377 0.34800137762374656
0002b0 75 f2 7d ee 32 bd d7 3f 47 d5 54 4c d1 96 d7 3f
       0.3709227875731707 0.36858017400966897
0002c0 fb 5f 65 8f ee 0e d8 3f d3 7a 5c 1b ef 27 d8 3f
       0.37591136935725417 0.3774373786163043
0002d0 2d 29 91 2a d8 5a d7 3f 33 2d 27 1d 8f ed d7 3f
       0.36491970211922614 0.3738744530389397
0002e0 3f 89 e2 ac eb 07 d8 3f 30 d8 cc d7 a4 60 d7 3f
       0.3754834354714553 0.3652736766265461
0002f0 0a d7 2a de a1 9e d6 3f 65 c6 ac 17 ad e6 d6 3f
       0.3534321469881979 0.3578293544006555
000300 65 04 49 80 d0 41 d6 3f b5 02 33 e3 51 21 d6 3f
       0.3477669956956276 0.34578368365695705
000310 d3 80 0e de 13 28 d6 3f 9f 67 60 5c 20 3a dc 3f
       0.3461961430093769 0.4410477544894266
000320 00 80 55 37 07 1c da 3f d7 f8 b0 82 61 32 da 3f
       0.4079607048388425 0.40932500613042805
000330 02 72 b7 28 32 28 da 3f 6c 95 80 75 b5 3f da 3f
       0.40870336509922833 0.4101384780390933
000340 95 3d 57 1a 98 3c d8 3f 32 fe 3d dc f4 d6 d8 3f
       0.37869837353078967 0.38811990268729624
000350 73 cf 64 af 93 8e d8 3f 6c 55 91 71 90 31 d8 3f
       0.3837022030668244 0.3780251606998124
000360 78 df 26 12 93 b2 d7 3f 2e 30 f3 24 fd 04 d8 3f
       0.37027432224885315 0.3753044949378389
000370 43 92 96 93 b4 fd d8 3f 71 a4 9d d0 22 83 d3 3f
       0.3904849473276821 0.3048789059890345
000380 3f 8a a5 6e cb 1a d4 3f b2 41 7d e8 89 d6 d4 3f
       0.3141354160817719 0.32559440330535516
000390 ef 9e 36 08 01 37 d4 3f c3 ba bc bb 02 6c d5 3f
       0.31585717966161914 0.3347174485560737
0003a0 4d 28 a3 b2 80 f3 d5 3f 2f 80 da 4a 43 2c d6 3f
       0.34298722691585654 0.3464515906325713
0003b0 bc 14 87 30 f0 05 d7 3f a0 5b 00 54 69 3d d7 3f
       0.35973744143513975 0.363123256714454
0003c0 83 a5 76 aa fa 0e d6 3f 3b 66 37 b8 b8 6c d5 3f
       0.34466425558874664 0.33476083745845003
0003d0 14 50 29 67 be fe d5 3f 82 ef a0 92 c4 6f d6 3f
       0.3436733252940496 0.35057176894383
0003e0 97 67 b2 a6 a5 3a d7 3f 1b 80 2b 62 a0 e5 d7 3f
       0.36295453337663147 0.37339028918177214
0003f0 4c 90 29 99 76 f8 d5 3f 71 a1 ab 3e 2c c6 d4 3f
       0.3432899947858956 0.3245955097213687
000400 c8 66 e8 ce 93 1c d5 3f 87 b8 a8 1f f1 4e d6 3f
       0.32986922460405 0.348568230549866
000410 ac f1 45 8d b5 a2 d5 3f 8d a0 fb f3 60 9e d4 3f
       0.3380559806462553 0.3221666700978936
000420 00 55 4a ea d8 64 d3 3f f7 f7 f8 f6 22 fc d3 3f
       0.30303023223798675 0.31226419561778535
000430 b1 d9 76 d2 7e 76 d3 3f 6d 9a fc 89 f0 fa d1 3f
       0.30410738518858255 0.2809411380316423
000440 96 9b e9 d5 41 34 cf 3f 9e 23 e4 8a 06 8a cf 3f
       0.24378226227710503 0.2463997057132276
000450 8a ce 22 62 68 d2 d6 3f 76 d5 76 6b bd e1 d5 3f
       0.35659226974096525 0.34190307135153064
000460 ef 3b 06 f9 6f 75 d1 3f bc 0d f2 9d 77 92 d0 3f
       0.27279280966553093 0.25893965172164335
000470 20 a5 a1 67 47 71 d1 3f 38 0c de be ec f7 d0 3f
       0.27253899688965255 0.2651321281375121
000480 87 31 0f 9a a0 80 cd 3f 7c 33 99 a9 42 c9 cd 3f
       0.23048789522580312 0.2327044799916641
000490 ee 00 fd 39 14 72 d1 3f 5a ef 9b 0e 69 bd cb 3f
       0.27258783018989063 0.2167178460439299
0004a0 d7 89 18 f1 e7 66 d0 3f 99 7c 84 2d ad dc cf 3f
       0.25628088516728326 0.24892201159034213
0004b0 64 2e d4 59 0a c9 cf 3f 52 4d f2 a5 2e 12 d0 3f
       0.24832276712583046 0.25110975461685314
0004c0 77 24 c8 33 c5 17 d0 3f 79 a9 d0 96 13 00 d1 3f
       0.25145082527939827 0.26562967041049707
0004d0 8e 0f 86 88 06 f3 d0 3f 5b 00 23 0e 1a 7e cb 3f
       0.26483310062780496 0.2147858208682035
0004e0 81 a8 1f 60 05 16 cd 3f 4c dc 67 6b 8d ff ce 3f
       0.2272345275262673 0.24217384094638061
0004f0 db b5 6a 13 c4 ae cf 3f 43 00 bb de 7d 5b cb 3f
       0.24752093265617145 0.2137296044875275
000500 f5 16 37 51 4c c5 ca 3f e7 9c f6 4d 5b 7b c4 3f
       0.20914606061540267 0.1600145464592295
000510 d9 01 b8 55 64 6f c2 3f 24 f3 f5 a7 8f 9f c4 3f
       0.14402441201674668 0.16111942006309576
000520 7e a1 21 57 b6 04 c5 3f d1 a6 5f 7d 04 41 c4 3f
       0.16420630697690436 0.1582341777969334
000530 a0 1e c2 da 13 a4 c7 3f c3 93 82 85 df e4 c4 3f
       0.18469474965626365 0.16323465365453957
000540 a7 7a e6 6b 84 e6 c8 3f 3a 82 93 d8 d8 32 c5 3f
       0.1945348288399675 0.16561422896394778
000550 73 f1 99 bd e7 17 c7 3f 27 57 70 64 d6 51 c5 3f
       0.1804170299327655 0.16655998138656367
000560 3e 5e 19 ae 8d 53 c0 3f 5e 69 ea 77 e6 e7 a4 3f
       0.12754984856541002 0.04083175863088927
000570 94 24 8f c8 86 34 92 bf 10 81 71 5e 96 e4 78 3f
       -0.017778497687491582 0.00607737291201739
000580 ae 74 f7 ba 33 ba 80 3f 34 7a b4 ea 12 8d a8 bf
       0.008167652266758498 -0.047951308393966136
000590 9d 3b 39 a4 18 71 73 bf 21 7f d8 c3 a7 e6 7f 3f
       -0.0047465288694884785 0.007788329441183157
0005a0 f4 81 ea 51 59 04 ac 3f bc c5 30 0e 0c 56 c3 3f
       0.054720679521100296 0.1510634488381991
0005b0 d4 d7 d5 1a 75 49 b5 3f 7a 4e 1c 0a 51 e7 b9 3f
       0.0831521215930871 0.1011858606037154
0005c0 0c 1a 11 cf 09 1a c5 3f bb 13 e8 8e 4a c2 ba 3f
       0.16485712633785032 0.10452714909486265
0005d0 14 1a e5 12 ca e4 c1 3f 90 b5 f2 e4 5a 40 c8 3f
       0.1397945968876263 0.1894639604483186
0005e0 4e 3c a0 40 95 dc b3 3f f8 9e 2a e7 61 d5 be 3f
       0.07758457973271612 0.12044345754349794
0005f0 15 7a 19 02 b2 d5 c4 3f 79 5b 91 b3 9a cf c1 3f
       0.1627714643718298 0.13914808052023966
000600 89 8e 3e eb 3e 70 c0 3f 2e 3d 9e 5a 7d 8a c0 3f
       0.12842546927014478 0.12922636913979474
000610 75 d1 de 1f 0b c7 d1 3f ad cc 51 9f 9a 2c d1 3f
       0.2777736483797278 0.2683474117140559
000620 7b 3a fa 50 48 c7 d0 3f 2d f8 2f ed 46 dc d0 3f
       0.26216323764757704 0.2634446445734991
000630 e1 b6 b7 f1 0e 09 cc 3f b3 89 0d e7 11 87 cc 3f
       0.21902643969172345 0.22287200719718
000640 6b c5 5a 70 81 e7 cb 3f c9 a3 ed 35 f6 cc cc 3f
       0.21800249086440301 0.22500493653504197
000650 56 32 6a 7f 5c be cb 3f 2b 35 f7 41 59 3b cb 3f
       0.2167468664305427 0.21274867745379686
000660 b4 a3 ed 33 9d ff cf 3f 4b 2d cf 05 38 a4 d1 3f
       0.2499882224613238 0.2756481224757478
000670 ff 0c 65 1b 04 c7 d0 3f ec 6e b7 f6 dd f3 d1 3f
       0.26214697528139647 0.2805094632474112
000680 22 a1 75 2a ab 8e d3 3f ac bc 1d f5 da 9c d2 3f
       0.30558280130800786 0.2908236879074575
000690 98 43 64 cd 06 4c d3 3f 5a 48 be af bc 7a d8 3f
       0.30151529367236085 0.3824912754290658
0006a0 07 4b 0e 70 74 8c d9 3f c1 f4 58 01 c4 1f db 3f
       0.39919768279030204 0.4238138211401968
0006b0 3d 83 1f 4b 07 f4 e1 3f 64 ce 99 a1 82 35 df 3f
       0.5610386340377783 0.48764100819901146
0006c0 d9 b4 e7 c6 b5 63 de 3f b9 46 85 9f d8 d8 da 3f
       0.47483581947638026 0.4194852407282315
0006d0 db 22 4a 5b f8 ea d8 3f 35 d5 31 ab b6 48 d8 3f
       0.38934143939017724 0.37943808286884756
0006e0 76 ae 6a 3f bf 4c e0 3f 9a 47 75 97 69 81 ca 3f
       0.5093685377700712 0.20707435508171274
0006f0 df e0 27 98 f6 ae d5 3f c1 9a 70 f3 a3 02 d5 3f
       0.3388039098640671 0.328286159261932
000700 33 16 e0 ea c1 b8 d7 3f 46 cf be 42 14 0a d9 3f
       0.3706517022804718 0.39124018209553346
000710 9c 7f b2 be 9c a9 ec 3f eb a8 e2 f5 23 3c db 3f
       0.8957046246105054 0.425545683023883
000720 ed 34 01 02 3e c1 d9 3f 8b 25 96 bf 03 f8 d6 3f
       0.40241956897518955 0.3588876124345794
000730 09 4c 97 a9 a0 35 d6 3f 65 ac b1 c6 d5 22 d7 3f
       0.3470231681978367 0.36150116351809053
000740 c3 d2 0f 38 6e 23 d7 3f 10 e7 9f 79 85 33 db 3f
       0.36153750872408014 0.42501961591152426
000750 eb 96 99 d5 dc 12 cd 3f 00 df d4 56 d9 e9 d5 3f
       0.22713814191518308 0.342398009106077
000760 56 8f c6 9c 31 19 d9 3f cb 77 45 19 c1 e9 d3 3f
       0.39216270742530435 0.31114222972780387
000770 b2 85 63 8c 71 63 d2 3f 35 56 84 52 b7 62 d4 3f
       0.28731955251540875 0.318525152762365
000780 36 18 c4 db 3b 02 84 3f 8d 2b 8a fa bc c0 56 bf
       0.009769885677553086 -0.001388725804789745
000790 d4 9b 73 2a 89 ad b7 3f b8 40 68 bd 7e 3e a6 bf
       0.09249169622817927 -0.04344554960346286
0007a0 1d 7a 5f b4 e8 6a c5 bf ea 71 8d 5e f2 a2 b7 bf
       -0.16732510382912916 -0.0923301201668846
0007b0 d6 8b 93 4a 09 bb b6 3f b4 2a ec 92 7e f3 c1 3f
       0.08879144736015063 0.14024336027099127
0007c0 1a ac d0 b5 c6 e0 c8 3f 5c da 53 6d 59 76 ca 3f
       0.1943596256035967 0.206736734755128
0007d0 72 08 c3 c7 2d b7 ca 3f d6 47 2a 16 a5 78 ca 3f
       0.2087151742362639 0.20680678922923218
0007e0 ff 07 54 13 f5 7b ca 3f 79 ef e6 9e 85 c2 cb 3f
       0.20690787738573133 0.21687383898631277
0007f0 f3 89 1b 46 49 ef cb 3f 67 ad 38 9b de 11 c8 3f
       0.21823993609639522 0.1880453355710003

alpha f8 [8602]
000000 37 04 c5 d0 a9 3d 45 c0 37 04 c5 d0 a9 3d 45 c0
       -42.48174485797829 -42.48174485797829
000010 37 04 c5 d0 a9 3d 45 c0 37 04 c5 d0 a9 3d 45 c0
       -42.48174485797829 -42.48174485797829
000020 37 04 c5 d0 a9 3d 45 c0 37 04 c5 d0 a9 3d 45 c0
       -42.48174485797829 -42.48174485797829
000030 37 04 c5 d0 a9 3d 45 c0 37 04 c5 d0 a9 3d 45 c0
       -42.48174485797829 -42.48174485797829
000040 37 04 c5 d0 a9 3d 45 c0 37 04 c5 d0 a9 3d 45 c0
       -42.48174485797829 -42.48174485797829
000050 37 04 c5 d0 a9 3d 45 c0 37 04 c5 d0 a9 3d 45 c0
       -42.48174485797829 -42.48174485797829
000060 37 04 c5 d0 a9 3d 45 c0 37 04 c5 d0 a9 3d 45 c0
       -42.48174485797829 -42.48174485797829
000070 37 04 c5 d0 a9 3d 45 c0 37 04 c5 d0 a9 3d 45 c0
       -42.48174485797829 -42.48174485797829
000080 1e 42 27 4e 70 ad 2b c0 37 04 c5 d0 a9 3d 45 40
       -13.83874744633891 42.48174485797829
000090 37 04 c5 d0 a9 3d 45 40 37 04 c5 d0 a9 3d 45 c0
       42.48174485797829 -42.48174485797829
0000a0 37 04 c5 d0 a9 3d 45 40 37 04 c5 d0 a9 3d 45 40
       42.48174485797829 42.48174485797829
0000b0 37 04 c5 d0 a9 3d 45 40 37 04 c5 d0 a9 3d 45 40
       42.48174485797829 42.48174485797829
0000c0 37 04 c5 d0 a9 3d 45 40 37 04 c5 d0 a9 3d 45 40
       42.48174485797829 42.48174485797829
0000d0 37 04 c5 d0 a9 3d 45 40 37 04 c5 d0 a9 3d 45 40
       42.48174485797829 42.48174485797829
0000e0 37 04 c5 d0 a9 3d 45 40 37 04 c5 d0 a9 3d 45 40
       42.48174485797829 42.48174485797829
0000f0 34 e0 fb d8 9c cb 3d 40 37 04 c5 d0 a9 3d 45 40
       29.795362054341425 42.48174485797829
000100 37 04 c5 d0 a9 3d 45 40 37 04 c5 d0 a9 3d 45 c0
       42.48174485797829 -42.48174485797829
000110 37 04 c5 d0 a9 3d 45 c0 37 04 c5 d0 a9 3d 45 c0
       -42.48174485797829 -42.48174485797829
000120 37 04 c5 d0 a9 3d 45 c0 37 04 c5 d0 a9 3d 45 c0
       -42.48174485797829 -42.48174485797829
000130 37 04 c5 d0 a9 3d 45 c0 69 15 41 01 3e b9 3b c0
       -42.48174485797829 -27.723602369679984
000140 37 04 c5 d0 a9 3d 45 c0 37 04 c5 d0 a9 3d 45 c0
       -42.48174485797829 -42.48174485797829
000150 37 04 c5 d0 a9 3d 45 c0 37 04 c5 d0 a9 3d 45 c0
       -42.48174485797829 -42.48174485797829
000160 37 04 c5 d0 a9 3d 45 c0 37 04 c5 d0 a9 3d 45 c0
       -42.48174485797829 -42.48174485797829
000170 37 04 c5 d0 a9 3d 45 c0 37 04 c5 d0 a9 3d 45 c0
       -42.48174485797829 -42.48174485797829
000180 37 04 c5 d0 a9 3d 45 c0 37 04 c5 d0 a9 3d 45 c0
       -42.48174485797829 -42.48174485797829
000190 37 04 c5 d0 a9 3d 45 c0 37 04 c5 d0 a9 3d 45 c0
       -42.48174485797829 -42.48174485797829
0001a0 37 04 c5 d0 a9 3d 45 c0 37 04 c5 d0 a9 3d 45 c0
       -42.48174485797829 -42.48174485797829
0001b0 37 04 c5 d0 a9 3d 45 c0 37 04 c5 d0 a9 3d 45 c0
       -42.48174485797829 -42.48174485797829
0001c0 37 04 c5 d0 a9 3d 45 c0 37 04 c5 d0 a9 3d 45 c0
       -42.48174485797829 -42.48174485797829
0001d0 37 04 c5 d0 a9 3d 45 c0 37 04 c5 d0 a9 3d 45 c0
       -42.48174485797829 -42.48174485797829
0001e0 37 04 c5 d0 a9 3d 45 c0 37 04 c5 d0 a9 3d 45 c0
       -42.48174485797829 -42.48174485797829
0001f0 37 04 c5 d0 a9 3d 45 c0 37 04 c5 d0 a9 3d 45 c0
       -42.48174485797829 -42.48174485797829
000200 37 04 c5 d0 a9 3d 45 c0 37 04 c5 d0 a9 3d 45 c0
       -42.48174485797829 -42.48174485797829
000210 37 04 c5 d0 a9 3d 45 c0 37 04 c5 d0 a9 3d 45 c0
       -42.48174485797829 -42.48174485797829
000220 37 04 c5 d0 a9 3d 45 c0 37 04 c5 d0 a9 3d 45 c0
       -42.48174485797829 -42.48174485797829
000230 37 04 c5 d0 a9 3d 45 c0 37 04 c5 d0 a9 3d 45 c0
       -42.48174485797829 -42.48174485797829
000240 37 04 c5 d0 a9 3d 45 c0 37 04 c5 d0 a9 3d 45 c0
       -42.48174485797829 -42.48174485797829
000250 37 04 c5 d0 a9 3d 45 c0 37 04 c5 d0 a9 3d 45 c0
       -42.48174485797829 -42.48174485797829
000260 37 04 c5 d0 a9 3d 45 c0 37 04 c5 d0 a9 3d 45 c0
       -42.48174485797829 -42.48174485797829
000270 37 04 c5 d0 a9 3d 45 c0 37 04 c5 d0 a9 3d 45 c0
       -42.48174485797829 -42.48174485797829
000280 37 04 c5 d0 a9 3d 45 c0 37 04 c5 d0 a9 3d 45 c0
       -42.48174485797829 -42.48174485797829
000290 37 04 c5 d0 a9 3d 45 c0 37 04 c5 d0 a9 3d 45 c0
       -42.48174485797829 -42.48174485797829
0002a0 37 04 c5 d0 a9 3d 45 c0 37 04 c5 d0 a9 3d 45 c0
       -42.48174485797829 -42.48174485797829
0002b0 37 04 c5 d0 a9 3d 45 c0 37 04 c5 d0 a9 3d 45 c0
       -42.48174485797829 -42.48174485797829
0002c0 37 04 c5 d0 a9 3d 45 c0 37 04 c5 d0 a9 3d 45 c0
       -42.48174485797829 -42.48174485797829
0002d0 37 04 c5 d0 a9 3d 45 c0 37 04 c5 d0 a9 3d 45 c0
       -42.48174485797829 -42.48174485797829
0002e0 37 04 c5 d0 a9 3d 45 c0 37 04 c5 d0 a9 3d 45 c0
       -42.48174485797829 -42.48174485797829
0002f0 37 04 c5 d0 a9 3d 45 c0 37 04 c5 d0 a9 3d 45 c0
       -42.48174485797829 -42.48174485797829
000300 37 04 c5 d0 a9 3d 45 c0 41 d0 95 1a 88 ff 20 c0
       -42.48174485797829 -8.499085264957218
000310 37 04 c5 d0 a9 3d 45 c0 37 04 c5 d0 a9 3d 45 40
       -42.48174485797829 42.48174485797829
000320 37 04 c5 d0 a9 3d 45 40 57 ed 05 59 a9 49 fa 3f
       42.48174485797829 1.64298376822156
000330 37 04 c5 d0 a9 3d 45 40 37 04 c5 d0 a9 3d 45 40
       42.48174485797829 42.48174485797829
000340 37 04 c5 d0 a9 3d 45 40 37 04 c5 d0 a9 3d 45 40
       42.48174485797829 42.48174485797829
000350 37 04 c5 d0 a9 3d 45 40 37 04 c5 d0 a9 3d 45 40
       42.48174485797829 42.48174485797829
000360 37 04 c5 d0 a9 3d 45 40 37 04 c5 d0 a9 3d 45 40
       42.48174485797829 42.48174485797829
000370 37 04 c5 d0 a9 3d 45 40 37 04 c5 d0 a9 3d 45 40
       42.48174485797829 42.48174485797829
000380 37 04 c5 d0 a9 3d 45 40 37 04 c5 d0 a9 3d 45 40
       42.48174485797829 42.48174485797829
000390 37 04 c5 d0 a9 3d 45 40 37 04 c5 d0 a9 3d 45 40
       42.48174485797829 42.48174485797829
0003a0 37 04 c5 d0 a9 3d 45 40 37 04 c5 d0 a9 3d 45 40
       42.48174485797829 42.48174485797829
0003b0 37 04 c5 d0 a9 3d 45 40 37 04 c5 d0 a9 3d 45 40
       42.48174485797829 42.48174485797829
0003c0 37 04 c5 d0 a9 3d 45 40 37 04 c5 d0 a9 3d 45 40
       42.48174485797829 42.48174485797829
0003d0 37 04 c5 d0 a9 3d 45 40 37 04 c5 d0 a9 3d 45 40
       42.48174485797829 42.48174485797829
0003e0 37 04 c5 d0 a9 3d 45 40 37 04 c5 d0 a9 3d 45 40
       42.48174485797829 42.48174485797829
0003f0 37 04 c5 d0 a9 3d 45 40 37 04 c5 d0 a9 3d 45 40
       42.48174485797829 42.48174485797829
000400 37 04 c5 d0 a9 3d 45 40 37 04 c5 d0 a9 3d 45 40
       42.48174485797829 42.48174485797829
000410 37 04 c5 d0 a9 3d 45 40 37 04 c5 d0 a9 3d 45 40
       42.48174485797829 42.48174485797829
000420 37 04 c5 d0 a9 3d 45 40 37 04 c5 d0 a9 3d 45 40
       42.48174485797829 42.48174485797829
000430 37 04 c5 d0 a9 3d 45 40 37 04 c5 d0 a9 3d 45 40
       42.48174485797829 42.48174485797829
000440 37 04 c5 d0 a9 3d 45 40 37 04 c5 d0 a9 3d 45 40
       42.48174485797829 42.48174485797829
000450 37 04 c5 d0 a9 3d 45 c0 37 04 c5 d0 a9 3d 45 c0
       -42.48174485797829 -42.48174485797829
000460 37 04 c5 d0 a9 3d 45 40 37 04 c5 d0 a9 3d 45 40
       42.48174485797829 42.48174485797829
000470 37 04 c5 d0 a9 3d 45 40 37 04 c5 d0 a9 3d 45 40
       42.48174485797829 42.48174485797829
000480 37 04 c5 d0 a9 3d 45 40 37 04 c5 d0 a9 3d 45 40
       42.48174485797829 42.48174485797829
000490 37 04 c5 d0 a9 3d 45 40 37 04 c5 d0 a9 3d 45 40
       42.48174485797829 42.48174485797829
0004a0 37 04 c5 d0 a9 3d 45 40 37 04 c5 d0 a9 3d 45 40
       42.48174485797829 42.48174485797829
0004b0 37 04 c5 d0 a9 3d 45 40 37 04 c5 d0 a9 3d 45 40
       42.48174485797829 42.48174485797829
0004c0 37 04 c5 d0 a9 3d 45 40 37 04 c5 d0 a9 3d 45 40
       42.48174485797829 42.48174485797829
0004d0 37 04 c5 d0 a9 3d 45 c0 37 04 c5 d0 a9 3d 45 40
       -42.48174485797829 42.48174485797829
0004e0 37 04 c5 d0 a9 3d 45 40 37 04 c5 d0 a9 3d 45 40
       42.48174485797829 42.48174485797829
0004f0 37 04 c5 d0 a9 3d 45 40 37 04 c5 d0 a9 3d 45 40
       42.48174485797829 42.48174485797829
000500 37 04 c5 d0 a9 3d 45 40 37 04 c5 d0 a9 3d 45 40
       42.48174485797829 42.48174485797829
000510 37 04 c5 d0 a9 3d 45 40 37 04 c5 d0 a9 3d 45 40
       42.48174485797829 42.48174485797829
000520 37 04 c5 d0 a9 3d 45 40 37 04 c5 d0 a9 3d 45 40
       42.48174485797829 42.48174485797829
000530 37 04 c5 d0 a9 3d 45 40 37 04 c5 d0 a9 3d 45 40
       42.48174485797829 42.48174485797829
000540 16 5e df d7 6b 0c 45 c0 37 04 c5 d0 a9 3d 45 40
       -42.09704111487024 42.48174485797829
000550 37 04 c5 d0 a9 3d 45 40 37 04 c5 d0 a9 3d 45 40
       42.48174485797829 42.48174485797829
000560 37 04 c5 d0 a9 3d 45 40 37 04 c5 d0 a9 3d 45 40
       42.48174485797829 42.48174485797829
000570 37 04 c5 d0 a9 3d 45 40 37 04 c5 d0 a9 3d 45 40
       42.48174485797829 42.48174485797829
000580 37 04 c5 d0 a9 3d 45 40 37 04 c5 d0 a9 3d 45 40
       42.48174485797829 42.48174485797829
000590 37 04 c5 d0 a9 3d 45 40 37 04 c5 d0 a9 3d 45 40
       42.48174485797829 42.48174485797829
0005a0 37 04 c5 d0 a9 3d 45 40 37 04 c5 d0 a9 3d 45 40
       42.48174485797829 42.48174485797829
0005b0 37 04 c5 d0 a9 3d 45 40 37 04 c5 d0 a9 3d 45 40
       42.48174485797829 42.48174485797829
0005c0 37 04 c5 d0 a9 3d 45 40 37 04 c5 d0 a9 3d 45 40
       42.48174485797829 42.48174485797829
0005d0 37 04 c5 d0 a9 3d 45 40 37 04 c5 d0 a9 3d 45 40
       42.48174485797829 42.48174485797829
0005e0 37 04 c5 d0 a9 3d 45 40 37 04 c5 d0 a9 3d 45 40
       42.48174485797829 42.48174485797829
0005f0 37 04 c5 d0 a9 3d 45 40 37 04 c5 d0 a9 3d 45 40
       42.48174485797829 42.48174485797829
000600 37 04 c5 d0 a9 3d 45 40 90 08 01 9c fb 7e 0b 40
       42.48174485797829 3.4370033443274863
000610 37 04 c5 d0 a9 3d 45 c0 37 04 c5 d0 a9 3d 45 c0
       -42.48174485797829 -42.48174485797829
000620 37 04 c5 d0 a9 3d 45 c0 37 04 c5 d0 a9 3d 45 c0
       -42.48174485797829 -42.48174485797829
000630 37 04 c5 d0 a9 3d 45 c0 37 04 c5 d0 a9 3d 45 c0
       -42.48174485797829 -42.48174485797829
000640 37 04 c5 d0 a9 3d 45 c0 32 bf f4 76 b3 b5 37 c0
       -42.48174485797829 -23.70976966357484
000650 37 04 c5 d0 a9 3d 45 c0 37 04 c5 d0 a9 3d 45 c0
       -42.48174485797829 -42.48174485797829
000660 37 04 c5 d0 a9 3d 45 c0 37 04 c5 d0 a9 3d 45 c0
       -42.48174485797829 -42.48174485797829
000670 37 04 c5 d0 a9 3d 45 c0 90 be f9 4b a3 0f 3c 40
       -42.48174485797829 28.06108546111369
000680 37 04 c5 d0 a9 3d 45 40 37 04 c5 d0 a9 3d 45 40
       42.48174485797829 42.48174485797829
000690 37 04 c5 d0 a9 3d 45 40 4c fe d2 85 5b df 31 40
       42.48174485797829 17.87249027634816
0006a0 37 04 c5 d0 a9 3d 45 40 37 04 c5 d0 a9 3d 45 c0
       42.48174485797829 -42.48174485797829
0006b0 37 04 c5 d0 a9 3d 45 c0 37 04 c5 d0 a9 3d 45 40
       -42.48174485797829 42.48174485797829
0006c0 37 04 c5 d0 a9 3d 45 c0 37 04 c5 d0 a9 3d 45 c0
       -42.48174485797829 -42.48174485797829
0006d0 37 04 c5 d0 a9 3d 45 c0 7c f4 f7 aa 4e 3e fd bf
       -42.48174485797829 -1.8277117422542508
0006e0 ce f9 4f 05 c8 cf 31 c0 88 36 ca 84 47 bd 21 40
       -17.81164582445654 8.869686269458967
0006f0 37 04 c5 d0 a9 3d 45 40 37 04 c5 d0 a9 3d 45 40
       42.48174485797829 42.48174485797829
000700 37 04 c5 d0 a9 3d 45 40 37 04 c5 d0 a9 3d 45 40
       42.48174485797829 42.48174485797829
000710 b4 f9 d3 29 1c a5 3c 40 37 04 c5 d0 a9 3d 45 c0
       28.644960989238555 -42.48174485797829
000720 37 04 c5 d0 a9 3d 45 c0 5d 9f f0 f8 18 01 35 c0
       -42.48174485797829 -21.0042872989137
000730 37 04 c5 d0 a9 3d 45 c0 37 04 c5 d0 a9 3d 45 40
       -42.48174485797829 42.48174485797829
000740 37 04 c5 d0 a9 3d 45 40 37 04 c5 d0 a9 3d 45 40
       42.48174485797829 42.48174485797829
000750 e0 7f e5 3f 64 64 0d 40 53 c4 4d ba ad da 3b 40
       3.6740193359291737 27.854213375078256
000760 37 04 c5 d0 a9 3d 45 40 ff 82 84 8e e2 42 44 40
       42.48174485797829 40.52253896208094
000770 ea a4 10 30 07 ec 3a c0 67 5b 36 0a 0b bc 3f c0
       -26.921984676421665 -31.73454345538212
000780 eb a9 30 4f 95 51 3d 40 37 04 c5 d0 a9 3d 45 40
       29.31868452966766 42.48174485797829
000790 37 f1 0d f8 e2 be 40 c0 37 04 c5 d0 a9 3d 45 c0
       -33.49130154305242 -42.48174485797829
0007a0 0a 51 82 09 57 90 fc 3f 20 10 1a 51 e4 20 40 40
       1.7852392550894955 32.25696767590148
0007b0 5d 39 06 52 a4 3b 3d 40 37 04 c5 d0 a9 3d 45 40
       29.232976080436277 42.48174485797829
0007c0 37 04 c5 d0 a9 3d 45 40 37 04 c5 d0 a9 3d 45 40
       42.48174485797829 42.48174485797829
0007d0 37 04 c5 d0 a9 3d 45 40 37 04 c5 d0 a9 3d 45 c0
       42.48174485797829 -42.48174485797829
0007e0 37 04 c5 d0 a9 3d 45 c0 37 04 c5 d0 a9 3d 45 c0
       -42.48174485797829 -42.48174485797829
0007f0 0e e8 de cd 0c bc 42 c0 37 04 c5 d0 a9 3d 45 c0
       -37.46914075264077 -42.48174485797829

mu f8 [6]
000000 7e d8 a3 3d 2d b0 20 c0 1d 7d a5 39 6b a3 42 40
       -8.344095159769719 37.27670975285057
000010 2c 1d ab 87 b8 97 e2 3f 1a c1 9a b9 7c c2 a7 3f
       0.5810206079267224 0.04640569463424722
000020 92 01 65 4b cc 91 a1 3f f6 4d db 25 22 37 be 3f
       0.03431547565787975 0.11802876877054999

bias f8 []
000000 bc 6d 15 76 91 3b 52 40
       72.93075325100557

kernel_scale f8 []
000000 85 eb 51 b8 1e 85 e3 3f
       0.61

sigma f8 [6]
000000 1e 3a 8b 53 c0 a0 34 40 cb 37 7e 6b 11 fd 48 40
       20.627934667101833 49.977094112996916
000010 6b 05 f1 78 8a c6 10 40 dc 3f 51 59 ce a9 cc 3f
       4.193887605391278 0.22393206940841892
000020 20 e6 72 bb d8 35 e3 3f b7 74 71 99 76 25 e5 3f
       0.6003230725393145 0.6608231541573762
