qolo_package/src/trainedModels_Fy.npz (npz, 526474 bytes, 6 tensors)

mu f8 [4]
000000 7e d8 a3 3d 2d b0 20 c0 1d 7d a5 39 6b a3 42 40
       -8.344095159769719 37.27670975285057
000010 1a c1 9a b9 7c c2 a7 3f f6 4d db 25 22 37 be 3f
       0.04640569463424722 0.11802876877054999

bias f8 []
000000 a7 db 1b 27 28 0c 53 40
       76.18995073051939

kernel_scale f8 []
000000 00 00 00 00 00 00 e0 3f
       0.5

sigma f8 [4]
000000 1e 3a 8b 53 c0 a0 34 40 cb 37 7e 6b 11 fd 48 40
       20.627934667101833 49.977094112996916
000010 dc 3f 51 59 ce a9 cc 3f b7 74 71 99 76 25 e5 3f
       0.22393206940841892 0.6608231541573762

alpha f8 [13126]
000000 37 04 c5 d0 a9 3d 45 c0 37 04 c5 d0 a9 3d 45 c0
       -42.48174485797829 -42.48174485797829
000010 37 04 c5 d0 a9 3d 45 c0 37 04 c5 d0 a9 3d 45 c0
       -42.48174485797829 -42.48174485797829
000020 37 04 c5 d0 a9 3d 45 c0 37 04 c5 d0 a9 3d 45 c0
       -42.48174485797829 -42.48174485797829
000030 37 04 c5 d0 a9 3d 45 40 37 04 c5 d0 a9 3d 45 40
       42.48174485797829 42.48174485797829
000040 37 04 c5 d0 a9 3d 45 40 37 04 c5 d0 a9 3d 45 40
       42.48174485797829 42.48174485797829
000050 37 04 c5 d0 a9 3d 45 40 37 04 c5 d0 a9 3d 45 40
       42.48174485797829 42.48174485797829
000060 37 04 c5 d0 a9 3d 45 40 37 04 c5 d0 a9 3d 45 40
       42.48174485797829 42.48174485797829
000070 37 04 c5 d0 a9 3d 45 40 37 04 c5 d0 a9 3d 45 40
       42.48174485797829 42.48174485797829
000080 37 04 c5 d0 a9 3d 45 40 37 04 c5 d0 a9 3d 45 40
       42.48174485797829 42.48174485797829
000090 37 04 c5 d0 a9 3d 45 40 37 04 c5 d0 a9 3d 45 40
       42.48174485797829 42.48174485797829
0000a0 37 04 c5 d0 a9 3d 45 40 37 04 c5 d0 a9 3d 45 40
       42.48174485797829 42.48174485797829
0000b0 37 04 c5 d0 a9 3d 45 40 37 04 c5 d0 a9 3d 45 40
       42.48174485797829 42.48174485797829
0000c0 37 04 c5 d0 a9 3d 45 40 37 04 c5 d0 a9 3d 45 40
       42.48174485797829 42.48174485797829
0000d0 37 04 c5 d0 a9 3d 45 40 37 04 c5 d0 a9 3d 45 40
       42.48174485797829 42.48174485797829
0000e0 37 04 c5 d0 a9 3d 45 40 37 04 c5 d0 a9 3d 45 40
       42.48174485797829 42.48174485797829
0000f0 37 04 c5 d0 a9 3d 45 40 37 04 c5 d0 a9 3d 45 40
       42.48174485797829 42.48174485797829
000100 37 04 c5 d0 a9 3d 45 40 37 04 c5 d0 a9 3d 45 40
       42.48174485797829 42.48174485797829
000110 37 04 c5 d0 a9 3d 45 40 37 04 c5 d0 a9 3d 45 40
       42.48174485797829 42.48174485797829
000120 37 04 c5 d0 a9 3d 45 40 37 04 c5 d0 a9 3d 45 c0
       42.48174485797829 -42.48174485797829
000130 37 04 c5 d0 a9 3d 45 c0 37 04 c5 d0 a9 3d 45 c0
       -42.48174485797829 -42.48174485797829
000140 37 04 c5 d0 a9 3d 45 c0 37 04 c5 d0 a9 3d 45 c0
       -42.48174485797829 -42.48174485797829
000150 37 04 c5 d0 a9 3d 45 c0 37 04 c5 d0 a9 3d 45 c0
       -42.48174485797829 -42.48174485797829
000160 37 04 c5 d0 a9 3d 45 c0 37 04 c5 d0 a9 3d 45 c0
       -42.48174485797829 -42.48174485797829
000170 37 04 c5 d0 a9 3d 45 c0 37 04 c5 d0 a9 3d 45 c0
       -42.48174485797829 -42.48174485797829
000180 37 04 c5 d0 a9 3d 45 c0 37 04 c5 d0 a9 3d 45 c0
       -42.48174485797829 -42.48174485797829
000190 37 04 c5 d0 a9 3d 45 c0 37 04 c5 d0 a9 3d 45 c0
       -42.48174485797829 -42.48174485797829
0001a0 37 04 c5 d0 a9 3d 45 c0 37 04 c5 d0 a9 3d 45 c0
       -42.48174485797829 -42.48174485797829
0001b0 37 04 c5 d0 a9 3d 45 c0 37 04 c5 d0 a9 3d 45 c0
       -42.48174485797829 -42.48174485797829
0001c0 37 04 c5 d0 a9 3d 45 c0 37 04 c5 d0 a9 3d 45 c0
       -42.48174485797829 -42.48174485797829
0001d0 37 04 c5 d0 a9 3d 45 c0 37 04 c5 d0 a9 3d 45 c0
       -42.48174485797829 -42.48174485797829
0001e0 37 04 c5 d0 a9 3d 45 c0 37 04 c5 d0 a9 3d 45 c0
       -42.48174485797829 -42.48174485797829
0001f0 37 04 c5 d0 a9 3d 45 c0 37 04 c5 d0 a9 3d 45 c0
       -42.48174485797829 -42.48174485797829
000200 37 04 c5 d0 a9 3d 45 c0 37 04 c5 d0 a9 3d 45 c0
       -42.48174485797829 -42.48174485797829
000210 37 04 c5 d0 a9 3d 45 c0 37 04 c5 d0 a9 3d 45 c0
       -42.48174485797829 -42.48174485797829
000220 37 04 c5 d0 a9 3d 45 c0 37 04 c5 d0 a9 3d 45 c0
       -42.48174485797829 -42.48174485797829
000230 37 04 c5 d0 a9 3d 45 c0 37 04 c5 d0 a9 3d 45 c0
       -42.48174485797829 -42.48174485797829
000240 37 04 c5 d0 a9 3d 45 c0 37 04 c5 d0 a9 3d 45 c0
       -42.48174485797829 -42.48174485797829
000250 37 04 c5 d0 a9 3d 45 c0 37 04 c5 d0 a9 3d 45 c0
       -42.48174485797829 -42.48174485797829
000260 37 04 c5 d0 a9 3d 45 c0 37 04 c5 d0 a9 3d 45 c0
       -42.48174485797829 -42.48174485797829
000270 37 04 c5 d0 a9 3d 45 c0 37 04 c5 d0 a9 3d 45 c0
       -42.48174485797829 -42.48174485797829
000280 37 04 c5 d0 a9 3d 45 c0 37 04 c5 d0 a9 3d 45 c0
       -42.48174485797829 -42.48174485797829
000290 37 04 c5 d0 a9 3d 45 c0 37 04 c5 d0 a9 3d 45 c0
       -42.48174485797829 -42.48174485797829
0002a0 37 04 c5 d0 a9 3d 45 c0 37 04 c5 d0 a9 3d 45 c0
       -42.48174485797829 -42.48174485797829
0002b0 37 04 c5 d0 a9 3d 45 c0 37 04 c5 d0 a9 3d 45 c0
       -42.48174485797829 -42.48174485797829
0002c0 37 04 c5 d0 a9 3d 45 c0 37 04 c5 d0 a9 3d 45 c0
       -42.48174485797829 -42.48174485797829
0002d0 37 04 c5 d0 a9 3d 45 c0 37 04 c5 d0 a9 3d 45 c0
       -42.48174485797829 -42.48174485797829
0002e0 37 04 c5 d0 a9 3d 45 c0 37 04 c5 d0 a9 3d 45 c0
       -42.48174485797829 -42.48174485797829
0002f0 37 04 c5 d0 a9 3d 45 c0 37 04 c5 d0 a9 3d 45 c0
       -42.48174485797829 -42.48174485797829
000300 37 04 c5 d0 a9 3d 45 c0 37 04 c5 d0 a9 3d 45 c0
       -42.48174485797829 -42.48174485797829
000310 37 04 c5 d0 a9 3d 45 c0 37 04 c5 d0 a9 3d 45 c0
       -42.48174485797829 -42.48174485797829
000320 37 04 c5 d0 a9 3d 45 c0 37 04 c5 d0 a9 3d 45 c0
       -42.48174485797829 -42.48174485797829
000330 37 04 c5 d0 a9 3d 45 c0 37 04 c5 d0 a9 3d 45 c0
       -42.48174485797829 -42.48174485797829
000340 37 04 c5 d0 a9 3d 45 c0 37 04 c5 d0 a9 3d 45 c0
       -42.48174485797829 -42.48174485797829
000350 37 04 c5 d0 a9 3d 45 c0 37 04 c5 d0 a9 3d 45 c0
       -42.48174485797829 -42.48174485797829
000360 37 04 c5 d0 a9 3d 45 c0 37 04 c5 d0 a9 3d 45 c0
       -42.48174485797829 -42.48174485797829
000370 37 04 c5 d0 a9 3d 45 c0 37 04 c5 d0 a9 3d 45 40
       -42.48174485797829 42.48174485797829
000380 37 04 c5 d0 a9 3d 45 40 37 04 c5 d0 a9 3d 45 40
       42.48174485797829 42.48174485797829
000390 37 04 c5 d0 a9 3d 45 40 37 04 c5 d0 a9 3d 45 40
       42.48174485797829 42.48174485797829
0003a0 37 04 c5 d0 a9 3d 45 40 37 04 c5 d0 a9 3d 45 40
       42.48174485797829 42.48174485797829
0003b0 37 04 c5 d0 a9 3d 45 40 37 04 c5 d0 a9 3d 45 40
       42.48174485797829 42.48174485797829
0003c0 37 04 c5 d0 a9 3d 45 40 37 04 c5 d0 a9 3d 45 40
       42.48174485797829 42.48174485797829
0003d0 37 04 c5 d0 a9 3d 45 40 37 04 c5 d0 a9 3d 45 40
       42.48174485797829 42.48174485797829
0003e0 37 04 c5 d0 a9 3d 45 40 37 04 c5 d0 a9 3d 45 40
       42.48174485797829 42.48174485797829
0003f0 37 04 c5 d0 a9 3d 45 40 37 04 c5 d0 a9 3d 45 40
       42.48174485797829 42.48174485797829
000400 37 04 c5 d0 a9 3d 45 40 37 04 c5 d0 a9 3d 45 40
       42.48174485797829 42.48174485797829
000410 37 04 c5 d0 a9 3d 45 40 37 04 c5 d0 a9 3d 45 40
       42.48174485797829 42.48174485797829
000420 37 04 c5 d0 a9 3d 45 40 37 04 c5 d0 a9 3d 45 40
       42.48174485797829 42.48174485797829
000430 37 04 c5 d0 a9 3d 45 40 37 04 c5 d0 a9 3d 45 40
       42.48174485797829 42.48174485797829
000440 37 04 c5 d0 a9 3d 45 40 37 04 c5 d0 a9 3d 45 40
       42.48174485797829 42.48174485797829
000450 37 04 c5 d0 a9 3d 45 40 37 04 c5 d0 a9 3d 45 40
       42.48174485797829 42.48174485797829
000460 37 04 c5 d0 a9 3d 45 c0 37 04 c5 d0 a9 3d 45 c0
       -42.48174485797829 -42.48174485797829
000470 37 04 c5 d0 a9 3d 45 c0 37 04 c5 d0 a9 3d 45 40
       -42.48174485797829 42.48174485797829
000480 37 04 c5 d0 a9 3d 45 40 37 04 c5 d0 a9 3d 45 40
       42.48174485797829 42.48174485797829
000490 37 04 c5 d0 a9 3d 45 40 37 04 c5 d0 a9 3d 45 40
       42.48174485797829 42.48174485797829
0004a0 37 04 c5 d0 a9 3d 45 40 37 04 c5 d0 a9 3d 45 40
       42.48174485797829 42.48174485797829
0004b0 37 04 c5 d0 a9 3d 45 40 37 04 c5 d0 a9 3d 45 40
       42.48174485797829 42.48174485797829
0004c0 37 04 c5 d0 a9 3d 45 40 37 04 c5 d0 a9 3d 45 40
       42.48174485797829 42.48174485797829
0004d0 37 04 c5 d0 a9 3d 45 40 37 04 c5 d0 a9 3d 45 40
       42.48174485797829 42.48174485797829
0004e0 37 04 c5 d0 a9 3d 45 40 37 04 c5 d0 a9 3d 45 40
       42.48174485797829 42.48174485797829
0004f0 37 04 c5 d0 a9 3d 45 40 37 04 c5 d0 a9 3d 45 40
       42.48174485797829 42.48174485797829
000500 37 04 c5 d0 a9 3d 45 40 37 04 c5 d0 a9 3d 45 40
       42.48174485797829 42.48174485797829
000510 37 04 c5 d0 a9 3d 45 40 37 04 c5 d0 a9 3d 45 40
       42.48174485797829 42.48174485797829
000520 37 04 c5 d0 a9 3d 45 40 37 04 c5 d0 a9 3d 45 40
       42.48174485797829 42.48174485797829
000530 37 04 c5 d0 a9 3d 45 40 37 04 c5 d0 a9 3d 45 40
       42.48174485797829 42.48174485797829
000540 37 04 c5 d0 a9 3d 45 40 37 04 c5 d0 a9 3d 45 40
       42.48174485797829 42.48174485797829
000550 37 04 c5 d0 a9 3d 45 40 37 04 c5 d0 a9 3d 45 40
       42.48174485797829 42.48174485797829
000560 37 04 c5 d0 a9 3d 45 40 37 04 c5 d0 a9 3d 45 40
       42.48174485797829 42.48174485797829
000570 8e c7 da e8 93 cf 1e 40 37 04 c5 d0 a9 3d 45 40
       7.702712667802087 42.48174485797829
000580 37 04 c5 d0 a9 3d 45 40 37 04 c5 d0 a9 3d 45 40
       42.48174485797829 42.48174485797829
000590 37 04 c5 d0 a9 3d 45 40 37 04 c5 d0 a9 3d 45 40
       42.48174485797829 42.48174485797829
0005a0 37 04 c5 d0 a9 3d 45 40 37 04 c5 d0 a9 3d 45 40
       42.48174485797829 42.48174485797829
0005b0 37 04 c5 d0 a9 3d 45 40 37 04 c5 d0 a9 3d 45 40
       42.48174485797829 42.48174485797829
0005c0 37 04 c5 d0 a9 3d 45 40 37 04 c5 d0 a9 3d 45 40
       42.48174485797829 42.48174485797829
0005d0 37 04 c5 d0 a9 3d 45 40 37 04 c5 d0 a9 3d 45 40
       42.48174485797829 42.48174485797829
0005e0 37 04 c5 d0 a9 3d 45 40 37 04 c5 d0 a9 3d 45 40
       42.48174485797829 42.48174485797829
0005f0 37 04 c5 d0 a9 3d 45 40 37 04 c5 d0 a9 3d 45 40
       42.48174485797829 42.48174485797829
000600 37 04 c5 d0 a9 3d 45 40 37 04 c5 d0 a9 3d 45 40
       42.48174485797829 42.48174485797829
000610 37 04 c5 d0 a9 3d 45 40 37 04 c5 d0 a9 3d 45 40
       42.48174485797829 42.48174485797829
000620 37 04 c5 d0 a9 3d 45 40 37 04 c5 d0 a9 3d 45 40
       42.48174485797829 42.48174485797829
000630 37 04 c5 d0 a9 3d 45 40 37 04 c5 d0 a9 3d 45 40
       42.48174485797829 42.48174485797829
000640 37 04 c5 d0 a9 3d 45 40 37 04 c5 d0 a9 3d 45 40
       42.48174485797829 42.48174485797829
000650 37 04 c5 d0 a9 3d 45 40 37 04 c5 d0 a9 3d 45 40
       42.48174485797829 42.48174485797829
000660 37 04 c5 d0 a9 3d 45 40 37 04 c5 d0 a9 3d 45 40
       42.48174485797829 42.48174485797829
000670 37 04 c5 d0 a9 3d 45 40 37 04 c5 d0 a9 3d 45 40
       42.48174485797829 42.48174485797829
000680 37 04 c5 d0 a9 3d 45 40 37 04 c5 d0 a9 3d 45 40
       42.48174485797829 42.48174485797829
000690 37 04 c5 d0 a9 3d 45 40 37 04 c5 d0 a9 3d 45 40
       42.48174485797829 42.48174485797829
0006a0 37 04 c5 d0 a9 3d 45 40 37 04 c5 d0 a9 3d 45 c0
       42.48174485797829 -42.48174485797829
0006b0 37 04 c5 d0 a9 3d 45 c0 37 04 c5 d0 a9 3d 45 c0
       -42.48174485797829 -42.48174485797829
0006c0 37 04 c5 d0 a9 3d 45 c0 37 04 c5 d0 a9 3d 45 c0
       -42.48174485797829 -42.48174485797829
0006d0 8e 1e 56 a2 7c 57 05 c0 ad a9 31 a8 0f 2f 27 c0
       -2.6677181894809285 -11.59191632848964
0006e0 37 04 c5 d0 a9 3d 45 40 37 04 c5 d0 a9 3d 45 40
       42.48174485797829 42.48174485797829
0006f0 37 04 c5 d0 a9 3d 45 40 37 04 c5 d0 a9 3d 45 40
       42.48174485797829 42.48174485797829
000700 37 04 c5 d0 a9 3d 45 40 37 04 c5 d0 a9 3d 45 40
       42.48174485797829 42.48174485797829
000710 37 04 c5 d0 a9 3d 45 40 37 04 c5 d0 a9 3d 45 40
       42.48174485797829 42.48174485797829
000720 37 04 c5 d0 a9 3d 45 40 37 04 c5 d0 a9 3d 45 40
       42.48174485797829 42.48174485797829
000730 37 04 c5 d0 a9 3d 45 40 37 04 c5 d0 a9 3d 45 40
       42.48174485797829 42.48174485797829
000740 37 04 c5 d0 a9 3d 45 40 37 04 c5 d0 a9 3d 45 40
       42.48174485797829 42.48174485797829
000750 37 04 c5 d0 a9 3d 45 40 37 04 c5 d0 a9 3d 45 40
       42.48174485797829 42.48174485797829
000760 37 04 c5 d0 a9 3d 45 40 37 04 c5 d0 a9 3d 45 40
       42.48174485797829 42.48174485797829
000770 37 04 c5 d0 a9 3d 45 40 37 04 c5 d0 a9 3d 45 40
       42.48174485797829 42.48174485797829
000780 37 04 c5 d0 a9 3d 45 c0 37 04 c5 d0 a9 3d 45 c0
       -42.48174485797829 -42.48174485797829
000790 37 04 c5 d0 a9 3d 45 c0 32 1e b5 89 95 01 21 c0
       -42.48174485797829 -8.503094008788228
0007a0 37 04 c5 d0 a9 3d 45 c0 37 04 c5 d0 a9 3d 45 c0
       -42.48174485797829 -42.48174485797829
0007b0 2e 35 c7 06 b3 47 3e c0 74 51 c7 b8 5d fa 31 c0
       -30.28007547725172 -17.97799258104483
0007c0 37 04 c5 d0 a9 3d 45 c0 37 04 c5 d0 a9 3d 45 c0
       -42.48174485797829 -42.48174485797829
0007d0 e8 83 26 7e b4 fe 3b c0 04 f1 34 02 88 6b 3a 40
       -27.994941601184024 26.420044076848185
0007e0 37 04 c5 d0 a9 3d 45 40 ce 2d 5f 11 e5 6b 43 c0
       42.48174485797829 -38.84292809626969
0007f0 37 04 c5 d0 a9 3d 45 c0 37 04 c5 d0 a9 3d 45 c0
       -42.48174485797829 -42.48174485797829

sv (column-major) f8 [13126, 4]
000000 5a 04 fa 79 58 6e d5 3f 96 26 da 40 5d e4 d5 3f
       0.334859961622049 0.34206324895112894
000010 9a bd be 41 35 09 d6 3f 28 0e 5e 06 0d 60 d6 3f
       0.3443120138208201 0.34961248037163495
000020 2f 37 a9 60 02 41 d6 3f 8f bf f8 20 87 be d7 3f
       0.347717852015978 0.37100389690294205
000030 6e a3 f1 fa d6 6e cf 3f 30 e9 9c 1e dc 35 cd 3f
       0.24557006123657338 0.22820617193958403
000040 59 9b e8 8d be 07 ca 3f a0 8c 88 9f 42 18 cc 3f
       0.2033613388932405 0.2194903639766368
000050 43 53 89 8b c3 2c ce 3f ff 82 6e a0 3e dc ca 3f
       0.2357410842256745 0.20984633287027774
000060 3a 44 cb d1 a8 78 c9 3f d9 c5 cb 9c 23 8b ca 3f
       0.1989947342285932 0.20737118869833074
000070 ce 23 24 56 4b 88 ca 3f cd d0 58 9b 8d c2 ca 3f
       0.20728437143432504 0.20906229100513088
000080 7b f7 cd 21 f3 2f cb 3f 43 e7 42 f6 9f 26 ca 3f
       0.2124008097707096 0.20430373692016177
000090 9d c4 f7 c0 06 63 c8 3f 19 2a ea f3 a5 06 c8 3f
       0.19052204534776687 0.18770288858316134
0000a0 da e5 9d 71 12 dd c8 3f 35 96 c4 7b 84 d6 c8 3f
       0.1942465834397769 0.19404655497889825
0000b0 bd b3 ca 6b db c2 ca 3f bf c7 7a 3f 37 0c cd 3f
       0.20907156718513234 0.22693529700842238
0000c0 32 2e a5 df a7 1c ce 3f db bb 7d 05 09 73 cd 3f
       0.23524950428178354 0.23007309692499586
0000d0 13 45 f0 19 25 14 cc 3f e9 8a 06 58 a0 6b cc 3f
       0.21936477438479382 0.22203449533579736
0000e0 f7 5a 57 a8 90 75 cd 3f 8a 1c ba 2a f4 9c ce 3f
       0.230150301168315 0.23916484915045927
0000f0 78 1e df a9 33 0c cf 3f 7e 09 af 2a f9 12 ce 3f
       0.24255986971387578 0.2349540193955128
000100 2d af d5 13 f1 4a cd 3f f5 37 d2 b2 71 01 cd 3f
       0.22884953945628564 0.22660657149793875
000110 06 92 ee 28 96 3d d0 3f 0d f3 5d 22 1f ed d0 3f
       0.2537589454389323 0.2644727550139557
000120 db 1b e3 80 67 58 d1 3f 5f 8b d9 10 d9 10 d3 3f
       0.27102077089915405 0.2979033150242482
000130 fc d8 e2 5a 34 b8 d3 3f eb fc 5a 7d dc c8 d1 3f
       0.30811795116041174 0.27788460008373644
000140 01 a3 d7 9c 26 e1 d2 3f b3 93 d0 11 12 ff d2 3f
       0.29499211613305937 0.2968182729694561
000150 b2 85 d8 33 56 43 d2 3f e7 d0 7a 3e f4 69 d1 3f
       0.2853599077517074 0.2720919237283525
000160 c6 26 04 7a 77 7b d1 3f 80 3c fc 0d 7e cd d1 3f
       0.2731608096661201 0.2781672607970407
000170 27 e1 ee 62 0e 8e d3 3f 1b 88 cc 4f b4 35 d3 3f
       0.3055454221862583 0.3001528529440535
000180 45 df 35 a6 78 38 d1 3f a8 78 48 c9 28 af d1 3f
       0.2690717337750253 0.27631587654640066
000190 84 10 6d 12 c1 ae d1 3f 33 9e a8 64 35 eb d1 3f
       0.27629114913384734 0.27998099164912843
0001a0 1b 1c 75 a4 27 b4 d0 3f ad 80 73 47 87 b5 d0 3f
       0.2609957796125301 0.26107961633352766
0001b0 0e 78 77 ce 6d 5b d1 3f c6 9f 66 de 3c 81 d1 3f
       0.271205379130948 0.273513047397952
0001c0 f3 cd 40 79 ec d3 d0 3f 76 30 92 e1 3e bb d0 3f
       0.26293479767920686 0.26142856625006716
0001d0 d7 80 74 cf a5 72 d1 3f 0c 76 80 f3 34 d5 d2 3f
       0.27262254008566117 0.29426311282608775
0001e0 65 53 09 8d bc bb d2 3f 3c c8 a8 c5 c3 2e d2 3f
       0.29270852826203103 0.28410429289499795
0001f0 9d bb e4 0f f7 3f d2 3f 8b b1 5e c4 32 6c d3 3f
       0.285154119034752 0.30347890068767275
000200 11 bb 55 5e 0e ec d4 3f c1 b4 07 af 35 52 d5 3f
       0.326907722591316 0.33314268200667746
000210 7e e8 8b 94 ea c0 d5 3f 43 54 c6 8a 0a 44 d5 3f
       0.3398996782922338 0.33227790405482355
000220 78 25 1f d2 9c 85 d5 3f 69 71 6d a9 ca 68 d5 3f
       0.3362800647706403 0.33452097459464497
000230 ee e4 f1 4f 4a cf d4 3f 13 45 2c 97 e8 7f d5 3f
       0.3251519947730931 0.335931918744863
000240 96 37 2e 6f a1 3f d7 3f ce 81 cd 3c 01 4d d7 3f
       0.3632587037799281 0.36407500207681387
000250 fa 78 24 95 aa 4e d6 3f 53 26 84 fb a9 67 d5 3f
       0.3485514122456973 0.3344521480763422
000260 e6 2d 99 df eb d6 d6 3f e8 01 aa 91 88 b6 d7 3f
       0.356867760045786 0.3705159590245146
000270 22 15 4e 57 41 3f d6 3f 38 ed c0 76 e2 ff d4 3f
       0.34761079336051826 0.32811795804055377
000280 11 d8 f6 91 a7 45 d6 3f 75 f2 7d ee 32 bd d7 3f
       0.34800137762374656 0.3709227875731707
000290 47 d5 54 4c d1 96 d7 3f fb 5f 65 8f ee 0e d8 3f
       0.36858017400966897 0.37591136935725417
0002a0 d3 7a 5c 1b ef 27 d8 3f 2d 29 91 2a d8 5a d7 3f
       0.3774373786163043 0.36491970211922614
0002b0 33 2d 27 1d 8f ed d7 3f 3f 89 e2 ac eb 07 d8 3f
       0.3738744530389397 0.3754834354714553
0002c0 30 d8 cc d7 a4 60 d7 3f 0a d7 2a de a1 9e d6 3f
       0.3652736766265461 0.3534321469881979
0002d0 65 c6 ac 17 ad e6 d6 3f c1 c6 d7 86 c3 43 d7 3f
       0.3578293544006555 0.3635109726738897
0002e0 65 04 49 80 d0 41 d6 3f b5 02 33 e3 51 21 d6 3f
       0.3477669956956276 0.34578368365695705
0002f0 d3 80 0e de 13 28 d6 3f 2c d5 7d e0 2b 33 d6 3f
       0.3461961430093769 0.3468732540416848
000300 97 d3 bb 93 37 5b d7 3f 95 6f 04 a2 58 35 d7 3f
       0.36494244982832796 0.3626309950066056
000310 a7 b2 00 2e 24 1f d8 3f 03 ce 4a f2 cb f5 d9 3f
       0.3769007157559749 0.4056272379050087
000320 13 47 e8 e7 5a 47 dc 3f b6 56 48 44 f6 72 dd 3f
       0.441855169746405 0.46014172237606077
000330 a0 55 2f 1b 1a 81 dc 3f 9f 67 60 5c 20 3a dc 3f
       0.44537975935721796 0.4410477544894266
000340 15 8e a2 76 49 ab dc 3f fc cb d6 4f a3 71 dd 3f
       0.4479545267624599 0.4600609092405532
000350 56 d5 ac 12 d6 ed db 3f 33 f8 b7 3b 23 58 da 3f
       0.4363913709997481 0.4116294940175777
000360 20 e5 be 4c 43 e1 da 3f 63 c1 1e f8 68 77 db 3f
       0.4199989556760375 0.4291632102058626
000370 9b 31 12 2f 9f 7c db 3f 6c 55 91 71 90 31 d8 3f
       0.4294813117674267 0.3780251606998124
000380 41 3b fc 18 fd 0c d4 3f 22 1d 45 53 43 34 d4 3f
       0.3132927650448672 0.31568987972100804
000390 71 a4 9d d0 22 83 d3 3f 3f 8a a5 6e cb 1a d4 3f
       0.3048789059890345 0.3141354160817719
0003a0 b2 41 7d e8 89 d6 d4 3f ef 9e 36 08 01 37 d4 3f
       0.32559440330535516 0.31585717966161914
0003b0 c3 ba bc bb 02 6c d5 3f a3 c8 af b8 78 80 d6 3f
       0.3347174485560737 0.3515912822323434
0003c0 4d 28 a3 b2 80 f3 d5 3f 2f 80 da 4a 43 2c d6 3f
       0.34298722691585654 0.3464515906325713
0003d0 bc 14 87 30 f0 05 d7 3f a0 5b 00 54 69 3d d7 3f
       0.35973744143513975 0.363123256714454
0003e0 83 a5 76 aa fa 0e d6 3f 3b 66 37 b8 b8 6c d5 3f
       0.34466425558874664 0.33476083745845003
0003f0 14 50 29 67 be fe d5 3f 82 ef a0 92 c4 6f d6 3f
       0.3436733252940496 0.35057176894383
000400 97 67 b2 a6 a5 3a d7 3f 4c 90 29 99 76 f8 d5 3f
       0.36295453337663147 0.3432899947858956
000410 71 a1 ab 3e 2c c6 d4 3f c8 66 e8 ce 93 1c d5 3f
       0.3245955097213687 0.32986922460405
000420 87 b8 a8 1f f1 4e d6 3f ac f1 45 8d b5 a2 d5 3f
       0.348568230549866 0.3380559806462553
000430 00 55 4a ea d8 64 d3 3f f7 f7 f8 f6 22 fc d3 3f
       0.30303023223798675 0.31226419561778535
000440 96 9b e9 d5 41 34 cf 3f 47 d7 bd bf 11 ca cf 3f
       0.24378226227710503 0.24835416662579687
000450 9e 23 e4 8a 06 8a cf 3f 5b 23 e6 eb bc a2 cd 3f
       0.2463997057132276 0.23152886885170684
000460 47 9f 79 87 f4 ff d2 3f 8a ce 22 62 68 d2 d6 3f
       0.29687226514805726 0.35659226974096525
000470 76 d5 76 6b bd e1 d5 3f bc 0d f2 9d 77 92 d0 3f
       0.34190307135153064 0.25893965172164335
000480 81 cb d9 4b 02 1d c8 3f ff 48 a5 97 96 a5 c7 3f
       0.18838528350496733 0.18474085239956392
000490 9d 8d 21 b1 82 2c c9 3f b6 2f 6f 08 4a 33 c5 3f
       0.19667085312822233 0.1656277218993389
0004a0 f6 5a 84 03 33 d5 c5 3f 47 6d 8b 49 47 95 c9 3f
       0.17056882545212887 0.19986811724707307
0004b0 ca 46 91 71 8c 2a cf 3f 4d 9b 34 2f 8b 06 cf 3f
       0.24348598046576903 0.242387197541769
0004c0 54 2d cc af 4e a1 d1 3f 20 ae 36 3e 80 8b d2 3f
       0.2754704205296623 0.28976446223779995
0004d0 38 0c de be ec f7 d0 3f 87 31 0f 9a a0 80 cd 3f
       0.2651321281375121 0.23048789522580312
0004e0 7c 33 99 a9 42 c9 cd 3f 56 ff 54 5d 82 f9 ce 3f
       0.2327044799916641 0.2419894176218757
0004f0 5a ef 9b 0e 69 bd cb 3f 8a be 96 06 5c 10 cd 3f
       0.2167178460439299 0.22706175157280867
000500 cf 2f 47 67 1c 4b cf 3f 3f f9 b8 d6 35 45 cf 3f
       0.24447970431208296 0.24429963097095173
000510 04 81 c2 fa 58 75 ce 3f 4e 5d 99 3f 6a 30 ce 3f
       0.23795616382722795 0.23585250955032183
000520 e6 07 16 d9 b3 54 cb 3f d7 db 5f a2 08 66 cf 3f
       0.21352241611390282 0.245301322254561
000530 3d 1a 75 07 40 33 d1 3f d7 89 18 f1 e7 66 d0 3f
       0.2687530587030869 0.25628088516728326
000540 99 7c 84 2d ad dc cf 3f 64 2e d4 59 0a c9 cf 3f
       0.24892201159034213 0.24832276712583046
000550 52 4d f2 a5 2e 12 d0 3f 77 24 c8 33 c5 17 d0 3f
       0.25110975461685314 0.25145082527939827
000560 79 a9 d0 96 13 00 d1 3f cc c1 7a 81 d1 39 d1 3f
       0.26562967041049707 0.2691539539764818
000570 f3 45 d4 c3 54 87 d0 3f 7b b3 fb 3f 68 51 cf 3f
       0.2582599556345421 0.244671851388741
000580 f4 76 42 4a 76 f8 cf 3f ff cb a9 ec f0 3b d0 3f
       0.24976996065100077 0.25365851508757936
000590 3d 40 5b c4 e2 5c cf 3f b3 11 5d a4 3d 96 cf 3f
       0.24502214992253527 0.2467724850231555
0005a0 5b 00 23 0e 1a 7e cb 3f 81 a8 1f 60 05 16 cd 3f
       0.2147858208682035 0.2272345275262673
0005b0 65 2b 52 5e 4d 6a d0 3f e4 4c dd ea 4d e3 cf 3f
       0.25648817263634377 0.24912427871695464
0005c0 36 22 ed d6 f8 04 ce 3f 4c dc 67 6b 8d ff ce 3f
       0.23452673429916765 0.24217384094638061
0005d0 db b5 6a 13 c4 ae cf 3f df 49 58 1e 26 8e ce 3f
       0.24752093265617145 0.2387130401771875
0005e0 43 00 bb de 7d 5b cb 3f f5 16 37 51 4c c5 ca 3f
       0.2137296044875275 0.20914606061540267
0005f0 3b 53 92 2a a2 02 ca 3f 34 5a 69 2d 0f 51 c7 3f
       0.20320536688509513 0.182161233113861
000600 7e 0c a5 88 7e 2b c7 3f e7 9c f6 4d 5b 7b c4 3f
       0.1810148398600155 0.1600145464592295
000610 c6 92 b1 ca a9 12 c1 3f fd af 20 72 dd ac c5 3f
       0.13338205716276813 0.1693379218353356
000620 d9 01 b8 55 64 6f c2 3f 42 50 c7 b8 55 4d c4 3f
       0.14402441201674668 0.15861007234946284
000630 24 f3 f5 a7 8f 9f c4 3f 7e a1 21 57 b6 04 c5 3f
       0.16111942006309576 0.16420630697690436
000640 9a c4 a1 b2 d5 44 c8 3f d1 a6 5f 7d 04 41 c4 3f
       0.1896006700731377 0.1582341777969334
000650 db 89 87 fb a2 2b c5 3f a0 1e c2 da 13 a4 c7 3f
       0.16539418489180843 0.18469474965626365
000660 ee b4 5d 26 26 72 c7 3f 3b 5c 72 b1 6a cb c5 3f
       0.18317105172483344 0.17027028717413537
000670 c3 93 82 85 df e4 c4 3f d7 94 6f 25 56 86 c4 3f
       0.16323465365453957 0.1603496249000844
000680 0a a1 d9 ca 73 40 c4 3f bb d7 12 e1 4f 03 c7 3f
       0.15821692852774333 0.17978857507631382
000690 9f 9e e0 5b 0a 8e c7 3f 9e 6d b2 74 e9 bd c5 3f
       0.18402223097040335 0.16985815237135865
0006a0 08 d4 26 dc e8 93 c4 3f f9 67 d9 3a 83 d1 c6 3f
       0.16076384305566216 0.1782688176488703
0006b0 b0 7b 92 11 fb 77 c7 3f a7 7a e6 6b 84 e6 c8 3f
       0.18334902151124544 0.1945348288399675
0006c0 76 b1 b1 33 9c 38 c9 3f 7d 04 9f de cf 9d ce 3f
       0.19704010509611763 0.239191039754619
0006d0 cf 42 fa 01 fe 09 cc 3f 2b 9b 96 26 5e f5 cd 3f
       0.21905493828355424 0.23405053028292264
0006e0 3e 5e 19 ae 8d 53 c0 3f 94 24 8f c8 86 34 92 bf
       0.12754984856541002 -0.017778497687491582
0006f0 10 81 71 5e 96 e4 78 3f ae 74 f7 ba 33 ba 80 3f
       0.00607737291201739 0.008167652266758498
000700 34 7a b4 ea 12 8d a8 bf 9d 3b 39 a4 18 71 73 bf
       -0.047951308393966136 -0.0047465288694884785
000710 ab 78 1f cc 37 3a a9 3f 21 7f d8 c3 a7 e6 7f 3f
       0.04927229277358099 0.007788329441183157
000720 f4 81 ea 51 59 04 ac 3f bc c5 30 0e 0c 56 c3 3f
       0.054720679521100296 0.1510634488381991
000730 d4 d7 d5 1a 75 49 b5 3f 7a 4e 1c 0a 51 e7 b9 3f
       0.0831521215930871 0.1011858606037154
000740 f3 44 f4 64 e3 2b c6 3f 0c 1a 11 cf 09 1a c5 3f
       0.1732143633785551 0.16485712633785032
000750 bb 13 e8 8e 4a c2 ba 3f 14 1a e5 12 ca e4 c1 3f
       0.10452714909486265 0.1397945968876263
000760 90 b5 f2 e4 5a 40 c8 3f 4e 3c a0 40 95 dc b3 3f
       0.1894639604483186 0.07758457973271612
000770 f8 9e 2a e7 61 d5 be 3f 89 8e 3e eb 3e 70 c0 3f
       0.12044345754349794 0.12842546927014478
000780 4e ae 87 bc b4 81 d2 3f 75 d1 de 1f 0b c7 d1 3f
       0.28916662608273647 0.2777736483797278
000790 ad cc 51 9f 9a 2c d1 3f da 40 d9 25 98 43 ce 3f
       0.2683474117140559 0.23643781517103585
0007a0 7b 3a fa 50 48 c7 d0 3f 2d f8 2f ed 46 dc d0 3f
       0.26216323764757704 0.2634446445734991
0007b0 c2 64 9e d3 e3 03 cd 3f b4 a3 ed 33 9d ff cf 3f
       0.2266812117857509 0.2499882224613238
0007c0 4b 2d cf 05 38 a4 d1 3f 55 57 98 76 66 54 cb 3f
       0.2756481224757478 0.213513191135173
0007d0 5e 1c 43 18 28 78 da 3f 75 20 df 1c 7d 8b d7 3f
       0.41358377808905356 0.3678887159299003
0007e0 b4 f9 81 1b 1b 07 de 3f 78 c3 53 f8 4d 52 e1 3f
       0.469183709013943 0.5412969446316387
0007f0 97 db bd ec 3a 65 e1 3f 46 91 64 46 94 5b e1 3f
       0.5436071990833281 0.5424291014537992
