qolo_package/src/compliance_controller/prediction_model/trainedModels_nn.tflite (tflite, 43576 bytes, 24 tensors)

Bumper/dense/BiasAdd/ReadVariableOp f4 [25]
0.099883966 0.21657386 0.14857493 0.017386671 -0.018579615 0.4409759 0.12078346 0.42634082
0.3489996 0.20297918 0.19775952 -0.25031173 -0.10501344 0.31245103 0.38570338 -0.0020990241
-0.18791789 0.39604113 0.13716736 0.052092705 0.23867722 0.07327081 -0.29874384 0.8181431
0.20495524
00000000: f78f cc3d 8ac5 5d3e 0724 183e 7e6e 8e3c
00000010: 4734 98bc 98c7 e13e 525d f73d 5849 da3e
00000020: 13b0 b23e c6d9 4f3e 7981 4a3e dc28 80be
00000030: 4911 d7bd 95f9 9f3e ea7a c53e c88f 09bb
00000040: 8c6d 40be e7c5 ca3e 9a75 0c3e 295f 553d
00000050: cd67 743e 020f 963d f4f4 98be d471 513f
00000060: c9df 513e

Bumper/dense_1/BiasAdd/ReadVariableOp f4 [25]
0.14243557 0.2322308 0.21337044 0.109025836 0.30796656 0.2474971 0.25654104 0.24191065
0.20040704 0.15219644 0.18493246 0.3732591 0.40505287 -0.007260871 0.25631502 0.088171035
0.0018360574 0.42977846 0.27638242 0.06749006 0.13817492 0.047691226 0.37289134 0.13266945
0.16865192
00000000: a1da 113e e9cd 6d3e c87d 5a3e f048 df3d
00000010: cbad 9d3e e16f 7d3e 5959 833e 6db7 773e
00000020: 8137 4d3e 62d9 1b3e ef5e 3d3e d11b bf3e
00000030: 1763 cf3e 9aec edbb b93b 833e 0493 b43d
00000040: dda7 f03a ec0b dc3e ff81 8d3e 3b38 8a3d
00000050: ba7d 0d3e e057 433d 9deb be3e 80da 073e
00000060: 17b3 2c3e

Bumper/dense_2/BiasAdd/ReadVariableOp f4 [10]
0.27812058 0.46380764 0.3039501 -0.012625671 0.28858384 0.12605457 0.36442688 0.16705857
0.19457673 0.35642797
00000000: d265 8e3e 3278 ed3e 599f 9b3e e7db 4ebc
00000010: 43c1 933e 7314 013e 2996 ba3e 6711 2b3e
00000020: 1f3f 473e ba7d b63e

Bumper/dense_3/BiasAdd/ReadVariableOp f4 [25]
0.008011886 0.083262205 0.22403334 0.16807102 0.18374464 0.20134209 -0.23912321 -0.09472071
-0.1034401 0.29923803 0.19455077 -0.113803886 0.25319543 0.190137 0.050877314 0.17026399
-0.009766588 0.08760705 0.18956444 0.2036259 0.24209945 0.0650351 0.08802065 0.08383538
0.3261482
00000000: 4944 033c 6085 aa3d ff68 653e cf1a 2c3e
00000010: 8e27 3c3e 9f2c 4e3e b7dc 74be eefc c1bd
00000020: 67d8 d3bd ba35 993e 5138 473e 0312 e9bd
00000030: d5a2 813e 46b3 423e bb64 503d af59 2e3e
00000040: 0a04 20bc 536b b33d 2e1d 423e 4f83 503e
00000050: ebe8 773e 1f31 853d 2c44 b43d e2b1 ab3d
00000060: e6fc a63e

Bumper/dense_4/BiasAdd/ReadVariableOp f4 [25]
0.029428206 -0.096900254 0.09417025 -0.032202944 0.019727148 0.28392652 0.19622079 -0.12130256
-0.012409287 0.35756892 0.33103648 0.22828925 2.2478052e-06 0.28441665 0.20757738 0.33621967
-0.13292746 0.3083044 0.046128806 -0.19313492 0.19200234 0.33617127 0.3414174 0.3021961
0.48297384
00000000: 6c13 f13c a473 c6bd 55dc c03d 3ce7 03bd
00000010: d49a a13c d15e 913e 1aee 483e 7a6d f8bd
00000020: 5250 4bbc 4613 b73e 9d7d a93e a8c4 693e
00000030: 00d9 1636 0f9f 913e 2a8f 543e fc24 ac3e
00000040: 231e 08be 13da 9d3e 8ff1 3c3d 29c5 45be
00000050: 439c 443e a41e ac3e 43ce ae3e 72b9 9a3e
00000060: 5948 f73e

Bumper/dense_5/BiasAdd/ReadVariableOp f4 [10]
0.01381854 -0.20137583 0.25103894 0.07632291 0.44769588 0.41132823 -0.09872823 0.3967347
0.306821 0.29418314
00000000: 2867 623c 7735 4ebe 2d88 803e 304f 9c3d
00000010: 6538 e53e 9d99 d23e 0732 cabd d020 cb3e
00000020: a417 9d3e 2c9f 963e

Bumper/dense_6/BiasAdd/ReadVariableOp f4 [25]
0.16016556 0.11681275 -0.05219082 -0.12892956 0.2816465 0.19205366 0.20286183 -0.10191029
0.3545479 -0.14735918 0.2407439 -0.1720923 0.13144702 0.056008622 -0.15312591 -0.16240229
-0.1728258 -0.33324176 0.094705865 0.27462825 0.06811282 0.06787757 -0.1798662 -0.28223673
-0.07929191
00000000: 7102 243e 863b ef3d 0bc6 55bd 1c06 04be
00000010: f833 903e b7a9 443e 03bb 4f3e 58b6 d0bd
00000020: 4d87 b53e 53e5 16be 9285 763e f738 30be
00000030: 0c9a 063e 4c69 653d 0acd 1cbe c94c 26be
00000040: 3ff9 30be aa9e aabe 26f5 c13d 139c 8c3e
00000050: bc7e 8b3d 6503 8b3d d82e 38be 5581 90be
00000060: cc63 a2bd

Bumper/dense_7/BiasAdd/ReadVariableOp f4 [25]
0.26235542 -0.0048292135 0.29489258 -0.11634901 0.021082446 -0.15661319 -0.10552048 0.2348182
0.04956029 0.087131344 -0.012138893 -0.18675798 0.0720067 -0.086385116 0.05372495 0.12973264
0.27913523 -0.00011773448 0.28328753 -0.44763717 0.051747654 -0.20248881 0.19172682 -0.04708165
-0.06191658
00000000: 7353 863e 613e 9ebb 29fc 963e 6448 eebd
00000010: 18b5 ac3c 355f 20be 1f1b d8bd 2f74 703e
00000020: bbff 4a3d eb71 b23d 35e2 46bc 7c3d 3fbe
00000030: 4078 933d aeea b0bd b10e 5c3d a2d8 043e
00000040: d0ea 8e3e 38e8 f6b8 100b 913e b330 e5be
00000050: 59f5 533d 3a59 4fbe 0954 443e b0d8 40bd
00000060: 3d9c 7dbd

Bumper/dense_8/BiasAdd/ReadVariableOp f4 [10]
0.08803304 -0.057913218 -0.027866082 -0.0963825 -0.17543869 0.20256793 -0.15089147 0.051105812
0.31079468 -0.13482286
00000000: ab4a b43d 6936 6dbd 6947 e4bc 3064 c5bd
00000010: 33a6 33be f86d 4f3e 4b83 1abe 5454 513d
00000020: 7b20 9f3e 010f 0abe

Func/Bumper/lstm/StatefulPartitionedCall/input/_6 f4 [60]
0.29086933 -0.4275917 -0.36535868 0.46155035 -0.505756 0.30167606 -0.2302139 -1.0099806
0.8039382 0.021448268 -0.17117363 0.053170383 -0.6624883 -0.6144295 0.65022415 1.1816148
0.76260334 1.1941576 1.1240302 0.5604366 0.683112 1.1915387 0.55704635 1.4605848
0.036755014 -0.3010073 1.2683445 1.0319538 1.0831186 1.2391897 0.18175022 0.1994067
0.19156495 0.6548625 -1.0026929 -0.43308863 -0.2938634 0.16288643 0.12972726 -0.4725717
0.17865561 -0.6904355 0.6338505 -0.39188534 0.8924007 0.3292819 -0.16916472 0.59084725
0.078310266 0.59150195 0.09801522 0.425289 0.010418875 1.6687366 -0.14927192 0.5612807
0.17324597 -0.66692543 0.16632135 0.66969514
00000000: d3ec 943e 4ded dabe 4b10 bbbe 5450 ec3e
00000010: 3a79 01bf 4975 9a3e 31bd 6bbe 0b47 81bf
00000020: e5ce 4d3f 47b4 af3c 2448 2fbe 30c9 593d
00000030: d598 29bf 404b 1dbf 1775 263f 273f 973f
00000040: f939 433f 28da 983f 39e0 8f3f c678 0f3f
00000050: 6ee0 2e3f 5784 983f 979a 0e3f 71f4 ba3f
00000060: 6d8c 163d a11d 9abe 1d59 a23f 1017 843f
00000070: a1a3 8a3f c59d 9e3f bb1c 3a3e 4531 4c3e
00000080: 9a29 443e 12a5 273f 3e58 80bf cbbd ddbe
00000090: 4375 96be b3cb 263e 39d7 043e ebf4 f1be
000000a0: 7ff1 363e 62c0 30bf 0744 223f 32a5 c8be
000000b0: 5f74 643f a397 a83e 8439 2dbe c441 173f
000000c0: 2261 a03d ac6c 173f 34bc c83d 7bbf d93e
000000d0: eeb3 2a3c 2999 d53f bdda 18be 18b0 0f3f
000000e0: 6467 313e a0bb 2abf 2550 2a3e 2471 2b3f

MatMul_1 f4 [60, 15]
-0.9585999 0.54749805 1.1414433 -0.4768108 -1.4976109 -0.6859405 -1.1756233 1.1070008
0.81851673 -0.94421214 -0.4536286 -1.3560413 0.7246198 2.644779 -1.5527349 -0.77833223
0.23973788 -1.2079353 -0.3989638 0.51919174 0.074209206 1.0520756 1.7003881 1.6526881
-0.71270454 -0.53100306 -3.365265 0.08476355 -1.5892467 0.10058523 -0.890391 -0.27865893
-0.15959004 -0.9978103 0.7433444 -0.4312658 -0.61067134 0.61382836 1.6435139 -0.24179915
0.26277405 0.35638112 -0.07798983 0.54944605 -0.7754624 0.12257236 -1.0935631 0.70638
-0.9387271 0.7736314 0.36910903 0.78097737 -0.6054146 -0.6130375 1.3803521 0.47164422
0.16524923 0.5567235 0.09882089 -0.6294694 0.8120095 0.016634082 1.5369666 -0.70544755
-0.2091558 -0.8870551 -0.76781064 -3.3063636 -0.040631488 -0.14543468 -1.1400793 0.6729139
1.4476663 -0.8654277 -0.4811393 0.40512 -0.13131797 1.3974464 -0.4280666 -2.7414715
0.15691341 -0.543844 -1.2173461 0.12942453 -0.6292618 -0.023510491 -0.23157643 -2.0364106
0.49675182 2.3395233 -0.5934272 0.63015234 -0.2146145 -0.09550427 2.1201427 -1.2489625
-0.3814324 0.62913847 1.0942061 -1.2107031 -0.97344595 0.90561163 -0.5634945 0.7563791
-0.7228787 0.92581373 0.08844943 0.40125522 -0.6133559 0.85930806 0.0041464986 -0.3576628
-0.9350916 0.71575314 0.98323286 -1.212802 -0.41181508 -1.6955203 0.44082022 -1.6852794
0.4292605 -0.94961333 -1.073383 -0.7155077 1.6419238 0.781167 0.86017984 -1.0405904
-1.4079528 -0.6958027 -1.8104166 1.1345952 0.099117875 2.062396 -0.9143523 1.6578677
-0.44202742 -0.20074494 0.20107219 0.8259678 0.3057844 -0.35611945 -0.21164718 0.022598635
-1.3190224 3.5487597 -3.0580077 -1.0467705 -0.43621534 -1.5206481 1.1543124 0.47536922
1.3364226 -0.27461827 0.9064499 -0.5078173 0.19224676 -0.28401408 -1.176987 1.01534
-1.3129567 0.74320424 0.48362017 0.31718335 2.1046755 -0.6876781 0.7167781 -0.24959391
-0.08937891 -0.5185817 0.65482545 -0.5429839 -1.6893798 -0.26720607 0.4061903 -0.03358343
-0.8493452 -0.75042653 0.84851426 -0.25152344 -0.5711264 -0.1294985 -2.3962479 -2.2184422
0.6199332 -1.0706047 -2.1993835 0.11239088 0.10653241 -0.5812434 -0.07488014 -0.6548011
1.4279952 1.5821908 -0.09164529 -0.44162238 0.087621905 -0.54980254 -0.81323606 0.14696313
-0.96117353 -1.513592 0.5986928 -0.34887823 -0.035320025 -1.4243001 -2.341289 2.0265136
-0.9558721 1.2815741 0.36763525 -0.23724416 2.2327044 0.5872916 -2.0465434 0.6190947
1.159996 3.823785 -0.6973715 0.7561436 -0.20282781 1.0263029 -0.0019078464 -3.0545764
1.9634957 0.6048924 -1.0438625 0.8449432 0.3668602 0.22286294 0.3365098 1.4863498
-0.6385441 -1.2536397 0.4446753 0.8882548 3.876615 0.37279025 -0.0197162 -0.38663256
-0.70894647 -0.09886749 0.05227354 -1.0640625 0.1458948 -0.55796707 -1.1195667 2.0540185
4.8617864 0.1876213 0.18981615 -0.2560581 -0.37589967 0.77157605 -0.57277787 -0.6113044
00000000: ce66 75bf d528 0c3f d01a 923f 8c20 f4be
00000010: b7b1 bfbf cc99 2fbf d37a 96bf 34b2 8d3f
00000020: 508a 513f e3b7 71bf 0242 e8be c392 adbf
00000030: af80 393f 0f44 2940 04c0 c6bf c840 47bf
00000040: d97d 753e a09d 9abf fc44 ccbe c0e9 043f
00000050: fffa 973d 6aaa 863f 51a6 d93f 498b d33f
00000060: ce73 36bf d1ef 07bf 8060 57c0 8398 ad3d
00000070: 706c cbbf a1ff cd3d aaf0 63bf 62ac 8ebe
00000080: 926b 23be 7f70 7fbf d24b 3e3f dfce dcbe
00000090: f554 1cbf db23 1d3f aa5e d23f 329a 77be
000000a0: 528a 863e 9677 b63e 22b9 9fbd 7fa8 0c3f
000000b0: b484 46bf 3807 fb3d e0f9 8bbf 52d5 343f
000000c0: 6b50 70bf b50c 463f dcfb bc3e 22ee 473f
000000d0: 74fc 1abf 07f0 1cbf 61af b03f 5a7b f13e
000000e0: 1837 293e 6e85 0e3f 9b62 ca3d e824 21bf
000000f0: dbdf 4f3f 3344 883c 52bb c43f 3698 34bf
00000100: f02c 56be 0b16 63bf 3d8f 44bf 769b 53c0
00000110: 346d 26bd d4ec 14be 1eee 91bf 1644 2c3f
00000120: 214d b93f ab8c 5dbf e457 f6be e36b cf3e
00000130: 3878 06be 86df b23f 8c2b dbbe 4574 2fc0
00000140: e9ad 203e 5c39 0bbf ffd1 9bbf dd87 043e
00000150: 4d17 21bf 1399 c0bc 5f22 6dbe 8d54 02c0
00000160: 4156 fe3e c0ba 1540 d8ea 17bf aa51 213f
00000170: e7c3 5bbe be97 c3bd 6bb0 0740 01de 9fbf
00000180: 1c4b c3be 380f 213f f20e 8c3f 52f8 9abf
00000190: c133 79bf 2ad6 673f 2d41 10bf 10a2 413f
000001a0: 940e 39bf 2102 6d3f fa24 b53d 5371 cd3e
000001b0: e404 1dbf 9dfb 5b3f 5adf 873b 941f b7be
000001c0: 2a62 6fbf 993b 373f 26b5 7b3f 193d 9bbf
000001d0: 6dd9 d2be cf06 d9bf 30b3 e13e 3cb7 d7bf
000001e0: 08c8 db3e dc19 73bf 9d64 89bf 832b 37bf
000001f0: 8f2a d23f 8ffa 473f bf34 5c3f 1132 85bf
00000200: cc37 b4bf 2020 32bf bbbb e7bf 6a3a 913f
00000210: 50fe ca3d 4cfe 0340 fe12 6abf 0235 d43f
00000220: 6b51 e2be 1590 4dbe dee5 4d3e a072 533f
00000230: c68f 9c3e 4a55 b6be 0aba 58be c620 b93c
00000240: bad5 a8bf e11e 6340 66b6 43c0 93fc 85bf
00000250: 9e57 dfbe 99a4 c2bf 82c0 933f 9863 f33e
00000260: e50f ab3f c49a 8cbe 1a0d 683f 5100 02bf
00000270: 56dc 443e 4b6a 91be 83a7 96bf a9f6 813f
00000280: f70e a8bf a242 3e3f 109d f73e db65 a23e
00000290: 01b3 0640 ac0b 30bf c57e 373f 8c95 7fbe
000002a0: 4a0c b7bd c5c1 04bf a4a2 273f fe00 0bbf
000002b0: 993d d8bf 3ccf 88be 2df8 cf3e c78e 09bd
000002c0: b06e 59bf f41b 40bf 3b38 593f aec7 80be
000002d0: 5735 12bf 419b 04be 205c 19c0 f5fa 0dc0
000002e0: f1b3 1e3f 9309 89bf b3c2 0cc0 312d e63d
000002f0: aa2d da3d 5ecc 14bf c25a 99bd 0ba1 27bf
00000300: 8cc8 b63f 3a85 ca3f 87b0 bbbd 541c e2be
00000310: 1d73 b33d dcbf 0cbf 3d30 50bf 817d 163e
00000320: 780f 76bf 62bd c1bf ee43 193f 2ba0 b2be
00000330: bbab 10bd 774f b6bf aed7 15c0 66b2 0140
00000340: 09b4 74bf 9f0a a43f b03a bc3e 22f0 72be
00000350: a1e4 0e40 be58 163f 91fa 02c0 fe7c 1e3f
00000360: c07a 943f e5b8 7440 f086 32bf a192 413f
00000370: 18b2 4fbe e55d 833f b410 faba 2e7e 43c0
00000380: d453 fb3f 3ada 1a3f 499d 85bf 334e 583f
00000390: 1ad5 bb3e 2f36 643e 034b ac3e b640 be3f
000003a0: a077 23bf 4477 a0bf 7bac e33e ab64 633f
000003b0: 761a 7840 5dde be3e de83 a1bc b4f4 c5be
000003c0: 847d 35bf 0a7b cabd c81c 563d 3333 88bf
000003d0: 7265 153e eed6 0ebf f64d 8fbf 0a75 0340
000003e0: c193 9b40 cc1f 403e 2a5f 423e 0c1a 83be
000003f0: ec75 c0be 0286 453f 92a1 12bf 727e 1cbf

MatMul f4 [60, 6]
0.031800587 0.007667708 -0.25840303 0.51127756 0.36029977 0.44752043 0.0018923588 0.062253837
0.24049783 -0.6418652 -0.42451915 -1.8645422 -0.098626986 0.007894665 0.17491844 0.93734735
0.5098848 0.5131367 -0.0072892928 0.0036268667 0.16110942 -1.522868 0.22976498 0.7204259
0.06302233 0.2935332 -0.07320842 -0.70127827 -0.6592173 -0.15896346 -0.34152916 -0.07853517
0.10261845 0.0069659334 -0.11588704 -0.20352913 -0.013730523 0.05260976 -0.03700334 0.0711776
1.918467 1.4524102 -0.07035367 0.061367072 -0.04486475 -1.000208 1.4016796 0.66642785
-0.009359979 -0.030902881 0.007749538 -1.1923637 0.5675543 0.6114431 0.028233822 0.0098547805
-0.20791046 -0.8974707 -0.40978137 -0.75838774 0.020432802 0.0016006415 -0.10198416 0.2954674
-0.7143845 -1.5288645 0.015877623 0.13253778 0.44436547 0.24718235 -1.0843543 -0.040859725
-0.0055432497 0.014340693 -0.402443 -1.3291842 0.86700255 0.4387308 -0.07446318 -0.0036907864
-0.2911079 0.86161685 0.28445813 0.29568446 0.0082575735 0.22645773 0.5924858 0.34050205
-0.44099 0.22326155 0.012334753 0.10729878 0.76849294 -1.7944593 -0.26338834 -0.2953338
0.133366 0.15422712 -0.25526088 0.3115918 -1.0027908 -3.359653 0.18098134 0.15174618
0.8294705 -1.1486622 1.2335325 1.8306779 -0.22223473 -0.055433184 0.18281567 0.34721547
0.43822807 0.28961492 -0.08985945 -0.013810849 -0.03316453 -0.1347232 0.4024237 -0.53208977
0.08933113 -0.161286 -0.9116457 1.0923877 -1.1279284 -1.2542322 -0.21495754 0.019841729
-0.12850267 -1.1363714 1.2110282 1.4563599 0.18249701 0.15974273 0.0238972 0.08829199
0.05242719 0.114424996 -0.09176759 -0.037678905 -0.24905355 -1.1111543 0.37322703 0.39351887
-0.48842004 0.07571016 0.2842206 0.5342092 -0.05148364 0.1731813 -0.025501069 0.17960441
-0.12865297 2.3665555 -0.4734359 -0.9720544 -0.09430104 -0.10372058 0.35346794 0.5527975
-2.226064 -1.6070725 -0.1510428 0.022955587 0.28198165 -2.215009 2.0553126 1.728267
-0.048653666 0.010825514 0.5734154 4.1532946 -1.7715303 -2.3887098 0.035356253 0.026591655
-1.0819219 -0.89883906 -1.0277443 -0.12796503 0.05160204 0.018498156 -0.24542074 -4.7503276
0.1563165 0.019540314 0.015260337 -0.048938967 0.058437053 0.90168196 0.6229488 0.25793085
0.01060284 0.048366494 -0.092867464 -1.483053 1.0427036 0.41042033 -0.031153848 -0.031165795
-0.028960694 1.4717692 0.892228 0.77154624 -0.04377398 -0.092957996 0.13275863 0.4488167
-2.3990052 -0.3516307 -0.05495802 0.022429913 -0.054291412 -0.6673307 -0.60070944 0.16060571
0.22466505 0.19403678 0.0255865 1.0618464 -0.24110788 -0.45744094 -0.02527635 -0.025417518
0.118367895 1.5876981 -0.3894841 -0.11132711 0.0069297203 -0.056819517 -0.01554773 -1.8682683
-0.035141703 0.031815454 -0.053249422 0.023512192 -0.43581486 2.137396 1.0509849 0.4994942
-0.021998003 0.08114858 -0.17824948 -0.28585863 -0.45447254 -0.5403616 0.010577293 -0.03726343
-0.19494547 -0.78998053 1.7875845 0.70389104 -0.015317324 0.03470598 -0.03342252 -0.3646366
00000000: 5541 023d 6641 fb3b 674d 84be 16e3 023f
00000010: 3679 b83e 6621 e53e 0609 f83a e1fd 7e3d
00000020: 1045 763e 4751 24bf 935a d9be 52a9 eebf
00000030: f2fc c9bd a058 013c d21d 333e fff5 6f3f
00000040: cf87 023f ed5c 033f 05db eebb bab0 6d3b
00000050: def9 243e 57ed c2bf 8347 6b3e d56d 383f
00000060: da11 813d fc49 963e 4cee 95bd f986 33bf
00000070: 77c2 28bf 51c7 22be e9dc aebe 0cd7 a0bd
00000080: 9f29 d23d 7c42 e43b 2f56 edbd f169 50be
00000090: fdf5 60bc 557d 573d d090 17bd 90c5 913d
000000a0: 5490 f53f 94e8 b93f 9615 90bd 0a5c 7b3d
000000b0: 1ac4 37bd d106 80bf 3d6a b33f 049b 2a3f
000000c0: 995a 19bc 0a28 fdbc d6ef fd3b 609f 98bf
000000d0: 3d4b 113f 8987 1c3f 9e4a e73c f275 213c
000000e0: 7be6 54be a4c0 65bf ddce d1be b325 42bf
000000f0: b162 a73c 9ecc d13a 12dd d0bd 8147 973e
00000100: e7e1 36bf d5b1 c3bf ca11 823c fcb7 073e
00000110: df83 e33e 5f1d 7d3e 1fcc 8abf 875c 27bd
00000120: 26a4 b5bb 3af5 6a3c 020d cebe b522 aabf
00000130: e1f3 5d3f 53a1 e03e 2780 98bd 1fe1 71bb
00000140: 180c 95be ec92 5c3f 7fa4 913e f463 973e
00000150: c64a 073c 89e4 673e 26ad 173f 4956 ae3e
00000160: 71c9 e1be ad9e 643e b417 4a3c 76bf db3d
00000170: f4bb 443f d8b0 e5bf d6da 86be fe35 97be
00000180: 1991 083e b7ed 1d3e 8eb1 82be f688 9f3e
00000190: 735b 80bf 8e04 57c0 2c53 393e 5a63 1b3e
000001a0: 2e58 543f 5d07 93bf 65e4 9d3f a753 ea3f
000001b0: 8091 63be e80d 63bd 0834 3b3e 3ac6 b13e
000001c0: 6e5f e03e 6848 943e 3b08 b8bd e646 62bc
000001d0: 88d7 07bd e1f4 09be 7b0a ce3e 0937 08bf
000001e0: 3df3 b63d 2828 25be 9d61 69bf 5cd3 8b3f
000001f0: f55f 90bf ae8a a0bf d41d 5cbe 1f8b a23c
00000200: 3496 03be 9e74 91bf f902 9b3f 006a ba3f
00000210: 7fe0 3a3e 9993 233e 10c4 c33c 6ed2 b43d
00000220: e5bd 563d a757 ea3d a5f0 bbbd 3255 1abd
00000230: e507 7fbe 4e3a 8ebf 9d17 bf3e 4e7b c93e
00000240: 3112 fabe ee0d 9b3d 5d85 913e efc1 083f
00000250: 82e0 52bd 7056 313e 9ee7 d0bc 38ea 373e
00000260: 9bbd 03be a575 1740 3166 f2be 8fd8 78bf
00000270: e720 c1bd 756b d4bd c0f9 b43e 2384 0d3f
00000280: d577 0ec0 8db4 cdbf f7aa 1abe 5b0d bc3c
00000290: e65f 903e b5c2 0dc0 3e8a 0340 da37 dd3f
000002a0: 1149 47bd 7f5d 313c 5acb 123f cae7 8440
000002b0: 81c1 e2bf 9fe0 18c0 b8d1 103d bed6 d93c
000002c0: 6b7c 8abf 511a 66bf 208d 83bf 4409 03be
000002d0: a95c 533d 7289 973c 934f 7bbe af02 98c0
000002e0: 6f11 203e 0213 a03c 7e06 7a3c 3a74 48bd
000002f0: b15b 6f3d a1d4 663f 9379 1f3f 830f 843e
00000300: 89b7 2d3c f21b 463d 4c31 bebd aed4 bdbf
00000310: 5077 853f 9d22 d23e 5b36 ffbc 694f ffbc
00000320: fa3e edbc ef62 bc3f 0e69 643f 0e84 453f
00000330: 584c 33bd c360 bebd e1f1 073e 4dcb e53e
00000340: 4d89 19c0 f008 b4be a91b 61bd f0be b73c
00000350: ac60 5ebd 2fd6 2abf 18c8 19bf d375 243e
00000360: 980e 663e 94b1 463e c89a d13c 95ea 873f
00000370: fce4 76be b335 eabe 5910 cfbc 6638 d0bc
00000380: de6a f23d b139 cb3f 766a c7be 78ff e3bd
00000390: b512 e33b 95bb 68bd e8bb 7ebc 6a23 efbf
000003a0: bff0 0fbd ec50 023d 111c 5abd a49c c03c
000003b0: 2023 dfbe 19cb 0840 ac86 863f b4bd ff3e
000003c0: 2835 b4bc 3a31 a63d 0887 36be 105c 92be
000003d0: a0b0 e8be 2355 0abf 624c 2d3c 8aa1 18bd
000003e0: c99f 47be 2a3c 4abf 92cf e43f 3432 343f
000003f0: 83f5 7abc dc27 0e3d 0de6 08bd a6b1 babe

Bumper/dense/MatMul f4 [25, 15]
0.032856256 0.3241048 -0.81870586 -0.32814467 0.111105524 0.6835506 0.30651584 0.12228782
-0.3557815 -0.36237445 0.09083187 0.84688544 0.37680182 0.06996703 0.4800503 -0.018471893
-0.33700344 -0.13707829 -0.0580345 0.27770427 0.4838519 0.07642141 0.76749885 0.1205849
0.598581 0.47132453 0.48750982 0.25701007 0.22763182 -0.08164391 0.037844945 -0.2990247
0.3394728 -0.27157316 0.21171133 -0.073940225 0.6822074 -0.46171656 -0.7658966 -0.19901794
-0.59854704 -0.095269956 0.514602 0.3295826 0.8500002 -0.16883591 -0.1767513 -0.7582063
-0.07713582 0.42470968 -0.15551363 0.4245806 -0.013942562 -0.28272825 0.068937786 0.62475896
0.42726815 0.18403286 -0.24076879 -0.28412935 0.063249566 -0.16448885 -0.18635264 -0.3718342
0.572078 0.42245024 0.040241234 0.76100016 0.90117747 0.17394699 0.32775038 -0.16682577
0.60761815 0.41371197 0.6049745 0.13400564 -0.17765693 0.23812012 -0.023729853 0.6990047
0.5488259 0.13749558 -0.5170801 0.0041460833 0.48146713 -0.22860299 0.97638214 0.06827822
0.03663099 0.52004814 0.5809654 -0.21307355 -0.6153855 -0.33763376 0.37113887 -0.028655067
-0.19454157 0.5473762 0.21150374 0.21187171 0.13087341 -0.13932972 0.56916726 -0.20858698
-0.06857077 0.4822922 -0.2266754 0.2889292 -0.2935598 0.95446384 0.527771 -0.39692646
-0.85408586 -1.0082768 0.8048945 -0.012293782 0.7257938 0.19343515 0.34137857 -0.012687429
0.6008819 -0.098205075 0.6691024 0.06921911 0.8438216 -0.2579999 0.34741187 -0.17888923
-0.16367127 0.14837533 -0.41944364 0.5757834 0.11839983 0.0406574 0.64695275 0.19027457
-0.25215313 0.6860231 -0.3189768 0.03906691 -0.4575028 -0.33510247 0.7144963 -0.4574354
0.057018865 -0.23942243 -0.4051362 0.48046955 -0.0809092 0.4149346 0.5406656 -0.52227604
-0.46196932 -0.34193227 0.33545804 0.26741558 0.06120552 0.41912115 0.08805015 0.23142724
0.51007485 0.029494392 0.08842119 -0.3399233 0.179747 -0.8655053 -0.44771174 -0.7607369
-0.5414612 0.4618106 0.42712322 0.37757447 -0.22695108 0.14911366 0.69903773 0.25401604
0.27061597 0.055261787 0.69883275 -1.6063519 0.86133313 -0.73039484 0.3597524 0.05767908
0.51296574 -0.0935368 0.04400315 0.7736106 -0.104229 0.20051357 0.2692494 0.27264196
0.52028686 0.23018686 -0.6882445 -0.40575528 0.25503045 0.1468098 -0.2779287 -0.7767378
0.06317555 0.6097133 0.47182474 -0.23399799 0.22707166 -0.37147164 -0.54895973 -0.14594543
-0.035802286 0.057509493 0.2531446 0.05374606 -0.52414626 0.5709165 -0.040204965 -0.37571767
-0.24405223 0.605708 0.88899696 -0.40662342 -0.08727352 -0.008657425 0.3391687 -0.42594597
0.12081325 0.5957143 -0.30194923 0.63007677 -0.15209681 0.42964268 -0.09787942 0.22061631
0.3279102 0.7946036 -0.06781333 0.45465523 0.75850123 0.14105462 -0.028860588 -0.3151677
0.32234398 -0.2546912 0.3292371 -0.06140021 0.066804804 0.14351223 -0.123297594 0.20168033
-0.59128696 -0.22149552 0.08892114 -0.048644252 -0.044974122 -0.026172036 -0.31135234 -0.118553646
00000000: 4894 063d 10f1 a53e b596 51bf 9402 a8be
00000010: 4b8b e33d 2cfd 2e3f a5ef 9c3e 0972 fa3d
00000020: fe28 b6be 2589 b9be 0f06 ba3d 7ccd 583f
00000030: 2bec c03e e04a 8f3d 27c9 f53e 5e52 97bc
00000040: b78b acbe 405e 0cbe 95b5 6dbd 412f 8e3e
00000050: 70bb f73e d482 9c3d ce7a 443f 37f5 f63d
00000060: 9b3c 193f 7351 f13e e39a f93e d396 833e
00000070: 5118 693e ec34 a7bd 4d03 1b3d c419 99be
00000080: 61cf ad3e a30b 8bbe dbca 583e f96d 97bd
00000090: 25a5 2e3f 1d66 ecbe cd11 44bf 5ccb 4bbe
000000a0: 613a 19bf e51c c3bd f5bc 033f 0dbf a83e
000000b0: 9d99 593f 52e3 2cbe 4bfe 34be cf19 42bf
000000c0: 63f9 9dbd 8c73 d93e f73e 1fbe a162 d93e
000000d0: 586f 64bc c2c1 90be 412f 8d3d 34f0 1f3f
000000e0: e4c2 da3e 1c73 3c3e 188c 76be 6779 91be
000000f0: fd88 813d c46f 28be 3ad3 3ebe 0d61 bebe
00000100: b473 123f 664b d83e fed3 243d e8d0 423f
00000110: 91b3 663f 291f 323e e6ce a73e 60d4 2abe
00000120: dd8c 1b3f 0ed2 d33e 9cdf 1a3f c638 093e
00000130: b3eb 35be c3d5 733e 1c65 c2bc f9f1 323f
00000140: db7f 0c3f a4cb 0c3e 5d5f 04bf dedb 873b
00000150: dc82 f63e e716 6abe 2ef4 793f 74d5 8b3d
00000160: 610a 163d e021 053f 26ba 143f f42f 5abe
00000170: e789 1dbf 55de acbe ea05 be3e 08be eabc
00000180: e835 47be d920 0c3f 7094 583e e6f4 583e
00000190: ae03 063e 73ac 0ebe f2b4 113f d397 55be
000001a0: d56e 8cbd 01ef f63e 991d 68be 87ee 933e
000001b0: 784d 96be be57 743f 001c 073f f239 cbbe
000001c0: 5fa5 5abf 370f 81bf 910d 4e3f dc6b 49bc
000001d0: 9fcd 393f dd13 463e 2cc9 ae3e efde 4fbc
000001e0: 65d3 193f be1f c9bd 4b4a 2b3f c0c2 8d3d
000001f0: b104 583f 9018 84be f8df b13e bd2e 37be
00000200: 7199 27be b4ef 173e 51c1 d6be 8a66 133f
00000210: 9c7b f23d 6088 263d b29e 253f 56d7 423e
00000220: 371a 81be 369f 2f3f ed50 a3be a004 203d
00000230: cf3d eabe 8d92 abbe 3be9 363f f934 eabe
00000240: 9d8c 693d 272b 75be 036e cfbe 1b00 f63e
00000250: b9b3 a5bd 4f72 d43e 1069 0a3f e2b3 05bf
00000260: 3e87 ecbe bf11 afbe 28c1 ab3e b2ea 883e
00000270: a4b2 7a3d 0c97 d63e a353 b43d 43fb 6c3e
00000280: 4494 023f 399e f13c 2b16 b53d 6d0a aebe
00000290: 990f 383e c191 5dbf 793a e5be a7bf 42bf
000002a0: 349d 0abf 7072 ec3e e5af da3e 7151 c13e
000002b0: dd65 68be 40b1 183e 23f4 323f 640e 823e
000002c0: 2d8e 8a3e 2f5a 623d b4e6 323f f09c cdbf
000002d0: 5480 5c3f 28fb 3abf 7731 b83e e640 6c3d
000002e0: b951 033f 3990 bfbd a63c 343d 580b 463f
000002f0: 0476 d5bd 6e53 4d3e 0fdb 893e ba97 8b3e
00000300: 8531 053f 1bb6 6b3e cb30 30bf 28bf cfbe
00000310: 5a93 823e 4f55 163e ac4c 8ebe 4ad8 46bf
00000320: 2f62 813d 2c16 1c3f 0393 f13e 2b9d 6fbe
00000330: 7985 683e 8831 bebe a088 0cbf b872 15be
00000340: 6ba5 12bd 138f 6b3d 2b9c 813e d424 5c3d
00000350: 732e 06bf 9527 123f f6ad 24bd 115e c0be
00000360: d4e8 79be ae0f 1b3f 4e95 633f f230 d0be
00000370: 76bc b2bd dfd7 0dbc 85a7 ad3e 9715 dabe
00000380: f06c f73d bb80 183f 1799 9abe b64c 213f
00000390: 44bf 1bbe 20fa db3e 0175 c8bd 3ee9 613e
000003a0: d9e3 a73e 246b 4b3f b7e1 8abd 92c8 e83e
000003b0: 232d 423f 9f70 103e 0a6d ecbc a95d a1be
000003c0: 450a a53e e366 82be c491 a83e c97e 7bbd
000003d0: f5d0 883d dff4 123e 7383 fcbd 4a85 4e3e
000003e0: 955e 17bf b9cf 62be 491c b63d 323f 47bd
000003f0: c936 38bd bd66 d6bc 9369 9fbe 41cc f2bd

Bumper/dense_1/MatMul f4 [25, 25]
-0.45116076 0.119737394 0.6104838 -0.29628542 -0.11613689 0.13618438 -0.22496063 0.5073933
0.7288507 0.18200094 -0.47740954 -0.5482634 0.09549477 -0.57479125 0.42306057 -0.48639607
0.020168424 1.3108795 -0.37054205 -0.037944358 0.33469674 0.5372422 -0.34533513 0.36706734
0.7431477 0.41180798 -0.28086257 0.15730165 0.19568667 0.31406707 -0.32898027 -0.022039454
-0.5069978 0.4191209 0.13896392 -0.09842263 -2.0051277 0.3103281 -0.16967577 0.54341245
0.3639152 0.2894141 -1.4380213 0.36599043 1.097099 -0.17302608 0.06872147 -1.3062605
-0.24490127 -0.37888622 -0.33201054 0.27275157 0.37144476 0.241403 -0.2257688 0.028471744
-0.26609713 0.3111448 0.7408252 0.67991763 0.15589361 -0.19640477 0.4587792 -0.9275124
-0.47592038 -0.14267562 -0.0360904 1.3631878 -0.20289011 -0.08184578 0.3753347 0.6833398
-0.22732589 0.63587797 0.18844923 -0.47111097 0.12893574 0.7522394 -0.14333889 -0.3914322
0.24349906 -0.5024662 0.50197774 0.38900805 0.70715386 -0.002271826 -0.56796217 0.13183902
-0.87528676 0.2567325 0.17685731 0.18861867 0.9621459 -0.10226223 -0.4379246 0.10899822
0.39275265 -0.87026286 0.5526468 0.23438506 0.8989643 -0.098427795 0.43323284 0.35459617
0.31723446 -0.021874435 0.4074698 -0.117106475 -0.19331594 -0.056217056 0.045122392 0.6914
-0.2078282 0.39787567 0.09762319 0.18766826 0.026200302 -1.1108898 0.30115607 0.328888
0.3219075 -0.1284883 0.4401683 0.42562166 -0.17556435 0.57880294 0.4283158 0.21751375
0.5040478 0.84306455 -0.030799614 0.578216 0.1927643 0.05004493 0.055567738 0.746237
1.0497203 0.073842585 0.5874273 -0.6678155 0.33107334 0.033619545 -0.8800306 0.8742773
0.85643196 0.39264455 -0.28901833 0.64837575 0.21826182 -0.5409294 0.6090155 0.64259577
-0.8293483 0.6859799 0.5807704 0.5820852 0.18781412 0.51931256 -0.107012264 -0.7485384
0.66270065 1.2932404 0.39578915 -0.38037482 -1.5921475 0.49932963 0.6594152 -1.1085808
0.08607389 0.2962111 0.20714955 0.022879934 1.0180056 0.3446209 -0.5755617 0.941622
0.4562742 -0.18602613 -0.03288984 0.91684836 -0.15225142 0.51434827 0.25206536 -0.21603146
-0.3247592 0.7459551 0.50598603 0.2990493 0.84549457 -0.72407126 0.66818833 0.2653057
-0.48475608 0.3871003 0.38997146 0.1784848 0.17552304 0.73479 0.11575453 -0.46885508
-0.4014375 0.014869925 0.19130272 0.20240544 -0.5661974 0.49466294 -0.42311317 0.42447743
0.6948006 0.37827566 -0.07744968 -0.06104533 0.12552294 -0.2357831 0.63075376 -0.11956989
-0.08408501 1.0758966 -0.025378246 0.16392942 0.40195897 -0.099220894 0.016621856 -0.012588582
0.4734777 0.5296359 0.58511823 0.8505057 -0.38399297 0.91671175 0.3805204 0.25863737
0.25564873 0.12969106 -1.1635343 0.09476905 1.1308433 0.6017015 -0.3498589 -0.8890543
0.52588576 0.57277906 1.152788 3.1895645 0.7012589 0.29267 0.72163904 0.5366915
0.16743182 0.97351265 0.70015055 0.04997558 -0.50061697 0.1878164 0.46509135 0.159664
00000000: 8bfe e6be e138 f53d ab48 1c3f b9b2 97be
00000010: 2ed9 edbd eb73 0b3e 145c 66be 87e4 013f
00000020: f695 3a3f 745e 3a3e 066f f4be fd5a 0cbf
00000030: c392 c33d 8525 13bf 659b d83e e808 f9be
00000040: 4038 a53c e6ca a73f b0b7 bdbe 8b6b 1bbd
00000050: 5f5d ab3e b488 093f c4cf b0be 40f0 bb3e
00000060: ed3e 3e3f 7fd8 d23e 38cd 8fbe af13 213e
00000070: 1662 483e 66cd a03e 1a70 a8be 168c b4bc
00000080: 9cca 01bf 0497 d63e 8f4c 0e3e ce91 c9bd
00000090: 0354 00c0 53e3 9e3e 7cbf 2dbe 141d 0b3f
000000a0: 1853 ba3e 162e 943e 1511 b8bf 1963 bb3e
000000b0: bd6d 8c3f c02d 31be d8bd 8c3d 8b33 a7bf
000000c0: 66c7 7abe 60fd c1be 49fd a9be 18a6 8b3e
000000d0: 022e be3e 5932 773e f02f 67be 933d e93c
000000e0: e23d 88be 5f4e 9f3e b8a6 3d3f 150f 2e3f
000000f0: 93a2 1f3e 551e 49be 1be5 ea3e 7471 6dbf
00000100: d6ab f3be 8f19 12be 87d3 13bd f07c ae3f
00000110: 6dc2 4fbe c39e a7bd df2b c03e 5bef 2e3f
00000120: 1ec8 68be e6c8 223f d6f8 403e 7535 f1be
00000130: bb07 043e c392 403f 6ec7 12be cd69 c8be
00000140: d157 793e a0a1 00bf 9d81 003f 102c c73e
00000150: 0908 353f eae2 14bb f865 11bf cf00 073e
00000160: cb12 60bf 7172 833e 151a 353e 4125 413e
00000170: 324f 763f dc6e d1bd a737 e0be 753a df3d
00000180: e016 c93e 8cc9 5ebf 437a 0d3f a302 703e
00000190: 8622 663f 8394 c9bd b2d0 dd3e a18d b53e
000001a0: 8e6c a23e 0432 b3bc e29f d03e 85d5 efbd
000001b0: 9df4 45be db43 66bd 42d2 383d 97ff 303f
000001c0: ead0 54be 5cb6 cb3e abee c73d 1c2c 403e
000001d0: 04a2 d63c a331 8ebf 2131 9a3e 0264 a83e
000001e0: 0fd1 a43e 7092 03be bd5d e13e 15eb d93e
000001f0: 24c7 33be 6e2c 143f 354c db3e edbb 5e3e
00000200: 4709 013f 14d3 573f 794f fcbc f705 143f
00000210: 0164 453e eafb 4c3d ff9a 633d 6309 3f3f
00000220: 3c5d 863f c83a 973d a361 163f f5f5 2abf
00000230: 7282 a93e a6b4 093d af49 61bf a3d0 5f3f
00000240: 203f 5b3f b508 c93e 36fa 93be f4fb 253f
00000250: 0780 5f3e 597a 0abf 71e8 1b3f 2881 243f
00000260: 2c50 54bf 619c 2f3f 5ead 143f 8903 153f
00000270: 5852 403e abf1 043f 3f29 dbbd 36a0 3fbf
00000280: c0a6 293f e788 a53f e0a4 ca3e 7dc0 c2be
00000290: 7dcb cbbf 22a8 ff3e 6fcf 283f fae5 8dbf
000002a0: 8247 b03d fba8 973e 031f 543e b36e bb3c
000002b0: 024e 823f 2772 b03e 0358 13bf 240e 713f
000002c0: c69c e93e a27d 3ebe 7fb7 06bd 93b6 6a3f
000002d0: cce7 1bbe 54ac 033f b60e 813e 5a37 5dbe
000002e0: d646 a6be eaf6 3e3f 4d88 013f fd1c 993e
000002f0: 5572 583f bc5c 39bf 640e 2b3f 26d6 873e
00000300: f331 f8be 0332 c63e 57aa c73e b8c4 363e
00000310: 50bc 333e 331b 3c3f b610 ed3d c60d f0be
00000320: 3789 cdbe fca0 733c dce4 433e 5f43 4f3e
00000330: 50f2 10bf 7644 fd3e 4aa2 d8be 1b55 d93e
00000340: 74de 313f 59ad c13e f09d 9ebd ab0a 7abd
00000350: 1689 003e 2071 71be 1479 213f 0fe1 f4bd
00000360: c334 acbd fbb6 893f 0ae6 cfbc 1ddd 273e
00000370: 91cd cd3e 5334 cbbd 8f2a 883c 5740 4ebc
00000380: ab6b f23e 3896 073f 4fca 153f beba 593f
00000390: ba9a c4be 9fad 6a3f 92d3 c23e 1e6c 843e
000003a0: 64e4 823e bccd 043e b1ee 94bf 4716 c23d
000003b0: 79bf 903f 1c09 1a3f b520 b3be 1099 63bf
000003c0: 73a0 063f a6a1 123f 8f8e 933f d321 4c40
000003d0: b485 333f d8d8 953e 56bd 383f 9d64 093f
000003e0: 3f73 2b3e 2038 793f 113d 333f 32b3 4c3d
000003f0: 6f28 00bf f152 403e 7420 ee3e f67e 233e

Bumper/dense_2/MatMul f4 [10, 25]
0.8197579 0.27085236 0.60741764 0.57650405 -0.17314442 -0.30582714 -0.10051077 -0.09697351
0.6816228 0.5423818 0.025915917 -1.17214 0.27639395 -0.2738632 0.0077098925 0.70214456
-0.38683844 0.36158133 0.28628632 -1.0075418 0.481582 0.79896086 0.2591371 -0.45903233
0.11789887 -0.3173096 -0.037826832 0.027941007 -0.30176777 0.9007571 1.0215838 0.4830505
0.83352274 -0.12174994 0.42927903 0.37741545 1.6043437 0.55974036 0.40471804 0.8355044
0.033373628 0.21077898 -0.9394057 0.8720136 1.6317068 -0.5712137 -0.3696488 -0.3454557
0.62956583 0.94119376 0.7007351 -0.2720655 0.3586443 0.79776156 -0.20532346 0.18369438
0.35175756 -0.0046916534 0.24474828 0.25521514 -0.143422 -0.8590889 0.7582883 -0.2705693
-0.1841341 0.22940806 -0.19822973 0.6031094 -0.42520043 -0.80031496 0.7087876 0.4287291
0.52316535 -0.37473446 -0.08714134 -0.2003751 -0.16404618 -0.02452888 -0.36981267 -0.37138748
-0.006925952 -0.28023964 -0.13681483 0.28765666 -0.2008494 -0.059952382 -0.39509603 0.089385346
-0.26272687 -0.32066792 0.08143849 -0.24349722 -0.0053941607 0.19151077 -0.08530534 0.3486556
0.19852991 -0.12621126 -0.0028546802 -0.051927574 -0.033666834 0.4894878 -0.6409751 0.3560699
0.4488315 0.15330496 -0.48082379 0.42790538 -1.3232865 0.2281883 -0.30186164 0.25452214
-0.630102 -0.22706954 0.1338434 -1.3755872 0.76030827 0.19484468 -0.026647277 0.81325823
0.09027856 -0.12844667 1.0756469 -0.23049651 -0.12156341 0.4824113 0.0059030866 0.32595658
0.1924921 -0.12776215 -0.4394468 -0.2378047 -0.11497895 0.37419212 0.5109583 0.1173418
-1.9602555 0.5248903 0.20583692 0.049158186 0.21542016 -0.23330164 0.8246209 -0.08542549
-0.8479244 0.7607596 0.6966298 0.6831735 -0.39088324 0.022360008 -0.46565658 -0.91973644
0.58175546 -0.1520666 0.2848515 0.85439765 0.38763285 0.5011031 -0.52945566 0.8410469
0.49677306 0.76902604 0.18956697 0.7704554 0.89808315 -0.52385163 0.7068783 -1.2149642
0.61637515 1.0653485 -0.31104657 -0.3637598 -0.18452346 0.78921896 0.26550964 0.3179698
0.48264858 0.59758216 0.76911515 -0.4564 -0.26592606 0.37882477 -0.05577703 0.41404042
-0.104348995 0.14823334 -2.1167908 0.7108178 -0.364108 0.12817392 0.15212771 0.23334639
0.7152867 -0.16167074 -1.0532397 0.4020101 0.8097952 0.59722394 0.124721065 -0.11385594
0.042529415 0.04814955 -0.35064062 0.22431913 0.423978 0.08372296 -0.25805458 0.30616507
-1.0944512 -0.12109881 0.011043483 0.028769238 -0.3715948 0.40906796 -0.16613273 -1.1422825
0.45569888 0.057991836 0.149748 0.4119459 0.23501056 0.4385574 0.80739576 0.21374245
-0.6629939 -0.12134349 -2.1211545 0.05793036 -0.26878512 0.527358 0.58791953 0.72908616
0.91283107 -0.09789167 0.008795457 0.79177445 0.117334746 0.49180478 0.16240889 0.79079974
-0.5407816 0.26484722 -1.9800303 0.9706038 0.57311326 -0.52920634 -0.17687249 0.2995274
1.024204 0.772337
00000000: a7db 513f 29ad 8a3e b97f 1b3f c595 133f
00000010: c54c 31be 6095 9cbe 97d8 cdbd 0c9a c6bd
00000020: d57e 2e3f 89d9 0a3f 9e4d d43c af08 96bf
00000030: 8283 8d3e cc37 8cbe 44a3 fc3b bfbf 333f
00000040: b00f c6be 3021 b93e 1f94 923e 21f7 80bf
00000050: ea91 f63e b388 4c3f 9ead 843e 4906 ebbe
00000060: f674 f13d 6776 a2be 4ff0 1abd 8ae4 e43c
00000070: 4e81 9abe 0498 663f 42c3 823f 6552 f73e
00000080: bf61 553f 0858 f9bd 76ca db3e 993c c13e
00000090: 225b cd3f 254b 0f3f 3437 cf3e 9ee3 553f
000000a0: c9b2 083d 72d6 573e e47c 70bf 493c 5f3f
000000b0: c5db d03f 103b 12bf 9c42 bdbe 92df b0be
000000c0: 3a2b 213f 13f2 703f 6063 333f 2b4c 8bbe
000000d0: 3aa0 b73e 1a3a 4c3f 5040 52be 611a 3c3e
000000e0: 9119 b43e 71bc 99bb 4b9f 7a3e 8fab 823e
000000f0: 37dd 12be 40ed 5bbf 2f1f 423f 0f88 8abe
00000100: a68d 3cbe f2e9 6a3e bcfc 4abe 6165 1a3f
00000110: dfb3 d9be 71e1 4cbf 1b73 353f 6182 db3e
00000120: 2aee 053f 32dd bfbe 2977 b2bd 212f 4dbe
00000130: b9fb 27be caf0 c8bc 1658 bdbe 8026 bebe
00000140: 19f3 e2bb 927b 8fbe 3019 0cbe bc47 933e
00000150: 77ab 4dbe a190 75bd 074a cabe aa0f b73d
00000160: 2384 86be 962e a4be 39c9 a63d 5657 79be
00000170: 80c1 b0bb 661b 443e 91b4 aebd fd82 b23e
00000180: 6d4b 4b3e 863d 01be 9615 3bbb 02b2 54bd
00000190: 3ce6 09bd 259e fa3e f216 24bf cb4e b63e
000001a0: 3ecd e53e fafb 1c3e 892e f6be 6a16 db3e
000001b0: 7461 a9bf 32aa 693e 9c8d 9abe ba50 823e
000001c0: 5d4e 21bf eb84 68be 3f0e 093e 3e13 b0bf
000001d0: 90a3 423f 5d85 473e 644b dabc b131 503f
000001e0: f7e3 b83d 8687 03be ccae 893f 4707 6cbe
000001f0: 3df6 f8bd 9dfe f63e ae6e c13b c8e3 a63e
00000200: a61c 453e 15d4 02be 2cff e0be 1383 73be
00000210: 157a ebbd 1c96 bf3e 2ace 023f e650 f03d
00000220: a7e9 fabf 365f 063f eac6 523e 185a 493d
00000230: 1a97 5c3e a0e6 6ebe 5b1a 533f 8ff3 aebd
00000240: 9311 59bf 24c1 423f 5556 323f 75e4 2e3f
00000250: d921 c8be 562c b73c 8a6a eebe d973 6bbf
00000260: eded 143f 59b7 1bbe 0ed8 913e ceb9 5a3f
00000270: d077 c63e 4b48 003f 688a 07bf da4e 573f
00000280: 0a59 fe3e e4de 443f d81d 423e 913c 453f
00000290: c7e8 653f 241b 06bf faf5 343f f283 9bbf
000002a0: c3ca 1d3f 575d 883f 7f41 9fbe b93e babe
000002b0: b8f3 3cbe 410a 4a3f e1f0 873e f0cc a23e
000002c0: b71d f73e 25fb 183f bbe4 443f 43ad e9be
000002d0: 7627 88be 52f5 c13e 7476 64bd 1bfd d33e
000002e0: edb4 d5bd 7bca 173e 8079 07c0 28f8 353f
000002f0: 5d6c babe 0640 033e 5ec7 1b3e 5bf2 6e3e
00000300: 071d 373f 048d 25be 8fd0 86bf 45d4 cd3e
00000310: bd4e 4f3f abe3 183f c26d ff3d 4e2d e9bd
00000320: 5333 2e3d 7638 453d 2b87 b3be eab3 653e
00000330: a513 d93e f176 ab3d bb1f 84be abc1 9c3e
00000340: fa16 8cbf a702 f8bd baef 343c 77ad eb3c
00000350: ac41 bebe 5b71 d13e b31e 2abe 5036 92bf
00000360: 5d51 e93e d988 6d3d 8a57 193e 93ea d23e
00000370: 9ca6 703e 988a e03e 7db1 4e3f 4ddf 5a3e
00000380: f8b9 29bf f082 f8bd ffc0 07c0 6348 6d3d
00000390: 349e 89be ef00 073f e581 163f 64a5 3a3f
000003a0: 4caf 693f 6e7b c8bd d21a 103c bbb1 4a3f
000003b0: 334d f03d d6cd fb3e 844e 263e da71 4a3f
000003c0: aa70 0abf 0e9a 873e a271 fdbf 7e79 783f
000003d0: 8db7 123f 117a 07bf 101e 35be a85b 993e
000003e0: 1e19 833f e1b7 453f

Bumper/Fx/MatMul f4 [1, 10]
0.9718009 -0.66113144 0.6021884 -0.03974768 2.2514453 0.5705724 -0.67729366 0.8475032
2.3032994 -0.8826192
00000000: f2c7 783f e93f 29bf 0529 1a3f 77ce 22bd
00000010: ae17 1040 0811 123f 1e63 2dbf f8f5 583f
00000020: 4269 1340 55f3 61bf

Bumper/dense_3/MatMul f4 [25, 15]
-0.09340012 0.44723907 -0.20252867 0.71798855 -0.14998122 -0.56421715 0.32689115 -0.4354861
0.6692704 0.104889356 -0.4322771 -0.010717199 0.3225054 -0.07256141 0.026190657 -0.92761755
-0.32532746 0.23949829 -0.26549178 0.633243 0.85865766 0.23966298 -0.1322883 0.5027337
0.6979589 -0.3718592 0.3661451 -0.06421674 0.6304174 -1.4827964 0.26461956 -0.512099
0.49288696 -0.09180541 0.30315837 -0.03540064 0.48074365 -0.37051386 0.078313865 0.55412114
0.29821494 -0.097470306 0.26770428 0.3897423 -0.6280373 -0.014733103 -0.8573226 -0.14726771
0.010214132 0.4352821 0.0068891738 0.44225577 -0.14634891 -0.9742826 0.12887397 0.3373977
0.38445422 0.0059721456 -0.36570206 -0.56761456 -0.2522757 -0.60590446 -0.010084554 0.29094848
0.15081336 0.49683073 0.23546065 -0.28763622 0.05474871 0.0139706 0.5164641 0.9611199
0.4349978 0.62904936 0.11990884 -0.27782223 0.2749651 -0.073664956 0.3345271 -0.3904922
-0.58695334 0.48351014 0.27399448 0.36462232 0.029690366 0.0685007 2.147661 -3.1968832
-0.20381726 -0.7212381 -0.7854728 -0.84288263 -0.03651683 0.37950635 -0.24982388 0.08856422
-0.23695013 -0.2954598 0.2968033 0.13897009 0.062388483 0.73397595 0.35058868 -0.19685265
0.12009574 0.25140932 -0.35795888 0.10533933 -0.28051448 0.125624 0.18313296 -0.24604134
0.12849793 -0.9293313 -0.36888742 0.07725535 -0.99795693 0.08392723 -1.1735009 0.06567399
1.2437334 0.28185153 -0.88260365 0.4430664 0.24816316 0.123106875 0.86266524 0.14226148
0.3983136 -0.12540182 -0.29644126 -0.49952948 -0.8300018 -0.0066586807 -0.8429496 -0.13065864
-0.5998897 0.4370108 0.1542276 -0.07020662 0.1868207 0.20103653 -0.6242366 -0.6015675
0.33810353 -0.40120792 0.6480134 -0.9175261 -0.29072788 -0.13475053 -0.32083353 -0.6741054
0.4543806 -0.29055014 0.66075593 0.08087855 0.35514796 0.04340497 0.25422987 0.6376789
0.44356054 0.27835676 0.09882332 0.89786613 0.6004666 -0.22956307 0.1125189 0.3077494
-0.24812123 0.19264863 0.03404169 -0.3520007 -0.68677294 1.0357302 0.3451442 -0.44219184
-0.37104973 0.5674837 0.03965695 0.46734494 -0.3209579 -0.035668954 -0.057939157 -0.72422415
-0.051397294 0.06544135 0.4580961 0.21245694 0.4512251 0.581606 0.14307562 -0.28246796
0.090300836 0.10692023 -0.40161183 -0.39243793 -0.53001255 0.24960256 -0.63429314 0.72321796
-0.11161592 0.5783334 -0.7990234 -0.38157555 -0.14774029 -0.0031792973 0.6600322 0.4543896
0.21798316 0.019932084 -0.07288178 -0.00034600182 -0.88875294 -0.47608063 0.18055439 0.20099795
-0.043964863 0.3397555 -0.3463399 0.6192322 0.22902052 0.16289328 0.4468917 -0.5492558
-0.19763505 -0.35984886 -0.26375723 0.05744359 0.05636866 0.29731098 0.29499468 0.5984577
-0.95457405 -0.4832554 1.0586839 -0.27212644 1.6500915 -0.4724928 -0.5028093 0.42095006
-0.20925875 -0.28569254 -0.057142414 -0.20985055 -0.08945009 -0.31984007 -0.328063 -0.061424833
-0.5008621 -0.8506722 0.5034658 -0.6324436 -0.15318213 -0.78451586 0.098951876 -0.48848432
00000000: 9048 bfbd 85fc e43e ad63 4fbe 19ce 373f
00000010: ad94 19be 8970 10bf 475e a73e 09f8 debe
00000020: 4e55 2b3f 3bd0 d63d 6d53 ddbe 3197 2fbc
00000030: 6e1f a53e 149b 94bd ca8d d63c 5878 6dbf
00000040: 5291 a6be 0a3f 753e 8aee 87be 371c 223f
00000050: fdd0 5b3f 366a 753e 9676 07be 28b3 003f
00000060: 6fad 323f 5464 bebe 5f77 bb3e 1184 83bd
00000070: 0963 213f 46cc bdbf 377c 873e ec18 03bf
00000080: ae5b fc3e 7a04 bcbd 9337 9b3e 4300 11bd
00000090: 0824 f63e feb3 bdbe 0563 a03d e2da 0d3f
000000a0: a1af 983e 839e c7bd 8910 893e 4e8c c73e
000000b0: 0dc7 20bf 1d63 71bc 7e79 5bbf 59cd 16be
000000c0: 2d59 273c 4cdd de3e 94be e13b 596f e23e
000000d0: 7ddc 15be 966a 79bf 8af7 033e 64bf ac3e
000000e0: 2fd7 c43e fdb1 c33b 4d3d bbbe 304f 11bf
000000f0: 482a 81be 8e1c 1bbf af39 25bc 33f7 943e
00000100: d16e 1a3e 9960 fe3e 991c 713e 0e45 93be
00000110: 2f40 603d f2e4 643c fe36 043f f40b 763f
00000120: 08b8 de3e 6109 213f c492 f53d b73e 8ebe
00000130: 3ac8 8c3e a7dd 96bd 2347 ab3e 98ee c7be
00000140: 9342 16bf a48e f73e 0149 8c3e c7af ba3e
00000150: 3639 f33c 184a 8c3d 4773 0940 bc99 4cc0
00000160: 79b5 50be 0fa3 38bf bf14 49bf 28c7 57bf
00000170: ac92 15bd a84e c23e d5d1 7fbe 2861 b53d
00000180: 0ea3 72be 8246 97be 9af6 973e 2d4e 0e3e
00000190: 118b 7f3d d9e5 3b3f 5c80 b33e be93 49be
000001a0: c1f4 f53d b9b8 803e 6346 b7be 26bc d73d
000001b0: 989f 8fbe 94a3 003e 3587 3b3e 43f2 7bbe
000001c0: f694 033e a8e8 6dbf d0de bcbe 0e38 9e3d
000001d0: 1b7a 7fbf 0ae2 ab3d 4735 96bf 1680 863d
000001e0: a832 9f3f d84e 903e 50f2 61bf 99d9 e23e
000001f0: 7c1e 7e3e 751f fc3d a1d7 5c3f feac 113e
00000200: c3ef cb3e 5669 00be 26c7 97be 54c2 ffbe
00000210: ff7a 54bf 1031 dabb 8ccb 57bf 61cb 05be
00000220: 5f92 19bf e1bf df3e d7ed 1d3e 7dc8 8fbd
00000230: ed4d 3f3e 85dc 4d3e f8cd 1fbf 5400 1abf
00000240: e81b ad3e 206b cdbe 35e4 253f fee2 6abf
00000250: 49da 94be 0bfc 09be 4b44 a4be 2c92 2cbf
00000260: 93a4 e83e fdc2 94be 4d27 293f a7a3 a53d
00000270: f4d5 b53e 69c9 313d 6b2a 823e ed3e 233f
00000280: 5e1a e33e c784 8e3e e163 ca3d 8eda 653f
00000290: 2eb8 193f 9512 6bbe 4f70 e63d 5491 9d3e
000002a0: 7e13 7ebe af45 453e 4d6f 0b3d 7039 b4be
000002b0: 5ad0 2fbf cf92 843f beb6 b03e f866 e2be
000002c0: 3bfa bdbe 9d46 113f 536f 223d d647 ef3e
000002d0: 9854 a4be 9c19 12bd 9c51 6dbd c166 39bf
000002e0: f885 52bd 1d06 863d 928b ea3e 508e 593e
000002f0: fa06 e73e 21e4 143f 6a82 123e a49f 90be
00000300: a5ef b83d fef8 da3d 11a0 cdbe a0ed c8be
00000310: e7ae 07bf d097 7f3e 0961 22bf d024 393f
00000320: e396 e4bd a80d 143f cc8c 4cbf df5d c3be
00000330: 3b49 17be c25b 50bb dff7 283f c1a5 e83e
00000340: fa36 5f3e 9c48 a33c 0b43 95bd 9467 b5b9
00000350: 5085 63bf d7c0 f3be 40e3 383e 68d2 4d3e
00000360: 8014 34bd 6ff4 ad3e 7753 b1be 0086 1e3f
00000370: 5b84 6a3e 7fcd 263e fdce e43e 079c 0cbf
00000380: d860 4abe 1c3e b8be 300b 87be f849 6b3d
00000390: d3e2 663d 2539 983e 8b09 973e 8634 193f
000003a0: f75e 74bf 406d f7be f482 873f 2854 8bbe
000003b0: 3336 d33f 94ea f1be 1cb8 00bf c486 d73e
000003c0: ed47 56be 4b46 92be 2a0e 6abd 10e3 56be
000003d0: 9c31 b7bd 14c2 a3be e0f7 a7be 9b98 7bbd
000003e0: 8038 00bf a7c5 59bf 22e3 003f d3e7 21bf
000003f0: c7db 1cbe 08d6 48bf 48a7 ca3d 9e1a fabe

Bumper/dense_4/MatMul f4 [25, 25]
0.17848566 -1.4657359 0.10196354 0.53579366 0.10923676 1.750905 -0.06985837 0.5700901
0.028328432 -0.030777466 -0.31153783 -0.70524156 -0.35996097 -0.38946316 0.24051896 0.17954281
0.6348833 0.45179933 0.32480195 0.098995365 -0.68099314 0.24277657 -1.0460563 0.16856986
-0.06623027 -0.09968809 0.830364 -0.11947441 -0.22291517 0.44084328 -0.35111788 0.6248382
-1.014993 -0.073869854 -0.37982956 -0.1442753 -0.1836174 -0.29245272 0.36210042 -0.4898685
-0.36990282 -0.46807563 -0.015921231 0.40577847 0.026567705 0.3686909 0.03784309 0.805151
-0.12339323 0.20575929 0.7282632 -1.4575516 -0.033133022 -0.023766669 -0.44179857 2.0417285
-0.6228668 0.31998146 1.0668954 0.16502148 -0.4679095 0.08403786 0.415891 -0.016619325
-0.04387678 -0.39012665 0.7535928 0.56705385 0.20141914 -0.15063405 -0.50623876 0.005142137
0.5179424 0.61895794 -0.6160779 0.60409224 -1.333623 0.4645856 0.3700678 0.44462705
1.1967382 0.21749817 -0.0133594135 0.060449705 0.46499768 -0.13220733 -0.94932234 -1.0718752
-0.17776899 0.04936402 0.3818572 0.43489048 -0.2598107 0.12350112 -0.40669173 -0.71320254
0.24494094 -1.9705352 -0.29219505 0.2447764 0.8818637 -0.09240694 0.034826454 -0.22649273
0.24653576 1.4283266 0.34136721 -0.23065975 -0.101206005 0.4217551 -0.48444435 -0.21328576
-0.79621136 -0.03668847 0.22653982 0.12904248 1.2247277 0.3586138 -0.28658387 -0.05125159
0.3178997 0.19935249 -0.46268842 -0.10887145 0.059639607 -0.36746773 0.79648244 0.32187876
0.3810991 0.008892435 -2.1924102 0.17499967 0.17093155 0.2454001 0.38611042 -0.060191207
0.4938889 0.5042692 0.4226876 0.52859855 0.5822495 -0.74425226 -0.35145038 0.36198103
0.27440566 1.2509162 0.022378055 0.9311032 -0.3433073 -0.10269966 0.19357423 0.5941982
-0.31301165 -0.021208279 0.057568587 -0.1702074 0.19260268 -0.35582873 0.6549732 0.14079684
0.06897141 0.55018914 0.43679586 0.3753253 0.21089493 0.27078342 -0.51251304 -0.12667684
-0.11302028 0.041899238 -1.7055213 -0.29453173 -0.20449801 0.3501004 -0.35154885 -0.034006868
-0.17378022 -0.10504585 -0.22953339 0.13133934 -0.074578345 -0.13188758 -0.26420176 0.12778111
-0.12252338 -0.24554837 -0.18044268 -0.111507654 -0.22834603 -0.11746128 -0.24748167 0.08858905
-0.29714903 -0.0073124333 0.3085101 -0.0806538 0.11102957 0.16455913 -0.19151768 -0.1498986
0.5233273 -0.84755844 0.23298801 0.38688177 -0.1752563 1.8107078 0.20423807 0.64046943
0.3624703 -0.13723986 -0.19621779 -0.6455725 -0.22248155 0.36810714 -0.29244715 -0.2892083
1.0681132 0.4707131 0.09306679 0.0007551081 -0.74659777 0.26812848 -1.2283634 0.515256
0.20457795 -0.20747969 0.310523 0.6713428 0.28240728 0.3605672 -0.7599174 0.47479215
0.4254311 -0.5265949 0.16373713 0.6321991 0.6779418 0.29043123 0.20815141 0.17676069
0.55168235 -0.8936932 -0.61071193 0.54374313 0.5370614 0.5506052 0.5207575 0.057014626
0.057265613 0.31702077 -0.70487124 0.4287396 0.38137615 0.6125264 0.5466279 -1.7654473
00000000: f2c4 363e 3c9d bbbf 43d2 d03d c629 093f
00000010: 86b7 df3d a81d e03f e811 8fbd 6df1 113f
00000020: 0711 e83c 0621 fcbc e381 9fbe b68a 34bf
00000030: ce4c b8be b767 c7be 9a4a 763e 12da 373e
00000040: b687 223f 3e52 e73e 714c a63e 15be ca3d
00000050: 9155 2ebf 6c9a 783e 2ce5 85bf 949d 2c3e
00000060: bca3 87bd 4529 ccbd bc92 543f 00af f4bd
00000070: e043 64be 36b6 e13e b9c5 b3be 65f5 1f3f
00000080: 4aeb 81bf 1449 97bd 0579 c2be e7bc 13be
00000090: 3306 3cbe 5dbc 95be 3a65 b93e 0bd0 fabe
000000a0: e763 bdbe 9ca7 efbe 3e6d 82bc 32c2 cf3e
000000b0: 84a4 d93c 0ec5 bc3e 5b01 1b3d 601e 4e3f
000000c0: 97b5 fcbd 90b2 523e 756f 3a3f 0d91 babf
000000d0: 7eb6 07bd 51b2 c2bc 6c33 e2be aeab 0240
000000e0: 3374 1fbf 9cd4 a33e 0790 883f 64fb 283e
000000f0: d591 efbe 0b1c ac3d aaef d43e 4025 88bc
00000100: 23b8 33bd aebe c7be 75eb 403f 712a 113f
00000110: d240 4e3e d03f 1abe dd98 01bf 5f7f a83b
00000120: e097 043f 0774 1e3f 48b7 1dbf caa5 1a3f
00000130: 29b4 aabf 2ade ed3e 8779 bd3e 28a6 e33e
00000140: b82e 993f d7b7 5e3e 71e1 5abc 1c9a 773d
00000150: 2d14 ee3e 5c61 07be ca06 73bf 3533 89bf
00000160: 1309 36be ed31 4a3d c982 c33e f7a9 de3e
00000170: e805 85be 28ee fc3d e639 d0be 7194 36bf
00000180: ccd1 7a3e 7f3a fcbf 979a 95be aaa6 7a3e
00000190: d2c1 613f da3f bdbd 2fa6 0e3d b6ed 67be
000001a0: df73 7c3e 68d3 b63f afc7 ae3e 1232 6cbe
000001b0: 1845 cfbd 49f0 d73e 1709 f8be 9567 5abe
000001c0: 82d4 4bbf a646 16bd 0efa 673e b623 043e
000001d0: e1c3 9c3f 3a9c b73e 1fbb 92be 30ed 51bd
000001e0: c0c3 a23e 0f23 4c3e 7fe5 ecbe fff7 debd
000001f0: a948 743d bb24 bcbe 46e6 4b3f 4bcd a43e
00000200: 6c1f c33e 93b1 113c 7350 0cc0 1d33 333e
00000210: ae08 2f3e 2a4a 7b3e 44b0 c53e 0e8b 76bd
00000220: 02df fc3e c917 013f 826a d83e 3c52 073f
00000230: 4e0e 153f 5187 3ebf 4ef1 b3be 9455 b93e
00000240: e67e 8c3e 061e a03f 2f52 b73c c85c 6e3f
00000250: f9c5 afbe 3354 d2bd 5338 463e 601d 183f
00000260: 1043 a0be fcbc adbc 0acd 6b3d d94a 2ebe
00000270: a339 453e 2f2f b6be 53ac 273f 0c2d 103e
00000280: e240 8d3d 32d9 0c3f b5a3 df3e a32a c03e
00000290: d7f4 573e 20a4 8a3e 0e34 03bf 93b7 01be
000002a0: 2d77 e7bd 899e 2b3d 864e dabf ddcc 96be
000002b0: ed67 51be 5c40 b33e 36fe b3be c94a 0bbd
000002c0: 71f3 31be 4722 d7bd cd0a 6bbe d27d 063e
000002d0: 88bc 98bd 8a0d 07be 7445 87be 0dd9 023e
000002e0: 8aed fabd 0871 7bbe f7c5 38be 205e e4bd
000002f0: 8bd3 69be 8a8f f0bd d66b 7dbe 2d6e b53d
00000300: eb23 98be 239d efbb 09f5 9d3e d22d a5bd
00000310: 7963 e33d 3082 283e 361d 44be 057f 19be
00000320: c7f8 053f 97f9 58bf 6994 6e3e 5e15 c63e
00000330: 6376 33be 46c5 e73f c923 513e cef5 233f
00000340: b595 b93e 9b88 0cbe 51ed 48be 3d44 25bf
00000350: 34d2 63be 8a78 bc3e a2bb 95be 1c13 94be
00000360: efb7 883f 4f01 f13e cd99 be3d 72f2 453a
00000370: 0821 3fbf 2348 893e 033b 9dbf d1e7 033f
00000380: e27c 513e 8e75 54be dffc 9e3e 1fdd 2b3f
00000390: b097 903e 449c b83e f289 42bf f517 f33e
000003a0: 1bd2 d93e ecce 06bf b5aa 273e cdd7 213f
000003b0: 988d 2d3f 67b3 943e a525 553e c100 353e
000003c0: 0e3b 0d3f 14c9 64bf 9e57 1cbf c032 0b3f
000003d0: db7c 093f 76f4 0c3f 5d50 053f 2b88 693d
000003e0: 598f 6a3d 8c50 a23e 7172 34bf c283 db3e
000003f0: bc43 c33e 88ce 1c3f ceef 0b3f 2dfa e1bf
